practica 7-2/practica-7-cifar-y-redes-convolucionales-Jhonylaz/CIFAR.pth (torch, 581103 bytes, 10 tensors)

conv1.weight f4 [64, 3, 5, 5]
0.42209485 0.46548584 -0.10244751 -0.5409526 -1.2845532 -0.05454238 -0.035428487 0.15739204
-0.16485901 -0.643925 -0.097277105 0.04277413 0.42572188 0.32064524 -0.04746812 0.32651028
0.15125808 0.3275676 0.65570396 0.6449098 0.6721644 0.63381404 0.7156621 0.69830096
0.73320556 0.58614 0.78013766 0.671675 0.12507416 -0.6508523 -0.13939412 0.084572285
0.4340329 0.5895007 -0.15699758 -0.31608272 -0.30146542 0.18983546 0.2505552 0.1905799
-0.40685636 -0.4467102 -0.4237192 0.09048671 0.40297064 0.23105611 -0.10634268 0.08787922
0.35607812 0.7671436 0.23718643 1.1434749 1.2959791 1.0642856 0.2917803 -0.8331491
-0.050536506 0.727214 1.2318741 0.7322603 -0.88479924 -0.8876085 -0.11241526 0.52757436
0.36573678 -1.0920095 -1.1552993 -0.9795252 -0.4273956 0.13351052 -0.77264106 -0.93834686
-0.64110804 -0.6214915 0.014263798 -0.76488495 -0.53852904 -0.15100588 0.026259726 0.25184634
-1.2883618 -0.63929147 0.015473887 0.6353189 0.8087845 -1.62765 -0.12873168 0.8202273
0.70467305 0.5856587 -1.3743831 0.23345561 0.57952684 0.44191873 0.5388915 -0.9072882
0.1718588 0.5484145 0.31207383 0.6220879 -0.4593171 -0.5177121 -0.33361524 -0.1994806
-0.026841585 -0.7405785 -0.45793998 -0.21713522 0.17117669 0.08225327 -0.8762944 0.2446777
0.6488114 0.44668397 0.14327984 -0.8754727 0.5515088 0.6320601 0.27733338 0.53708005
-0.516581 0.60808444 0.70366305 0.19169348 0.67085403 -0.4538222 -0.6742828 -0.61904687
-0.56080467 -0.7215599 -0.59518695 -0.7191602 -0.656811 -0.42795882 -0.59696805 -0.7997614
-0.18737064 -0.19456246 -0.6513295 -0.71541303 -0.67166996 0.027757628 -0.16400778 -0.6288688
-0.62260026 -0.8523122 -0.11748625 -0.32133886 -0.72035706 -0.32207543 -0.35443896 -0.4335531
-0.92822605 -1.0550058 -0.7550927 0.76419073 1.086663 0.96532625 0.6271194 0.8031347
-0.074829936 0.31737494 0.08406602 0.2416879 0.76844543 -0.78767234 -0.55959225 -0.8760973
-0.9015575 -0.9070919 -0.30561835 -0.2796021 -0.4196153 -0.070691325 -0.9485619 -0.67338663
-0.5151385 -0.7408765 -0.7090288 -0.40368742 0.5936652 1.3529773 1.2754921 1.0499966
1.2402457 -0.2680936 -0.038824465 -0.00021559624 0.38972408 0.7361771 -0.9655272 -0.7759778
-0.9830502 -0.91476905 -1.2594697 0.05155015 0.11532336 0.025976412 0.19211368 -0.81708276
-0.6089944 -0.6804399 -0.649206 -0.43969214 -0.3414641 0.53438103 1.050621 1.1431421
1.0430478 1.1726931 -0.28850856 0.17218009 0.14043379 0.59007 0.8273283 -0.79144436
-0.69559616 -0.7092514 -0.5414371 -0.8503593 0.0686201 0.3129705 -0.023184715 0.36109453
-0.5040023 0.38836467 0.5036448 -1.1497308 -1.4608785 -0.482678 -0.5136303 0.009036149
0.88024455 -0.3426782 -0.9857411 0.2938995 -1.0918783 0.03490739 0.81841993 0.04366097
1.1028727 0.7395626 -0.89624065 -0.83219004 0.39017284 -0.02241655 1.085495 1.1293104
-0.0584681 -0.44231173 0.2291743 0.9667994 -0.3059904 -0.4970654 0.5805907 -0.92937315
00000000: d11c d83e 2954 ee3e 00d0 d1bd df7b 0abf
00000010: 3d6c a4bf d567 5fbd 761d 11bd 612b 213e
00000020: cdd0 28be 45d8 24bf 3839 c7bd ed33 2f3d
00000030: 38f8 d93e 9d2b a43e ee6d 42bd 5b2c a73e
00000040: 66e3 1a3e f1b6 a73e 37dc 273f cf18 253f
00000050: f712 2c3f a341 223f a235 373f dac3 323f
00000060: 5cb3 3b3f 450d 163f 1ab7 473f e5f2 2b3f
00000070: 7113 003e 429e 26bf 55bd 0ebe 3c34 ad3d
00000080: 8f39 de3e 85e9 163f f9c3 20be 98d5 a1be
00000090: ad59 9abe 3a64 423e c548 803e 6127 433e
000000a0: 7a4f d0be 33b7 e4be b9f1 d8be 1951 b93d
000000b0: 2b52 ce3e f999 6c3e 31ca d9bd 05fa b33d
000000c0: df4f b63e 8663 443f 00e1 723e 635d 923f
000000d0: a5e2 a53f 833a 883f 3a64 953e 4249 55bf
000000e0: 5eff 4ebd b22a 3a3f 0dae 9d3f 6975 3b3f
000000f0: 3482 62bf 503a 63bf f939 e6bd 1d0f 073f
00000100: da41 bb3e f8c6 8bbf d9e0 93bf 2ac2 7abf
00000110: 99d3 dabe fbb6 083e cecb 45bf 8037 70bf
00000120: a81f 24bf 111a 1fbf b4b2 693c 80cf 43bf
00000130: 0add 09bf 49a1 1abe a31e d73c 01f2 803e
00000140: 0ae9 a4bf 9ba8 23bf 3086 7d3c 42a4 223f
00000150: 800c 4f3f d656 d0bf 3dd2 03be 6bfa 513f
00000160: 7465 343f bbed 153f c9eb afbf fd0e 6f3e
00000170: df5b 143f 2c43 e23e cbf4 093f 0a44 68bf
00000180: c1fb 2f3e e564 0c3f 24c8 9f3e 2741 1f3f
00000190: 9c2b ebbe c888 04bf 9ecf aabe a444 4cbe
000001a0: e2e2 dbbc 8d96 3dbf 1c77 eabe b258 5ebe
000001b0: f148 2f3e 6774 a83d d454 60bf ca8c 7a3e
000001c0: 8118 263f c3b3 e43e f3b7 123e fb1e 60bf
000001d0: ae2f 0d3f b1ce 213f a4fe 8d3e 147e 093f
000001e0: a73e 04bf 6cab 1b3f 4323 343f 4c4b 443e
000001f0: 17bd 2b3f 625b e8be cc9d 2cbf db79 1ebf
00000200: e590 0fbf 26b8 38bf 2c5e 18bf e21a 38bf
00000210: c424 28bf 6b1d dbbe e6d2 18bf 2abd 4cbf
00000220: 17de 3fbe 623b 47be 88bd 26bf 4f25 37bf
00000230: 90f2 2bbf f763 e33c a8f1 27be 8cfd 20bf
00000240: bb62 1fbf 2231 5abf a29c f0bd 8786 a4be
00000250: 5269 38bf 12e7 a4be 0679 b5be acfa ddbe
00000260: 39a0 6dbf 6e0a 87bf c14d 41bf 01a2 433f
00000270: c617 8b3f 9f1f 773f e68a 203f 3c9a 4d3f
00000280: 7040 99bd f87e a23e ce2a ac3d 087d 773e
00000290: d7b8 443f e5a4 49bf 7041 0fbf ea47 60bf
000002a0: 79cc 66bf 2d37 68bf 027a 9cbe 0228 8fbe
000002b0: d1d7 d6be 9dc6 90bd f4d4 72bf 1163 2cbf
000002c0: 1ee0 03bf 15aa 3dbf e982 35bf 1eb0 cebe
000002d0: 71fa 173f 5c2e ad3f 5343 a33f 4a66 863f
000002e0: 5fc0 9e3f 9043 89be 6706 1fbd ad11 62b9
000002f0: ea89 c73e 1a76 3c3f ca2c 77bf 7ba6 46bf
00000300: 2ea9 7bbf 4e2e 6abf 4e36 a1bf 4026 533d
00000310: a72e ec3d 7ccc d43c 73b9 443e 562c 51bf
00000320: 0fe7 1bbf 4f31 2ebf 5d32 26bf 541f e1be
00000330: 62d4 aebe 32cd 083f c07a 863f 7b52 923f
00000340: 9782 853f cf1a 963f 65b7 93be fa4f 303e
00000350: e0cd 0f3e d40e 173f cacb 533f 199c 4abf
00000360: 9712 32bf 8091 35bf 9f9b 0abf 26b1 59bf
00000370: b288 8c3d ab3d a03e dfed bdbc 62e1 b83e
00000380: 4b06 01bf bcd7 c63e deee 003f 612a 93bf
00000390: 11fe babf 9221 f7be 467d 03bf 5b0c 143c
000003a0: b557 613f 8473 afbe 8759 7cbf ff79 963e
000003b0: abc2 8bbf 0dfb 0e3d f883 513f d8d5 323d
000003c0: ef2a 8d3f f953 3d3f 0770 65bf 680a 55bf
000003d0: bcc4 c73e eaa2 b7bc 80f1 8a3f 3e8d 903f
000003e0: 3f7c 6fbd af76 e2be abac 6a3e 2a80 773f
000003f0: c6aa 9cbe 5b7f febe 98a1 143f 66eb 6dbf

conv1.bias f4 [64]
-4.6878743 1.4234313 0.37445256 -0.20322122 -0.09991987 -0.9376992 0.7661764 0.10190234
0.5397329 -0.15319377 -0.35239664 0.30381137 -0.22463475 -1.0682366 0.8386696 -3.5169952
-2.9517744 0.09908588 0.49161318 -0.47898582 0.54604 1.1123979 -0.5169345 -0.057451498
-0.38665578 -2.1267967 -0.017970135 -0.29145804 0.27586883 0.5747168 0.04915946 0.032360937
0.04097726 0.41534978 -1.0048829 -0.37534893 -0.07884695 -1.4915848 -0.36641684 -0.06029278
0.18544795 0.7083449 -0.15611996 -0.31572482 -1.3648198 0.22221336 0.4101279 -1.1199195
1.0798831 1.0962145 -1.0712056 -3.6576111 0.3625844 3.6945648 -0.6811522 0.41184604
1.3732378 0.06870655 -0.053653624 -5.1637874 1.3444605 -0.11440011 -0.23836544 0.82505834
00000000: 1103 96c0 ff32 b63f 3fb8 bf3e 3919 50be
00000010: caa2 ccbd 0e0d 70bf 2324 443f 2db2 d03d
00000020: ef2b 0a3f d4de 1cbe 556d b4be 2a8d 9b3e
00000030: a706 66be fabb 88bf 0db3 563f 7316 61c0
00000040: dfe9 3cc0 8aed ca3d b9b4 fb3e a13d f5be
00000050: 47c9 0b3f 0e63 8e3f d255 04bf 4352 6bbd
00000060: bff7 c5be 701d 08c0 1b36 93bc fd39 95be
00000070: ae3e 8d3e a420 133f 6e5b 493d e78c 043d
00000080: c5d7 273d baa8 d43e 01a0 80bf bc2d c0be
00000090: 827a a1bd 40ec bebf fd9a bbbe 90f5 76bd
000000a0: 11e6 3d3e 1756 353f e9dd 1fbe afa6 a1be
000000b0: 6ab2 aebf e68b 633e 49fc d13e 8659 8fbf
000000c0: 9c39 8a3f c250 8c3f 441d 89bf 4d16 6ac0
000000d0: aaa4 b93e c073 6c40 fe5f 2ebf 7cdd d23e
000000e0: 42c6 af3f 05b6 8c3d e7c3 5bbd bf3d a5c0
000000f0: 4817 ac3f 9b4a eabd 1216 74be 0637 533f

conv2.weight f4 [32, 64, 5, 5]
0.15142253 -0.3241136 -0.021246055 -0.0084383655 -0.25914073 0.21049511 0.11780998 0.072420046
-0.3422292 -0.42950505 -0.019282367 -0.15095156 -0.22249112 -0.16137785 0.09344861 -0.031674556
0.10521453 -0.08163308 0.17868935 -0.14742456 -0.22589587 -0.10970633 0.028402338 -0.05908554
0.45602655 0.06192732 -0.54128903 0.043943178 0.20173769 0.4346603 -0.05624436 -0.6150955
0.2022592 0.08027556 -0.387048 -0.101006895 -0.35720736 0.03465285 0.2170937 -0.34187928
0.1981911 -0.38220787 -0.31996995 0.28129944 0.29493418 0.042637296 -0.22675093 -0.012144183
0.4974359 -0.21076706 0.05185072 0.0895999 -0.09948795 0.35043013 0.22413415 -0.55815613
0.18240705 -0.16612199 0.020743906 0.6082434 0.46929362 0.0799301 0.1675769 -0.11076018
-0.31527585 0.2977306 -0.08374706 0.49348724 0.07385952 0.11006628 0.2057988 0.23138091
-0.25824296 -0.5453075 0.17291178 0.40497616 -0.30282655 -0.1872413 0.16953336 -0.54999703
0.032178946 0.03313308 -0.029378865 -0.45701432 -0.020667072 0.07935987 0.5393452 -0.06674184
-0.24800906 0.061352 -0.11830258 -0.4269711 -0.14989251 -0.12850535 0.5508011 0.5415457
0.3652768 0.01182049 -0.14000963 -0.2583202 -0.0012626513 0.006379173 0.009415199 -0.018627234
0.0037718639 -0.018701045 -0.00657718 0.0010879306 -0.010785281 -0.02085707 0.00985783 0.003620197
-0.004910324 0.012382925 0.01918218 0.018660901 -0.012317779 0.0041990736 0.012182284 0.00477837
0.016022565 -0.015815316 0.00918145 0.007891008 -0.019446723 -0.6311939 -0.13821419 0.1587705
0.007058291 0.091046914 -0.109393544 0.038400523 0.2913867 -0.04794456 -0.053098496 -0.35336697
0.091307566 0.20025031 0.017441422 -0.24435027 0.09375093 0.41531664 0.27973193 -0.10536428
0.40136603 0.097952984 0.38504204 -0.17028242 -0.15056789 -0.2718315 0.33334723 -0.008369256
0.45074615 0.12663482 0.45871136 0.36273426 0.07916173 0.43806443 0.03032905 -0.15730202
-0.1557934 -0.23299086 0.04754928 -0.1536654 0.16411506 0.038573373 -0.016982967 -0.10531333
0.041066986 0.43279696 -0.22812438 -0.050901964 -0.2587438 -0.2657436 -0.123349145 0.047629375
0.02868385 -0.038858842 -0.14611845 -0.16305578 0.30089548 0.15231904 -0.0015857397 0.48394883
-0.2760858 0.47797975 -0.2857655 -0.08541858 -0.023088668 0.047918182 -0.706556 -0.5295965
0.070116244 0.1025795 0.08340754 0.059517846 -0.6253746 0.017481225 1.0750943 0.82627153
-0.16031715 0.015196916 -0.3248954 -0.26278982 -0.12540962 -0.065876134 -0.32971054 -0.018711522
0.08453233 0.051801693 -0.23434423 -0.27251458 -0.14977403 0.25838044 0.2681744 0.052578475
-0.07299551 -0.59310836 -0.3365562 -0.13610238 0.53140014 0.23445292 0.107656 0.7264805
-0.05217849 -0.48516703 -0.11330029 -0.22854796 -0.08145732 -0.21574011 0.42789954 0.117462784
0.043839056 -0.13214134 0.08998358 0.5474921 -0.20445514 -0.27018717 -0.018175876 -0.6000331
-0.22107506 -0.4000796 -0.29306072 -0.50703883 -0.037119806 0.5261651 0.7156885 0.25938076
0.12955622 0.9085473 0.55727965 -0.13645047 -0.24790657 -0.13687147 -0.051070236 0.21896963
00000000: 820e 1b3e 38f2 a5be 350c aebc 1241 0abc
00000010: 18ae 84be 088c 573e 5c46 f13d f650 943d
00000020: aa38 afbe 16e8 dbbe 0ef6 9dbc 0c93 1abe
00000030: b6d4 63be 3c40 25be fc61 bf3d 2ebd 01bd
00000040: b77a d73d 3f2f a7bd 57fa 363e 77f6 16be
00000050: 3f51 67be b6ad e0bd 05ac e83c ae03 72bd
00000060: 507c e93e 80a7 7d3d eb91 0abf c3fd 333d
00000070: 5394 4e3e cb8b de3e 7c60 66bd e676 1dbf
00000080: 091d 4f3e 8367 a43d 282b c6be b4dc cebd
00000090: e2e3 b6be 26f0 0d3d d04d 5e3e cd0a afbe
000000a0: 9cf2 4a3e c0b0 c3be 1ad3 a3be 7b06 903e
000000b0: 9d01 973e 72a4 2e3d 6531 68be 65f8 46bc
000000c0: ebaf fe3e 52d3 57be 6c61 543d 2780 b73d
000000d0: 57c0 cbbd 946b b33e 6c83 653e 52e3 0ebf
000000e0: eac8 3a3e e21b 2abe 20ef a93c d7b5 1b3f
000000f0: 4147 f03e 64b2 a33d 4799 2b3e 3cd6 e2bd
00000100: d66b a1be 2570 983e 9483 abbd 5caa fc3e
00000110: a943 973d 6e6a e13d ecbc 523e 1eef 6c3e
00000120: 6c38 84be 4699 0bbf c90f 313e 0959 cf3e
00000130: 150c 9bbe 2fbc 3fbe 279a 2d3e 9bcc 0cbf
00000140: 12ce 033d 8db6 073d f2ab f0bc c8fd e9be
00000150: fe4d a9bc 6d87 a23d 8712 0a3f f2af 88bd
00000160: 16f6 7dbe 3c4c 7b3d a048 f2bd f59b dabe
00000170: 6c7d 19be e896 03be 4d01 0d3f bda2 0a3f
00000180: 9005 bb3e baaa 413c af5e 0fbe 8c42 84be
00000190: 8c7f a5ba 6208 d13b 3542 1a3c 2498 98bc
000001a0: 6031 773b ef32 99bc 6285 d7bb e598 8e3a
000001b0: bfb4 30bc 72dc aabc bc82 213c d440 6d3b
000001c0: c8e6 a0bb c0e1 4a3c f223 9d3c bfde 983c
000001d0: 82d0 49bc 6298 893b 3498 473c df93 9c3b
000001e0: c141 833c 1f8f 81bc cb6d 163c 4949 013c
000001f0: bc4e 9fbc ec95 21bf 0588 0dbe bc94 223e
00000200: 3d49 e73b ce76 ba3d b909 e0bd de49 1d3d
00000210: a330 953e 8461 44bd cf7d 59bd 84ec b4be
00000220: 76ff ba3d 6b0e 4d3e 50e1 8e3c f536 7abe
00000230: 7d00 c03d 62a4 d43e 0639 8f3e 3ac9 d7bd
00000240: d97f cd3e 939b c83d 3b24 c53e 845e 2ebe
00000250: 782e 1abe 802d 8bbe 7dac aa3e 341f 09bc
00000260: 33c8 e63e 8fac 013e 37dc ea3e 4eb8 b93e
00000270: 8c1f a23d fb49 e03e a174 f83c c813 21be
00000280: 4e88 1fbe 2895 6ebe 09c3 423d 765a 1dbe
00000290: c70d 283e 1dff 1d3d dd1f 8bbc 84ae d7bd
000002a0: db35 283d 9097 dd3e 7099 69be 947e 50bd
000002b0: 117a 84be 8c0f 88be 7a9e fcbd 0517 433d
000002c0: 65fa ea3c 732a 1fbd 13a0 15be 18f8 26be
000002d0: f90e 9a3e 86f9 1b3e 98d8 cfba 24c8 f73e
000002e0: 1e5b 8dbe c3b9 f43e db4f 92be f0ef aebd
000002f0: 7224 bdbc db45 443d dbe0 34bf a393 07bf
00000300: 1b99 8f3d 3315 d23d 93d1 aa3d fcc8 733d
00000310: 8d18 20bf c934 8f3c b19c 893f 8886 533f
00000320: 2e2a 24be 7cfc 783c b158 a6be 638c 86be
00000330: 616b 00be 11ea 86bd d2cf a8be e848 99bc
00000340: 491f ad3d 032e 543d eff7 6fbe 0887 8bbe
00000350: 5d5e 19be 714a 843e 284e 893e 875c 573d
00000360: ac7e 95bd f3d5 17bf 1851 acbe 6c5e 0bbe
00000370: d709 083f 6d14 703e c07a dc3d a0fa 393f
00000380: 1db9 55bd d067 f8be fc09 e8bd 7a08 6abe
00000390: 18d3 a6bd faea 5cbe a615 db3e 5490 f03d
000003a0: 9590 333d 0f50 07be 5049 b83d 7128 0c3f
000003b0: b05c 51be f955 8abe 93e5 94bc c59b 19bf
000003c0: 8061 62be 3cd7 ccbe 0e0c 96be 4ccd 01bf
000003d0: f00a 18bd c2b2 063f 5d37 373f 8ecd 843e
000003e0: 63aa 043e 8e96 683f e1a9 0e3f acb9 0bbe
000003f0: 38db 7dbe 0928 0cbe 062f 51bd 9339 603e

conv2.bias f4 [32]
-4.7016735 1.5239705 0.8953314 -1.306746 -0.9252895 2.4445667 -1.9165323 0.12936808
-0.6456609 -1.919096 -1.3010076 0.76269597 -1.0755181 0.16454709 -1.173113 -0.7915352
-0.9076601 0.5338388 -0.056375436 -1.14278 -3.8894897 1.0072178 -1.6096631 -0.74230397
1.5929697 -1.9987385 1.0626822 -1.8574693 -2.0047877 -1.5317031 -1.2789938 -0.93586266
00000000: 1c74 96c0 7711 c33f 7034 653f 7443 a7bf
00000010: c6df 6cbf c873 1c40 ee50 f5bf 1179 043e
00000020: 084a 25bf f0a4 f5bf 6b87 a6bf 0b40 433f
00000030: 94aa 89bf 087f 283e 9128 96bf 0da2 4abf
00000040: 6a5c 68bf a9a9 083f eee9 66bd 9d46 92bf
00000050: 66ed 78c0 83ec 803f 7109 cebf a207 3ebf
00000060: 6ee6 cb3f aad6 ffbf f805 883f 8ec1 edbf
00000070: 714e 00c0 d90e c4bf 12b6 a3bf b294 6fbf

fc1.weight f4 [384, 32]
-0.4326335 0.4621087 0.26818419 -0.39583883 0.1448802 -0.5158974 -0.5945314 1.15595
-0.2847055 -0.13832432 0.142796 -0.084908195 -0.6707035 -0.24998836 -0.28670314 -0.15861794
0.6054115 -0.28123322 0.20360889 0.354182 -0.3162036 -0.31912127 0.21845937 0.18030974
-0.5501443 -0.35890147 -0.4431296 -0.24979968 -0.6689656 0.051697537 -0.2793562 -0.054126997
0.17033519 -0.012011355 -0.26609734 0.38786492 -0.34488502 -0.16945922 -0.34360948 0.46813256
-0.41283268 0.39877206 -0.49132425 -0.83475775 -0.044785533 -0.17800653 0.33309588 -0.3943495
0.35465077 -0.5784537 0.31975976 0.143321 0.05528237 0.23866789 -0.45598453 -0.12271082
-1.088209 -0.037776303 -0.3104427 0.2762798 -0.25526172 0.16724493 0.2420135 0.14128846
0.5127398 -0.27179664 -0.9202644 -0.47619113 -0.44996136 -0.43710226 -0.11861258 -0.35519513
-0.23229347 0.80930054 -0.4846205 -0.058412317 -0.4252772 0.008270317 0.17481065 -0.044223446
0.04045186 -0.2387685 -0.055271685 0.1119607 -0.5342876 -0.4435695 -0.6788878 0.26790512
0.1266094 -0.2924525 -0.32771492 0.06997797 0.05424413 0.40369868 0.33916742 0.38332933
-0.6503192 -0.32659015 0.37916145 -0.036075983 0.11796122 -0.4779135 0.048647795 0.6366948
0.13183425 -0.16013959 -0.55584353 0.54855794 -0.51730645 -0.4384495 -0.15754415 0.020549553
0.31816882 -0.4407998 -0.60071677 -0.4408051 -0.08981972 -0.21763735 -0.2898493 -0.24085683
0.73627007 -0.6350839 0.5051569 0.46906257 -0.22400708 0.4489554 -0.014056536 -0.050641123
-0.3576273 -0.03645684 -0.124471866 0.3652503 0.7238992 -0.27448827 -0.0035111227 -0.061618555
0.21526885 0.1951937 -0.86518764 -0.43925563 -0.20514046 -0.4649879 -0.022663692 -0.43311173
-0.1772703 -0.4271902 -0.3419714 -0.72195715 -0.15948272 0.5871842 -0.2991461 -0.10831651
-0.19975924 -0.10818491 -0.18307135 -0.15163396 -0.1863078 -0.57341665 -0.02492124 0.7802042
0.18481965 0.17002636 -0.06583186 -0.15856047 -0.21492906 -0.25903746 -0.08355947 0.58500427
0.38117522 -0.83445764 -0.8016865 0.04837691 -0.26788694 -0.8050674 -0.02106012 0.1347892
-0.03127617 -0.7697797 -0.0529977 -0.44486257 -0.7608001 -0.5052759 0.5677382 0.19047986
-0.43954417 0.39161268 -0.46717048 0.47303662 -0.36413005 -0.117662355 -0.06894461 -0.06257957
0.10614494 -0.052771796 -0.57146794 -0.93289995 -0.78679204 0.081633486 -0.61238056 0.5919446
0.28529036 -0.23266204 0.11726738 -0.3747738 0.46756706 -0.60493195 -0.9102062 -0.142525
0.013043266 0.7351068 0.094750084 0.232638 0.19400363 -0.24401942 -0.6995403 -0.13538231
-0.5286526 0.030479645 -0.1296743 0.29215524 -0.18427725 0.050265603 -0.18593672 0.1985465
-0.32334986 -0.42665002 -0.24465781 -0.9513177 -0.026651006 0.23755959 -0.73041266 -0.60701716
-0.04105445 -0.34796694 0.055628214 -0.2628308 0.21024607 0.18823974 -0.5219642 -0.3265937
0.21946841 -0.33246034 -0.50523424 0.15252662 -0.3143099 0.5282035 0.68805784 0.19043185
0.4662098 0.1952061 -0.02739058 -0.41175613 -0.05554206 0.4462318 -0.23736593 -0.8598266
00000000: 2382 ddbe 8399 ec3e 704f 893e 63ab cabe
00000010: 7a5b 143e da11 04bf 3633 18bf 2bf6 933f
00000020: ebc4 91be e4a4 0dbe 1d39 123e 59e4 adbd
00000030: 39b3 2bbf f3fc 7fbe c1ca 92be be6c 22be
00000040: 40fc 1a3f cdfd 8fbe d97e 503e 5857 b53e
00000050: 70e5 a1be dd63 a3be d0b3 5f3e 1ea3 383e
00000060: 42d6 0cbf efc1 b7be e2e1 e2be 7dcb 7fbe
00000070: 5441 2bbf ccc0 533d c707 8fbe 45b4 5dbd
00000080: 596c 2e3e 46cb 44bc e93d 88be 3b96 c63e
00000090: c594 b0be b886 2dbe 95ed afbe 12af ef3e
000000a0: ce5e d3be da2b cc3e da8e fbbe afb2 55bf
000000b0: 0971 37bd 5847 36be 8b8b aa3e 2de8 c9be
000000c0: c994 b53e 8b15 14bf 8db7 a33e bdc2 123e
000000d0: c46f 623d 5b65 743e ce76 e9be cf4f fbbd
000000e0: 6f4a 8bbf 53bb 1abd 58f2 9ebe 8c74 8d3e
000000f0: aab1 82be 4142 2b3e 63d2 773e ecad 103e
00000100: ea42 033f ee28 8bbe 7396 6bbf 53cf f3be
00000110: 5661 e6be decb dfbe 27eb f2bd 23dc b5be
00000120: 57de 6dbe 522e 4f3f 2e20 f8be c141 6fbd
00000130: efbd d9be 3980 073c 9001 333e a523 35bd
00000140: d9b0 253d bb7f 74be 9064 62bd a74b e53d
00000150: 12c7 08bf 8b1b e3be 97cb 2dbf dc2a 893e
00000160: e5a5 013e 56bc 95be 40ca a7be 9c50 8f3d
00000170: 182f 5e3d 98b1 ce3e 5aa7 ad3e be43 c43e
00000180: 527b 26bf d336 a7be 7321 c23e 69c4 13bd
00000190: a795 f13d 14b1 f4be e942 473d 6efe 223f
000001a0: 8fff 063e a2fb 23be c34b 0ebf 4b6e 0c3f
000001b0: 326e 04bf 747c e0be 4153 21be 8957 a83c
000001c0: 06e7 a23e 83b0 e1be 93c8 19bf 35b1 e1be
000001d0: 67f3 b7bd 53dc 5ebe 2167 94be 2ca3 76be
000001e0: 327c 3c3f dc94 22bf f651 013f f828 f03e
000001f0: 1d62 65be 7bdd e53e 634d 66bc 116d 4fbd
00000200: ed1a b7be c453 15bd 1beb febd 1602 bb3e
00000210: 7551 393f ba89 8cbe dd1a 66bb bd63 7cbd
00000220: 706f 5c3e dbe0 473e f07c 5dbf 1de6 e0be
00000230: 5710 52be e512 eebe 35a9 b9bc d2c0 ddbe
00000240: 5886 35be adb8 dabe e016 afbe 2fd2 38bf
00000250: 704f 23be b451 163f ad29 99be 0cd5 ddbd
00000260: b08d 4cbe 0d90 ddbd 0e77 3bbe ef45 1bbe
00000270: 79c7 3ebe 6fcb 12bf a127 ccbc 76bb 473f
00000280: 5d41 3d3e 641b 2e3e dbd2 86bd ad5d 22be
00000290: 5d16 5cbe 8fa0 84be 3a21 abbd d7c2 153f
000002a0: 6629 c33e 049f 55bf 543b 4dbf de26 463d
000002b0: 7a28 89be e618 4ebf 4686 acbc 2e06 0a3e
000002c0: 711b 00bd 4810 45bf 1e14 59bd 07c5 e3be
000002d0: ccc3 42bf c359 01bf 4a57 113f 270d 433e
000002e0: ef0b e1be 7581 c83e f830 efbe db31 f23e
000002f0: 416f babe f6f8 f0bd d532 8dbd b829 80bd
00000300: 8562 d93d 3d27 58bd b94b 12bf 88d2 6ebf
00000310: 346b 49bf 752f a73d f9c4 1cbf ae89 173f
00000320: 9411 923e f53e 6ebe e129 f03d 5ae2 bfbe
00000330: f364 ef3e d2dc 1abf 4603 69bf 13f2 11be
00000340: 6cb3 553c f62f 3c3f 550c c23d a838 6e3e
00000350: e3a8 463e 3ae0 79be 1315 33bf a9a1 0abe
00000360: c755 07bf 73b0 f93c 57c9 04be 5f95 953e
00000370: 2db3 3cbe 4ee3 4d3d 3266 3ebe c64f 4b3e
00000380: 1d8e a5be df71 dabe 9487 7abe 8f89 73bf
00000390: 3653 dabc d242 733e 53fc 3abf 7a65 1bbf
000003a0: b628 28bd b928 b2be 69da 633d c291 86be
000003b0: bf4a 573e ebc1 403e 729f 05bf 4a37 a7be
000003c0: 54bc 603e 3e38 aabe 0857 01bf f02f 1c3e
000003d0: 3aed a0be 5838 073f 8f24 303f 9100 433e
000003e0: 0db3 ee3e 1ce4 473e 3662 e0bc b3d1 d2be
000003f0: 1280 63bd 7f78 e43e 0e10 73be 991d 5cbf

fc1.bias f4 [384]
-0.1088205 -0.80065024 -0.1757843 -0.17049256 0.29958552 0.28047687 -0.12822258 -0.0045923423
0.36004052 0.5533158 0.5048108 -0.43145907 -0.49012604 0.3776763 -0.51687384 -0.21793252
-0.046976108 -0.25131914 0.020216001 -0.47485855 -0.8769459 0.016868725 -0.25810125 0.7328625
0.43887404 -0.4609929 -0.06370371 0.2172521 -0.31530765 0.24034676 0.6988154 -0.71625525
-0.38224193 0.09753984 -0.10843093 0.12081169 -0.25699508 0.6574202 0.14708309 0.40731514
0.1825309 -0.14812659 0.24814537 0.13398719 0.4365464 -0.15409575 0.39766842 0.09997856
0.09279945 0.04510048 -0.32460833 -0.34062332 -0.3148822 -0.34884435 0.5367313 0.16731775
-0.084849924 0.41724247 -0.31811857 0.31376168 0.30306837 -0.25523475 -0.65438855 0.540256
-0.013746313 0.043624833 0.076439485 -0.059923775 -1.0306395 -0.013375758 -0.6163024 -0.04990187
0.7985328 -0.20940064 0.2371997 -0.31241205 0.052853007 0.50353706 -0.21661618 -0.08216022
-0.03972164 0.5845065 0.17497627 -0.346189 0.3830281 -0.34233743 0.08214822 -0.2700934
0.21674609 0.066498935 -0.31084293 0.24429679 -0.13172026 -0.20798363 -0.7604899 0.15138021
0.083352946 0.60413903 -0.045563843 -0.4535263 -0.5794151 -0.02244173 -0.19843253 -0.1471925
-0.22874296 -0.19774842 -0.26839516 0.13941316 -0.29495206 0.4205734 0.332176 0.09649823
0.37504855 -0.044410437 -0.24680053 0.31286213 0.20004019 0.019256083 0.30201256 0.1434619
0.30736363 0.53774774 0.044270404 -0.113533996 0.4239173 -0.10642665 0.7121303 0.123058766
-0.18827792 0.071742035 -0.03905155 0.41048637 -0.51572424 -0.19796264 -0.055530854 -0.43032372
-0.40229118 0.028453618 -0.31978515 -0.096043356 -0.41709352 0.4712508 -0.09329871 0.22282068
-0.12425069 0.048896935 0.18966052 0.10398038 -0.41024795 -0.370804 0.07647169 -0.4201263
-0.48880515 -0.1621504 -0.0025535966 0.15160444 -0.10822491 -0.070004374 0.26408568 0.6212911
0.40647078 -0.15020634 -0.13787378 0.06194497 -0.33185327 -0.024873978 -0.4569982 0.08053985
-0.27736536 -0.4391676 -0.22120786 0.73662364 -0.08051122 0.043077853 0.41221038 -0.6929513
-0.4825986 -0.14039066 0.2770074 -0.4709614 0.1937448 -0.015337172 -0.075550795 -0.48418245
-0.82133734 -0.6593063 -0.21486326 -0.027194396 0.00814305 -0.45471564 0.2012548 0.6248733
0.13330027 -0.32334268 -0.09285272 0.031932637 -0.44036853 -0.33953428 -0.29604265 -0.005677949
-0.19611405 0.30331582 -0.062431708 -0.0006242172 0.6549939 -0.15244244 -0.24482854 -0.09356641
0.162458 0.016706994 0.34332806 0.93904936 -0.38747066 0.76137364 -0.15310727 0.6445078
-0.15187852 0.19121997 0.030965863 -0.27978495 -0.19704184 -0.14715219 0.77826923 0.46296787
0.5125355 -0.117429025 0.055635493 0.10960102 -0.5762564 -0.77698296 -0.131549 -0.6074053
0.22224595 0.4445272 0.4878339 -0.14759779 -0.17358439 -0.04275204 0.4862892 -0.11155207
-0.57771766 -0.39294437 0.22547744 0.20980331 -0.251425 0.6206335 -0.17580314 -0.24424513
-0.07233555 -0.18284717 0.36328873 0.046936926 0.052765667 0.19549589 -0.22516069 0.12310685
00000000: 48dd debd 6af7 4cbf cd00 34be 9a95 2ebe
00000010: 4663 993e aa9a 8f3e c84c 03be 5c7b 96bb
00000020: 3b57 b83e 1ba6 0d3f 483b 013f 34e8 dcbe
00000030: cdf1 fabe ca5e c13e d851 04bf b429 5fbe
00000040: 056a 40bd e7ac 80be 079c a53c a920 f3be
00000050: 877f 60bf 4830 8a3c d925 84be e09c 3b3f
00000060: 19b4 e03e 4307 ecbe 1777 82bd 5677 5e3e
00000070: 0170 a1be 761d 763e 91e5 323f 815c 37bf
00000080: 37b5 c3be f8c2 c73d 0911 debd 1f6c f73d
00000090: dc94 83be b14c 283f f39c 163e 9c8b d03e
000000a0: 61e9 3a3e 7fae 17be d219 7e3e f033 093e
000000b0: 0283 df3e 47cb 1dbe 329b cb3e 8fc1 cc3d
000000c0: a30d be3d 48bb 383d 1033 a6be 2e66 aebe
000000d0: 3d38 a1be ba9b b2be 3967 093f 5855 2b3e
000000e0: ccc5 adbd cea0 d53e 70e0 a2be 5fa5 a03e
000000f0: c72b 9b3e 21ae 82be 0286 27bf 384e 0a3f
00000100: 3738 61bc f4af 323d 4e8c 9c3d a272 75bd
00000110: ffeb 83bf ff25 5bbc fec5 1dbf e765 4cbd
00000120: a56c 4c3f 1f6d 56be 7ae4 723e 79f4 9fbe
00000130: 657c 583d cee7 003f a2d0 5dbe 9e43 a8bd
00000140: 29b3 22bd 38a2 153f fb2c 333e af3f b1be
00000150: 421c c43e da46 afbe 533d a83d af49 8abe
00000160: b0f2 5d3e 9830 883d ce26 9fbe f028 7a3e
00000170: ade1 06be a9f9 54be 77af 42bf 6a03 1b3e
00000180: f3b4 aa3d dba8 1a3f 27a1 3abd 9934 e8be
00000190: 8c54 14bf b8d7 b7bc e631 4bbe a1b9 16be
000001a0: 983b 6abe 907e 4abe 176b 89be 53c2 0e3e
000001b0: f503 97be 6655 d73e f912 aa3e dda0 c53d
000001c0: 5d06 c03e b8e7 35bd 47b9 7cbe 772f a03e
000001d0: 56d7 4c3e efbe 9d3c 64a1 9a3e ade7 123e
000001e0: c45e 9d3e d6a9 093f e254 353d 8384 e8bd
000001f0: b00b d93e 37f6 d9bd 2c4e 363f 3c06 fc3d
00000200: edcb 40be 7ded 923d 85f4 1fbd 452b d23e
00000210: 8106 04bf b8b6 4abe 5274 63bd 6453 dcbe
00000220: 1cf9 cdbe 9017 e93c e1ba a3be 61b2 c4bd
00000230: 488d d5be c947 f13e 6513 bfbd 1b2b 643e
00000240: 2577 febd 2748 483d 5e36 423e aaf3 d43d
00000250: 050c d2be 06da bdbe 309d 9c3d cb1a d7be
00000260: ab44 fabe c10a 26be 3e5a 27bb 323e 1b3e
00000270: 06a5 ddbd 745e 8fbd 3d36 873e ef0c 1f3f
00000280: f01c d03e b1cf 19be c92e 0dbe 02ba 7d3d
00000290: ace8 a9be 83c4 cbbc abfb e9be 14f2 a43d
000002a0: d502 8ebe 93da e0be 5084 62be 5e93 3c3f
000002b0: 11e3 a4bd 6772 303d 3d0d d33e 4265 31bf
000002c0: 2a17 f7be 92c2 0fbe ead3 8d3e da21 f1be
000002d0: 0965 463e c348 7bbc 60ba 9abd c3e6 f7be
000002e0: 2a43 52bf 4cc8 28bf 1d05 5cbe c8c6 debc
000002f0: 6d6a 053c 7dd0 e8be bd15 4e3e b2f7 1f3f
00000300: de7f 083e 2c8d a5be 9129 bebd cccb 023d
00000310: fc77 e1be 70d7 adbe e792 97be 170e babb
00000320: 1fd2 48be 364c 9b3e 64b8 7fbd 82a2 23ba
00000330: aead 273f df19 1cbe 55b4 7abe bf9f bfbd
00000340: 645b 263e 1bdd 883c b2c8 af3e 8a65 703f
00000350: 8e62 c6be 62e9 423f 27c8 1cbe 77fe 243f
00000360: 0b86 1bbe 2bcf 433e 1fac fd3c f93f 8fbe
00000370: 56c5 49be 10af 16be a73c 473f 200a ed3e
00000380: 8735 033f a17e f0bd 0be2 633d 8076 e03d
00000390: 8a85 13bf 5be8 46bf c8b4 06be ea7e 1bbf
000003a0: 7194 633e 1299 e33e 5dc5 f93e e023 17be
000003b0: 1bc0 31be c31c 2fbd e6fa f83e 6975 e4bd
000003c0: 4ee5 13bf 0130 c9be 8fe3 663e aed6 563e
000003d0: c7ba 80be d6e1 1e3f bd05 34be 651b 7abe
000003e0: a924 94bd 4a3c 3bbe fb00 ba3e ef40 403d
000003f0: d020 583d 1330 483e 8690 66be 721f fc3d

fc2.weight f4 [192, 384]
-0.1163925 -0.11493301 -0.1188926 0.080548786 -0.3325286 -0.0903821 -0.2006507 -0.07060037
-0.4269017 0.048471652 0.05566721 -0.10299508 -0.16995695 0.08540591 0.2425991 0.03869658
-0.032981772 -0.40897834 -0.4403967 0.020656867 0.3312462 -0.21897927 -0.157289 0.12019419
0.026844287 0.17922251 0.008160147 -0.0005896232 0.11142869 -0.09468471 -0.031753644 0.01572957
-0.2217611 -0.2567003 0.041377466 -0.31331283 0.071494155 -0.023075886 -0.30878705 0.100828044
-0.14827113 -0.066826396 -0.13366327 -0.014277929 -0.02934539 0.031811617 0.067898795 -0.20497762
-0.020214453 -0.17909412 -0.037391726 -0.21392421 -0.085206896 -0.1854147 -0.12774077 0.09289651
-0.14970775 0.091431 -0.16290037 -0.17127652 -0.3310166 0.03871529 0.06069546 -0.042694915
0.14881738 0.19410874 0.012972316 0.23576835 0.22968438 -0.10125248 -0.007558085 -0.35983536
0.011076869 -0.030895883 -0.26131275 -0.34045961 0.11470633 -0.33120733 -0.1480571 -0.38668564
-0.105127506 0.032953016 -0.13632658 -0.09035276 -0.017339934 -0.4097269 -0.45072818 -0.15118955
0.1944952 -0.26611748 -0.22778295 0.22513445 -0.047496554 -0.06404811 0.1379122 -0.12585047
-0.04001351 -0.13355806 0.14920118 -0.0013716989 0.012700185 -0.30720457 0.06590556 -0.0140636135
0.0018701237 0.08381331 -0.12043109 0.06754733 -0.21576011 -0.08792045 0.05314177 0.08456335
-0.18610017 -0.3922658 -0.3002852 -0.11383259 -0.1103639 -0.09379075 -0.021123236 -0.19668151
0.32035333 0.06305314 -0.2981069 0.1439669 0.13775165 -0.3272299 0.2461074 0.0920928
0.13487266 -0.15750653 -0.12990381 -0.12502505 0.21717492 -0.2187252 0.2842327 -0.05587826
-0.20123169 0.044268657 -0.18647449 0.1827727 0.01930857 0.0196015 -0.29037768 0.2660486
0.0053751115 -0.12937737 -0.06116997 -0.01570568 -0.00011495536 0.038490254 -0.25507206 -0.15824947
-0.10893413 0.23048167 -0.19269796 -0.48387673 -0.039444286 -0.09782785 -0.36826712 -0.109141625
0.09708262 -0.14187907 0.2811661 -0.10584004 0.138113 0.24659735 -0.0716083 0.08812566
-0.295884 0.012037095 -0.1896057 0.0718535 -0.105297215 -0.22551976 0.11043421 0.17651835
-0.10529839 -0.14734843 -0.11147658 0.16675302 -0.11418801 -0.09486093 -0.03708924 -0.3777514
0.045542195 0.08793757 0.17581548 -0.1264356 -0.18141666 0.19985205 0.08555311 -0.23153947
0.017161664 0.0798161 -0.14796337 0.14676304 -0.1767543 -0.4869442 -0.18401708 -0.06270948
-0.22150323 -0.12742068 -0.37421784 -0.19360179 -0.18422966 -0.048509877 0.056753695 0.14827497
-0.044944167 -0.011239853 -0.3441316 -0.21229227 -0.06639086 -0.27057293 -0.105034314 -0.06432795
-0.26928765 0.14549425 -0.068987645 -0.06320611 -0.0623109 0.060629517 -0.45332253 -0.12054545
0.047184903 -0.30792394 0.08164261 0.07625824 0.12790124 -0.036547 -0.19506142 -0.06413372
0.16432104 -0.19378276 -0.089151874 0.04481701 -0.046375323 -0.05260906 -0.09890239 -0.0702923
0.1294944 0.0010486552 0.030682253 -0.04396151 0.12190991 -0.101096675 0.14953774 0.1671282
0.18703623 -0.15144819 -0.33376214 -0.012029397 -0.13466406 -0.050685033 0.007614144 0.25978482
00000000: 315f eebd ff61 ebbd f77d f3bd c3f6 a43d
00000010: 3041 aabe 401a b9bd 6177 4dbe ed96 90bd
00000020: dc92 dabe 368a 463d 4d03 643d 16ef d2bd
00000030: 3209 2ebe 4be9 ae3d e66b 783e 4e80 1e3d
00000040: e517 07bd 9c65 d1be ad7b e1be 9738 a93c
00000050: 1a99 a93e 1a3c 60be 5e10 21be 5f28 f63d
00000060: 8de8 db3c 1b86 373e 23b2 053c f190 1aba
00000070: ba34 e43d 0fea c1bd 1c10 02bd 4ddb 803c
00000080: 5815 63be 396e 83be 6b7b 293d 8a6a a0be
00000090: 876b 923d a409 bdbc 5619 9ebe ef7e ce3d
000000a0: 63d4 17be 47dc 88bd 06df 08be faed 69bc
000000b0: be65 f0bc e64c 023d 860e 8b3d a7e5 51be
000000c0: c898 a5bc 7364 37be 1128 19bd f30e 5bbe
000000d0: f480 aebd 5add 3dbe 7ace 02be 8740 be3d
000000e0: fd4c 19be 2d40 bb3d 5bcf 26be 1d63 2fbe
000000f0: 027b a9be ed93 1e3d cd9b 783d dde0 2ebd
00000100: 9563 183e 71c4 463e d689 543c 426d 713e
00000110: 6232 6b3e 765d cfbd d0a9 f7bb 573c b8be
00000120: c27b 353c 5d19 fdbc c9ca 85be b950 aebe
00000130: 27eb ea3d 0294 a9be 489c 17be a9fb c5be
00000140: 174d d7bd bef9 063d 3299 0bbe de0a b9bd
00000150: 7a0c 8ebc b9c7 d1be d8c5 e6be 6fd1 1abe
00000160: c029 473e 8d40 88be ef3f 69be a589 663e
00000170: bf8b 42bd a82b 83bd db38 0d3e f2de 00be
00000180: 35e5 23bd 72c3 08be 32c8 183e 94ca b3ba
00000190: 7014 503c eb49 9dbe 7ff9 863d 126b 66bc
000001a0: f01e f53a 50a6 ab3d 93a4 f6bd 4156 8a3d
000001b0: 38f0 5cbe a30f b4bd 2fab 593d 8d2f ad3d
000001c0: 0b91 3ebe 10d7 c8be fbbe 99be 1021 e9bd
000001d0: 7806 e2bd 5d15 c0bd a30a adbc e166 49be
000001e0: 5a05 a43e 0122 813d 78a1 98be 0f6c 133e
000001f0: c50e 0d3e ad8a a7be 9403 7c3e 269b bc3d
00000200: 0f1c 0a3e 6449 21be 8105 05be 9106 00be
00000210: 1a63 5e3e 80f9 5fbe f386 913e 9ae0 64bd
00000220: ae0f 4ebe 0d53 353d 2bf3 3ebe c428 3b3e
00000230: 022d 9e3c 5393 a03c 62ac 94be 8637 883e
00000240: b421 b03b 807b 04be 5d8d 7abd 33a9 80bc
00000250: 3014 f1b8 f5a7 1d3d ce98 82be 260c 22be
00000260: db18 dfbd 6303 6c3e 9d52 45be b1be f7be
00000270: 5590 21bd f859 c8bd 828d bcbe a585 dfbd
00000280: 41d3 c63d bf48 11be 01f5 8f3e aac2 d8bd
00000290: 7f6d 0d3e 0484 7c3e 5fa7 92bd 3a7b b43d
000002a0: 1c7e 97be 3c37 453c ff27 42be ee27 933d
000002b0: 11a6 d7bd a7ee 66be 552b e23d 3ac1 343e
000002c0: afa6 d7bd 82e2 16be d54d e4bd 4ec1 2a3e
000002d0: 67db e9bd 7346 c2bd e3ea 17bd a268 c1be
000002e0: 748a 3a3d 9d18 b43d f908 343e 5578 01be
000002f0: 4ac5 39be 04a6 4c3e 7836 af3d af18 6dbe
00000300: 9e96 8c3c a076 a33d b683 17be 0d49 163e
00000310: 14ff 34be c050 f9be f96e 3cbe d46d 80bd
00000320: bed1 62be 917a 02be 7b99 bfbe 8c3f 46be
00000330: b3a6 3cbe 4bb2 46bd 9076 683d 65d5 173e
00000340: 6017 38bd 5c27 38bc 0432 b0be 2563 59be
00000350: eef7 87bd 8988 8abe 3b1c d7bd 5fbe 83bd
00000360: 12e0 89be 72fc 143e 6549 8dbd 3472 81bd
00000370: b739 7fbd a856 783d e419 e8be 88e0 f6bd
00000380: f544 413d 35a8 9dbe 3e34 a73d 482d 9c3d
00000390: 8bf8 023e 4fb2 15bd 2ebe 47be 8a58 83bd
000003a0: c643 283e fd6e 46be 4295 b6bd 0b92 373d
000003b0: 0df4 3dbd 997c 57bd 568d cabd 69f5 8fbd
000003c0: 2e9a 043e 0873 893a 5959 fb3c fc10 34bd
000003d0: e7ab f93d c60b cfbd 6c20 193e a823 2b3e
000003e0: 6d86 3f3e 3c15 1bbe dfe2 aabe f316 45bc
000003f0: 60e5 09be 1c9b 4fbd 1280 f93b 8402 853e

fc2.bias f4 [192]
-0.044004053 0.05413529 0.5987169 -0.48270786 -0.07933172 0.11102082 0.49387014 0.4387686
0.12053118 -0.1170445 0.3963802 -0.12370206 0.0860638 0.17042525 -0.33310288 0.083324105
-0.27149943 -0.07476102 0.45269 -0.1439452 -0.17112853 -0.31717104 0.107030265 1.0241001
-0.20623419 -0.26216632 0.27575535 -0.52943635 -0.101562545 -0.2901964 -0.12705743 -0.15195563
0.23719123 -0.04069653 0.85607266 -0.3080519 0.81083715 -0.1939054 0.56720424 -0.3441994
-0.36766654 -0.22229043 0.006977002 -0.1793305 0.4583521 -0.12197226 -0.21093199 -0.43402812
-0.062191647 0.8914612 -0.043031793 0.13910201 1.0337029 -0.04616692 -0.15672778 -0.36971682
0.09044673 -0.19654544 0.5109142 0.006676505 0.50012875 -0.24897131 -0.10289797 0.4291847
-0.32184273 -0.19369334 0.3706061 -0.029522851 -0.0015356856 -0.08276377 -0.30871972 -0.27818078
1.1648974 -0.24492745 -0.022441963 -0.09785743 -0.29851088 0.21400063 -0.04264574 -0.017542388
-0.44788367 0.71463746 -0.41052786 0.17195447 -0.27648893 0.034446247 0.0019247046 -0.27846465
0.34308356 -0.27880588 0.27908343 0.18517762 0.07766801 -0.29108775 0.06679629 -0.06331739
0.5401686 -0.19898453 -0.04306604 -0.10496304 0.6518238 -0.20484588 -0.36815882 -0.17388077
-0.2896613 -0.41817257 0.02817149 -0.051780798 0.4505659 -0.0899958 -0.49199864 -0.015835145
-0.20835952 -0.0057716137 0.22055492 0.21872185 0.66261333 0.6326082 -0.19419917 -0.46966785
0.64652205 -0.43935493 -0.323754 -0.20730701 -0.42436722 0.26570147 -0.21282005 0.41108027
0.5998857 0.05414679 -0.12810402 -0.39473543 -0.47324747 0.19424348 -0.3210231 -0.03599019
0.47158256 -0.17545798 0.015168134 -0.23224546 -0.09557392 -0.3974381 -0.41093418 0.023489889
-0.22254202 -0.21775702 0.06005008 0.18860532 0.051086437 -0.30109453 -0.081799135 0.3867852
0.07178427 0.23294646 -0.50390846 0.23041892 -0.07843957 0.5001958 0.06425646 -0.42422146
-0.05076265 -0.21159633 -0.39797324 0.18977368 0.1203592 0.4899809 -0.080562316 -0.036667433
0.22131893 -0.24944359 -0.40066883 0.106354944 -0.15882958 -0.23104131 0.31616205 -0.033048805
-0.32918903 0.2781297 0.4837915 0.06670765 0.056409206 -0.0114075765 0.39781338 0.018954683
0.1630784 0.56398267 -0.07783332 0.234529 0.37775198 -0.15447944 0.09146997 0.094265394
00000000: 983d 34bd f7bc 5d3d 8345 193f 7c25 f7be
00000010: ab78 a2bd e25e e33d 8cdc fc3e 47a6 e03e
00000020: 0dd9 f63d 07b5 efbd 58f2 ca3e 8157 fdbd
00000030: 3842 b03d f583 2e3e 768c aabe d4a5 aa3d
00000040: f901 8bbe 4e1c 99bd fcc6 e73e 5f66 13be
00000050: 513c 2fbe 3e64 a2be af32 db3d b615 833f
00000060: 0e2f 53be aa3a 86be ce2f 8d3e 2489 07bf
00000070: 0600 d0bd 9f94 94be 581b 02be 429a 1bbe
00000080: 42e2 723e 68b1 26bd 9427 5b3f fbb8 9dbe
00000090: 0693 4f3f 238f 46be 4c34 113f e73a b0be
000000a0: ca3e bcbe 1aa0 63be 569f e43b 6aa2 37be
000000b0: 20ad ea3e 98cc f9bd 8efe 57be ef38 debe
000000c0: abbc 7ebd cd36 643f 1b42 30bd c270 0e3e
000000d0: 6050 843f 8619 3dbd 3f7d 20be 864b bdbe
000000e0: 233c b93d 3543 49be 46cb 023f 95c6 da3b
000000f0: 7008 003f 56f2 7ebe 2cbc d2bd 19be db3e
00000100: 92c8 a4be 8c57 46be 15c0 bd3e e8d9 f1bc
00000110: 0f49 c9ba 0d80 a9bd 8310 9ebe b66d 8ebe
00000120: 5c1b 953f 43ce 7abe 35d8 b7bc 7a69 c8bd
00000130: 6bd6 98be fb22 5b3e 4dad 2ebd 0eb5 8fbc
00000140: 0251 e5be 7bf2 363f b530 d2be d514 303e
00000150: f58f 8dbe 8217 0d3d 5f46 fc3a eb92 8ebe
00000160: a6a8 af3e a5bf 8ebe 06e4 8e3e 349f 3d3e
00000170: 6810 9f3d 7409 95be 7ecc 883d 8cac 81bd
00000180: 7d48 0a3f 9ac2 4bbe 0466 30bd ddf6 d6bd
00000190: eddd 263f 1ec3 51be 507f bcbe cd0d 32be
000001a0: 7c4e 94be b71a d6be e6c7 e63c 1a18 54bd
000001b0: 93b0 e63e b84f b8bd 3fe7 fbbe b5b8 81bc
000001c0: 335c 55be ce1f bdbb 26d9 613e 9ff8 5f3e
000001d0: 07a1 293f 9cf2 213f 26dc 46be 4e78 f0be
000001e0: 7882 253f 21f3 e0be 16c3 a5be 4a48 54be
000001f0: a946 d9be 060a 883e 80ed 59be 1d79 d23e
00000200: 1c92 193f 06c9 5d3d b32d 03be c31a cabe
00000210: 7e4d f2be c3e7 463e 245d a4be 736a 13bd
00000220: 4573 f13e 42ab 33be c483 783c c1d1 6dbe
00000230: 42bc c3bd 027d cbbe f765 d2be de6d c03c
00000240: 0ee2 63be b2fb 5ebe 13f7 753d c121 413e
00000250: 0340 513d 1029 9abe 4e86 a7bd b608 c63e
00000260: a203 933d 8489 6e3e 2500 01bf f0f2 6b3e
00000270: eda4 a0bd d50c 003f e498 833d 8e33 d9be
00000280: 7fec 4fbd b5ac 58be 26c3 cbbe 0854 423e
00000290: e27e f63d c7de fa3e dbfd a4bd 9730 16bd
000002a0: 6ea1 623e 246e 7fbe 7724 cdbe 9fd0 d93d
000002b0: 39a4 22be 1896 6cbe fedf a13e 2f5e 07bd
000002c0: 778b a8be 0467 8e3e 85b3 f73e 059e 883d
000002d0: 570d 673d d8e6 3abc 32ae cb3e da46 9b3c
000002e0: 06fe 263e 2b61 103f 1367 9fbd 5f28 703e
000002f0: b568 c13e dc2f 1ebe 9c54 bb3d 370e c13d

fc3.weight f4 [10, 192]
0.12188721 0.06075059 -0.027531737 0.021474933 -0.18990742 0.20250988 -0.09436485 -0.15893674
-0.1643302 0.2673517 0.25229988 0.22645098 0.17383018 -0.009280991 0.07902338 0.02988722
0.12503846 -0.14503202 -0.09021457 0.21480858 0.012074479 0.047376998 0.21550055 -0.12847388
0.1275473 -0.1005511 0.111943446 -0.10613005 0.102689244 0.1800244 0.07671528 0.11550425
0.09060302 -0.018885348 0.22563092 0.08054543 -0.13467102 -0.1661098 0.050516605 -0.15671107
0.12028343 0.06140471 0.20825532 -0.14554009 -0.09803554 -0.28296602 -0.011281386 -0.10894643
0.12915252 -0.16835496 0.14888509 0.04714468 -0.15129669 0.14535454 -0.13191067 0.044827625
0.20797929 0.1576261 0.04860754 0.29150468 -0.0904812 0.21223289 0.10430833 -0.12914461
0.09118134 -0.104912564 0.16563012 -0.11496608 -0.08194677 0.15287724 -0.22138882 0.26679718
-0.19390133 0.18342261 0.1746725 -0.12405776 -0.016357364 0.08675009 0.24639708 -0.06595814
-0.17817512 -0.18125778 0.10621408 0.0076377285 -0.05788897 -0.16447112 -0.11136975 0.0515089
-0.071364135 0.018858226 -0.14068778 -0.13881098 0.258912 0.22470541 0.108668685 0.09026892
0.03620168 -0.07679665 -0.05784763 0.05371666 -0.29811838 0.16806658 0.26376036 0.04720126
0.1476903 -0.14281549 0.092253745 -0.05260984 0.13909593 0.15461671 0.27561283 -0.005145764
0.008996059 -0.18952934 -0.07620868 -0.0023862151 -0.2105986 -0.07466401 0.0024316572 0.10543251
0.12187657 -0.016192485 -0.018564783 -0.05663505 0.08824346 -0.15711239 -0.049680866 -0.22672293
-0.19281192 0.03383454 0.008134046 0.18176445 0.030319795 -0.0072721425 -0.07372822 -0.157164
0.20319892 -0.074351594 0.22703652 0.018417241 0.103622094 -0.2240949 -0.09187578 0.19903362
-0.10913668 -0.10551928 0.21401285 -0.34428608 0.119013414 0.19869255 0.107866034 0.054132808
-0.27087727 0.13071725 -0.06559373 0.105970345 -0.2934983 -0.25592026 0.006947485 -0.14379078
-0.024263669 -0.07966622 -0.14052631 0.18410507 0.10648649 -0.15889329 0.19220483 0.0052339463
-0.17198008 0.09612308 -0.10860395 -0.14941809 0.02009647 -0.0620302 -0.030525047 0.18551326
-0.20038348 -0.03592026 -0.22285229 -0.18160242 -0.02655868 0.107317634 -0.0048322673 0.24370414
0.1748287 -0.048010226 0.0442808 0.13770327 -0.05280629 0.014557303 -0.17430833 -0.15471454
-0.26386467 0.1903423 0.051270124 0.08982145 0.2008919 -0.065541066 0.04323893 -0.17597865
0.11271643 0.18920447 -0.05079693 0.12775776 -0.040317964 -0.0155949695 -0.16885611 -0.1143345
-0.05427777 -0.04057864 -0.029618237 0.07514776 -0.178386 -0.08456612 0.110343024 -0.37563223
-0.11162556 0.028878698 -0.1933448 -0.18502752 -0.29974115 -0.15384053 0.010017623 0.19579288
0.19217059 0.010982937 0.246052 -0.17210928 -0.29786947 0.06262032 -0.03933041 0.10475739
0.08028906 -0.10670308 -0.06541321 0.36945912 -0.011347135 0.060579833 -0.065317236 0.2027368
-0.08914154 -0.13449523 0.1964614 -0.11468105 -0.12839937 0.16467836 -0.017915657 0.1657581
-0.11314755 -0.039821126 -0.23526676 0.01719191 -0.196465 -0.11882534 0.16529003 -0.19348545
00000000: 00a0 f93d 9cd5 783d 3d8a e1bc 33ec af3c
00000010: 1777 42be c05e 4f3e 5c42 c1bd 50c0 22be
00000020: 2d46 28be 52e2 883e 732d 813e c4e2 673e
00000030: 8a00 323e 4c0f 18bc 03d7 a13d 0bd6 f43c
00000040: 150a 003e 4683 14be 6bc2 b8bd c8f6 5b3e
00000050: 09d4 453c 620e 423d 2dac 5c3e a88e 03be
00000060: c29b 023e bced cdbd 9b42 e53d b65a d9bd
00000070: bd4e d23d 5158 383e e71c 9d3d 7e8d ec3d
00000080: 138e b93d 72b5 9abc cb0b 673e 01f5 a43d
00000090: 33e7 09be b018 2abe 80ea 4e3d de78 20be
000000a0: 2957 f63d 8183 7b3d e240 553e 7608 15be
000000b0: dbc6 c8bd ece0 90be 90d5 38bc 4e1f dfbd
000000c0: 8f40 043e 3e65 2cbe 5575 183e c81a 413d
000000d0: 85ed 1abe d2d7 143e 9713 07be 2c9d 373d
000000e0: 86f8 543e bd68 213e b318 473d 1a40 953e
000000f0: 354e b9bd 9453 593e 9b9f d53d 7c3e 04be
00000100: 48bd ba3d 66dc d6bd f19a 293e 5673 ebbd
00000110: b5d3 a7bd da8b 1c3e c0b3 62be a499 883e
00000120: 128e 46be 23d3 3b3e 59dd 323e ff11 febd
00000130: e1ff 85bc 08aa b13d 844f 7c3e 1015 87bd
00000140: 8a73 36be a49b 39be c486 d93d e945 fa3b
00000150: fc1c 6dbd 1e6b 28be d315 e4bd fffa 523d
00000160: 5c27 92bd 917c 9a3c 7510 10be 7724 0ebe
00000170: 1d90 843e 2d19 663e b08d de3d e9de b83d
00000180: 3648 143d 9047 9dbd a3f1 6cbd 0006 5c3d
00000190: f9a2 98be a519 2c3e 990b 873e 1c56 413d
000001a0: 203c 173e 393e 12be 88ef bc3d 6a7d 57bd
000001b0: 2a6f 0e3e d853 1e3e 201d 8d3e cc9d a8bb
000001c0: 3564 133c fb13 42be 4c13 9cbd 0c62 1cbb
000001d0: 29a7 57be 72e9 98bd 705c 1f3b 00ed d73d
000001e0: 6c9a f93d 1aa6 84bc 2c15 98bc 27fa 67bd
000001f0: fdb8 b43d 12e2 20be 2a7e 4bbd 0e2a 68be
00000200: 7d70 45be 1696 0a3d a944 053c 7620 3a3e
00000210: 3861 f83c 274b eebb d2fe 96bd 9aef 20be
00000220: 6113 503e a645 98bd 437c 683e c1df 963c
00000230: d237 d43d 2279 65be 5e29 bcbd 78cf 4b3e
00000240: 0d83 dfbd 7e1a d8bd 2f26 5b3e 4446 b0be
00000250: 4ebd f33d 0f76 4b3e dee8 dc3d 5dba 5d3d
00000260: 6db0 8abe beda 053e 0156 86bd fb06 d93d
00000270: 6945 96be fb07 83be baa7 e33b e43d 13be
00000280: 9ac4 c6bc 0b28 a3bd 21e6 0fbe 0a86 3c3e
00000290: 9715 da3d ecb4 22be 58d1 443e 8681 ab3b
000002a0: 8c1b 30be 2ddc c43d bf6b debd 0e01 19be
000002b0: 5aa1 a43c 6113 7ebd aa0f fabc 30f7 3d3e
000002c0: 5431 4dbe 1f21 13bd 6433 64be fcf5 39be
000002d0: 9791 d9bc 59c9 db3d ff57 9ebb 948d 793e
000002e0: 4b06 333e 5fa6 44bd c95f 353d 1602 0d3e
000002f0: 694b 58bd c181 6e3c e27d 32be 7d6d 1ebe
00000300: 4519 87be 18e9 423e 9f00 523d 4ff4 b73d
00000310: 9bb6 4d3e 653a 86bd 4e1b 313d bf33 34be
00000320: dfd7 e63d d1be 413e 7110 50bd eed2 023e
00000330: 7324 25bd 0b82 7fbc 9ee8 2cbe 3528 eabd
00000340: 5e52 5ebd ca35 26bd f2a1 f2bc 12e7 993d
00000350: d2aa 36be 0031 adbd 86fb e13d de52 c0be
00000360: f19b e4bd 0593 ec3c 2efc 45be db77 3dbe
00000370: ac77 99be 5f88 1dbe f520 243c ee7d 483e
00000380: 5ec8 443e c7f1 333c 0ef5 7b3e 6a3d 30be
00000390: 5982 98be 153f 803d ed18 21bd 0b8b d63d
000003a0: 976e a43d 2587 dabd 5cf7 85bd bf29 bd3e
000003b0: 55e9 39bc 8f22 783d 0bc5 85bd 3c9a 4f3e
000003c0: d78f b6bd 1eb9 09be 2d2d 493e e6dd eabd
000003d0: 207b 03be 72a1 283e dbc3 92bc 7ebc 293e
000003e0: e7b9 e7bd 7a1b 23bd c5e9 70be 0cd6 8c3c
000003f0: 1f2e 49be b35a f3bd ca41 293e 0d21 46be

fc3.bias f4 [10]
-0.20999715 -0.9560191 0.14710401 1.1520603 0.6743066 0.34519133 -0.043016292 -0.7168184
0.046672102 -0.5297418
00000000: 7e09 57be abbd 74bf 6fa2 163e b676 933f
00000010: 5b9f 2c3f ebbc b03e da31 30bd 6981 37bf
00000020: 3f2b 3f3d 299d 07bf
