practica 7-2/practica-7-cifar-y-redes-convolucionales-Jhonylaz/CIFAR_N_50.pth (torch, 585963 bytes, 18 tensors)

conv1.weight f4 [64, 3, 5, 5]
00000000: 8968 31be 2c31 b4bd 31f3 21be ed51 e93c
00000010: 0085 02be 6b9f 9fbc 26a4 06be 35a3 cfbd
00000020: 4ade 89bc d4ab 9fbd 8496 0abe 9485 a0bd
00000030: 85de 2fbe 8971 f1bd 382b ecbd 7081 17bd
00000040: f42e a6bd 20ab 64bd 7151 0dbe c2e3 52be
00000050: e179 f7bd ffc4 7ebd d1d9 69bd 6db5 00be
00000060: 6046 7bbd 3869 48b7 d80c b4bd 5a5a 53bd
00000070: 7f2f 1f3d 3506 d6bd 1181 fa3c dd2c da3d
00000080: ac8c 87bd 5ee1 573c 45bf a0bd ebf8 08be
00000090: a0ce d0bd 88c6 ef3c 457b 33bd 4a1d f83b
000000a0: 7375 c03d b9ee da3c 9a63 45bd 6290 4abd
000000b0: c2d6 50bd faae 8f3c e6e1 87bd 3603 683d
000000c0: 7438 1a3d d6a5 3bbc 0bf6 3ebd 23dc 0c3d
000000d0: ea46 e2bd b3a1 c03d bb6f f6bd 5012 a53d
000000e0: c6ac 273d 7677 aebd 59ca 8d3c dccf 41bc
000000f0: 84f3 ecbc f2f5 853d b133 393d 1334 5abd
00000100: 84ac a3bd 466c 963d 965e 5fbd 8bf2 cc3c
00000110: 563c 973d 93c2 713d a0a9 58bd 394e 6e3d
00000120: a656 c3bd e546 a53d 58c6 243d 0b6f 2bbe
00000130: 7030 93bc c2b9 32be 2e01 a3bb 9433 ebbd
00000140: 7b91 65bd 40d9 40be c193 563c 3ee5 5dbd
00000150: 8039 1a3d 98af 3ebe 2e5b 0cbe 722a 493d
00000160: 1370 563d 3a9e 14be ed83 36be a9b9 2ebe
00000170: f30f 843b cae0 e0bc 4ff8 0fbc cbf8 0abe
00000180: 2bd4 15bd b4c0 dfbc b85d 6ebd 0051 e0bd
00000190: b79c 17bd 11fd 80ba c6b4 15be 46c6 cfbc
000001a0: 89e9 903d 2694 2cbe 67f1 9d3c e89f 72bd
000001b0: 3bc1 2bbd dad7 fcbc 69b2 97bc 7519 abbc
000001c0: f8ff 0a3e 1bd1 293e dca2 cfbd d504 24bd
000001d0: 084f 183d 601e 3fbd 8e1c 3a3e 7769 5abd
000001e0: 8b9a e7ba 23e4 27b9 4356 b33c daae debd
000001f0: 671c 993d eddf 5bbe e372 46be b2c2 27be
00000200: 01cc 59bd 2861 b53c ee00 f7bd eec7 61be
00000210: 103c 9ebc 9f4c 37bd 653c 913d 8a90 6cbe
00000220: 990a 0dbe f340 58bd fb6f fd3d 0051 6ebd
00000230: 7e0f b2bd 83bd efbd 564c 2bba f7b5 b13d
00000240: 4a5a e1bd 6789 51be 96e0 c4bd d988 9d3c
00000250: 3d79 1d3d 6735 dbbd da6f 303e b89e 323e
00000260: dbc5 f23e 87e8 e13e 0bd2 213e e1af 5a3e
00000270: ff5e e03e f5eb 153f 465d 073f b9e6 463e
00000280: 2be6 2c3c 8083 ecbd 2e64 713e c486 0d3d
00000290: f428 5fbe 43ea acbe 7acb 82bf b54d 6fbf
000002a0: 6843 65bf 9b45 4bbf 6b73 28bf c5b8 8fbf
000002b0: edf0 8cbf 1194 96bf 8e30 5cbf 5779 97be
000002c0: 660e b3be d66b e9be 3b19 02bf 2563 8ebd
000002d0: 1fc5 22bf d1d7 0abf 3d22 36bf 523e 34bf
000002e0: 848d 96be 92c5 d1be b0d9 d8be 7595 adbe
000002f0: ecfb e1be f167 e1bd e2a8 05be a3cf 1dbe
00000300: 9c4f abbd 307c 7dbe 5235 06be a50a f33c
00000310: 753f 8abc 31db 183e 8567 1abd a885 253e
00000320: e62f eebe 60a9 3fbf d1b9 4cbf ba8d 5ebf
00000330: 58f8 b1be 1acf c8be 8b0c 42bf cec2 75bf
00000340: 6fad 6cbf d911 13bf 00be 4fbd 5155 4ebe
00000350: e857 87be 8380 acbe b904 97be bf8d 283e
00000360: 605c 723e 2735 743e d256 0f3e cd0e afbd
00000370: ff72 f43e 655d 263f 63fe 553f 7ce1 fd3e
00000380: 1b04 9d3e 3fa4 ba3c 58be a6bd 327e adbd
00000390: 32c1 7e3d 4605 86bd 8a89 69bd 7357 8b3d
000003a0: febd 8bbd 935f 3cb9 e9a6 00be 1cfe 90bd
000003b0: 589f 4f3c ce37 993d 67c6 ad3c 96eb 5abd
000003c0: 5d4b c8bd d9e7 673c 0873 17be 09d6 c63c
000003d0: 6075 273d ba63 0d3d a430 0cbd 4695 863d
000003e0: 0a9d d73c 65c5 053d b335 b2bc 8905 603c
000003f0: 6a96 4d3d 5f97 efbd 5998 cdbd 007f e5bd
-0.17325033 -0.08798441 -0.15815426 0.028481448 -0.12746048 -0.019485196 -0.13148555 -0.10138551
-0.016829628 -0.077964455 -0.1353398 -0.07837978 -0.17174728 -0.11789233 -0.11531681 -0.036988676
-0.08114424 -0.05582726 -0.13800599 -0.20594695 -0.120837934 -0.06219959 -0.05709249 -0.12569208
-0.06134641 -1.1945427e-05 -0.08791512 -0.051599838 0.038863655 -0.10450403 0.030579122 0.10653088
-0.06618628 0.01317629 -0.07848982 -0.13376205 -0.101956606 0.029269472 -0.04381873 0.007571851
0.09397402 0.02672516 -0.04819069 -0.0494541 -0.05098606 0.01753949 -0.066348836 0.056643687
0.037651494 -0.011453113 -0.046621364 0.034389626 -0.11048682 0.09405842 -0.1203303 0.080601335
0.040936254 -0.08518879 0.017308401 -0.011829343 -0.028924711 0.06541051 0.045215312 -0.053272318
-0.07991889 0.0734487 -0.054533564 0.025017997 0.07384555 0.05902345 -0.052896142 0.058180068
-0.09538011 0.08070163 0.040228218 -0.16741578 -0.017967433 -0.17453673 -0.004974506 -0.11484447
-0.056046944 -0.18832874 0.013096751 -0.0541737 0.037652493 -0.18621671 -0.13706657 0.049112745
0.052352976 -0.14513484 -0.17823763 -0.17063011 0.0040302216 -0.027450938 -0.008787229 -0.1357147
-0.036579292 -0.027313568 -0.058194846 -0.109529495 -0.03701469 -0.0009841045 -0.14619741 -0.025363099
0.07075793 -0.16853389 0.019280149 -0.05923453 -0.041932326 -0.030864645 -0.01851769 -0.020886162
0.13574207 0.16583674 -0.10138485 -0.04004367 0.037184745 -0.046659827 0.18174955 -0.053323235
-0.0017669959 -0.00016011349 0.021891719 -0.10873194 0.074761204 -0.2147214 -0.19379763 -0.16382864
-0.05317307 0.022141054 -0.12060724 -0.22048923 -0.01931575 -0.044750806 0.070915975 -0.23102012
-0.13773574 -0.052796315 0.12374874 -0.058182716 -0.08694361 -0.11706068 -0.0006534507 0.08677285
-0.110035494 -0.20462571 -0.09613149 0.019230293 0.0384457 -0.10703545 0.17230168 0.17443359
0.47416577 0.44122717 0.15802781 0.21356155 0.43822476 0.58563167 0.528767 0.19423951
0.010552923 -0.11548519 0.23573372 0.03455235 -0.21792966 -0.33772478 -1.0218346 -0.93477947
-0.8955598 -0.79403085 -0.65801114 -1.1228262 -1.1011025 -1.1763936 -0.8601159 -0.29584762
-0.34971923 -0.45590085 -0.5081975 -0.06952504 -0.6358203 -0.5423556 -0.71145993 -0.70407593
-0.29404843 -0.40971047 -0.42353582 -0.3390309 -0.44137514 -0.110061534 -0.13052705 -0.15411238
-0.08364794 -0.24754405 -0.13106278 0.029668162 -0.016875962 0.14927365 -0.03769638 0.16164267
-0.4652092 -0.7486782 -0.79971033 -0.8693501 -0.34759784 -0.39220506 -0.7580039 -0.96000373
-0.9245214 -0.5744911 -0.050718307 -0.20149733 -0.26434255 -0.33691797 -0.2949579 0.16460322
0.23668051 0.23848401 0.13997963 -0.08547745 0.47743985 0.6498626 0.8359129 0.49586093
0.30667195 0.022783397 -0.08141774 -0.084713355 0.062195964 -0.065439746 -0.057015933 0.06803789
-0.068233475 -0.00017964681 -0.12563671 -0.070797175 0.012672268 0.07481347 0.02121277 -0.05344733
-0.097799994 0.014154398 -0.14789975 0.024271982 0.040883422 0.034518935 -0.034226075 0.065714404
0.02632 0.032658953 -0.021754121 0.013673195 0.050192274 -0.116987936 -0.10038824 -0.11205864

conv1.bias f4 [64]
00000000: 1513 4fbe 9076 9fbc 1fc7 23be 57db e2bc
00000010: 512b 0f40 07bf ffbd 1a4d a5bc e947 10be
00000020: 6ffa 4f3f 3580 61bc 8454 dbbb a243 7cbd
00000030: 73b4 d73e 8b7b 383f 11b5 d8bd 359d 39bd
00000040: 114f 08be 5598 2e3f 4278 cabd 3495 3d3f
00000050: 5b28 0e3e 5f15 abbf f3a5 fcbe 5681 843d
00000060: 0987 5ebe 7068 95bd 5ce5 3dbe f904 0dbe
00000070: 1602 edbd 88c2 10be c1b9 a43f 3c92 aa3f
00000080: 1051 c6be 2087 3dbe 02f2 9cbe 8160 193f
00000090: af63 fbbd b4ec 22bd 1733 9ebd a3a4 37bf
000000a0: 312e b6bd afd1 093f 8421 39bd fb8a 3abe
000000b0: 3f37 82bb a6c9 ee3e 49f7 dcbd ec26 86bd
000000c0: a6d8 92bd 841d 83bd 9d48 30bd a901 953c
000000d0: d265 3e3f 02a9 59bd 4a5f 8a3e 7a7e 063f
000000e0: a591 14be 8d45 8abd 0a18 cd3d 852f aebd
000000f0: 0f11 343f 6aab b9bd a29e d93f f427 f13d
-0.20222123 -0.019465715 -0.15993927 -0.02769248 2.2370188 -0.124876074 -0.020178366 -0.14089932
0.81241506 -0.013763477 -0.0066934247 -0.061587937 0.4212986 0.7206351 -0.10581411 -0.04531594
-0.13311411 0.6820119 -0.098862186 0.7405579 0.13882582 -1.3365897 -0.4934536 0.06469981
-0.217312 -0.072953105 -0.18544525 -0.13771428 -0.115726635 -0.14136708 1.2869188 1.3325877
-0.3873372 -0.18508577 -0.30653387 0.5991288 -0.122748725 -0.03977652 -0.07724588 -0.7173559
-0.08895529 0.53835577 -0.04519798 -0.1821708 -0.003973871 0.4663822 -0.107893534 -0.065503925
-0.07170229 -0.06402114 -0.043038 0.018189268 0.74374115 -0.053139694 0.27025825 0.5253674
-0.14508684 -0.06751547 0.10014351 -0.085051574 0.7033853 -0.09065898 1.7001536 0.117751986

norm1.weight f4 [64]
00000000: 4d0d 863f d6b4 6d3f 41de 8d3f d94a 7f3f
00000010: 1517 c03f d065 803f 1b1b 833f 2434 803f
00000020: 1b95 0240 956a 803f 5194 793f 57a2 7b3f
00000030: 7b86 f33f 2510 d63f 1ebe b13f 1a74 cd3f
00000040: d535 7f3f a9f9 7b3f aebf 743f 878c e33f
00000050: 3c8f d63f a6bd d33f c333 bc3f ecec c63f
00000060: f576 643f e1e8 7d3f bd9d 613f 8d48 7f3f
00000070: bded 7f3f 3041 823f 924a be3f 2ffb ec3f
00000080: c70d a03f bc3f 893f a12f e33f 1b70 dd3f
00000090: a4fb 813f eaeb 803f 930c 753f e288 913f
000000a0: 0414 7f3f e0f0 0040 aec0 813f ff17 893f
000000b0: 105b 7e3f 2086 b93f 66d3 7f3f 9767 7d3f
000000c0: a91e 803f 6cbc 843f 9fd2 7d3f 528b b43f
000000d0: f106 ec3f 4011 c73f b49a f43f 1013 e43f
000000e0: 052d 803f 4a40 813f 47dc bf3f 298f 513f
000000f0: 0342 f03f 1ce8 7f3f 55eb cc3e eaca 753f
1.0472809 0.9285406 1.1083452 0.99723583 1.5007044 1.0031071 1.0242647 1.0015912
2.0403507 1.0032526 0.9749194 0.98294586 1.9025415 1.6723677 1.3886144 1.6051056
0.99691516 0.98427826 0.9560498 1.777726 1.6762462 1.6542251 1.4703296 1.5541053
0.89244014 0.9918347 0.88131315 0.9972008 0.99972135 1.0176144 1.4866507 1.8514155
1.2504205 1.0722575 1.774891 1.7299837 1.015492 1.0071995 0.9572231 1.1369898
0.99639916 2.0147018 1.0136926 1.0710448 0.993577 1.4494057 0.99931943 0.9898619
1.0009357 1.0370002 0.9914951 1.4105017 1.8439618 1.5552139 1.9109712 1.7818317
1.0013739 1.0097744 1.4989098 0.8185907 1.8770145 0.99963546 0.40023294 0.9601275

norm1.bias f4 [64]
00000000: b397 8f3e ebf9 93bd 8df2 0fbf 6b40 b4bd
00000010: f400 94bc 7a9f 023d f1f8 a6bd 6800 7bbc
00000020: bed3 423e eb7f 99be 660f 24bf f3bf 0c3d
00000030: 99b3 0b3f b8fc b33f 42e4 f93f 8f38 8a3e
00000040: 96fb dcb9 f0c4 923f 2d46 6fbb 761a 12bd
00000050: b34f 3e3d 0616 0a3f fe69 d8be 8bb5 083e
00000060: d954 933e 0fa5 c03d 1faf 95bd 0f03 98bb
00000070: 8977 e73d f0a0 923e 23f9 acbf 80df 56bf
00000080: 2e2c 543c bca4 873e d035 aebe dcb1 843d
00000090: 8997 06be c5f2 f0be fa14 8b3e 88de 67bd
000000a0: a434 8bbc 4fdd bf3e 2582 41be 1a6b 003f
000000b0: c833 aebd d9c2 913f 73ba 38bd 2eda 0abe
000000c0: c4a8 053d b563 ddbe 8f00 79bd 1da8 1a3e
000000d0: c002 9ebf 4ea1 933d e6f8 80bf a8fb 22bf
000000e0: 5f55 f6bc bb75 a23c ead7 513e e038 9fbc
000000f0: cdfa 6e3f 8e95 363c 9f11 54bf 65d8 7cbd
0.28045425 -0.072254024 -0.5622948 -0.08801349 -0.01806686 0.03189037 -0.081529506 -0.015319921
0.19026086 -0.29980406 -0.64085996 0.034362745 0.5457092 1.4061499 1.9522784 0.26996276
-0.00042149116 1.146635 -0.0036510334 -0.035669766 0.046462726 0.53939855 -0.42268366 0.13350503
0.2877567 0.094064824 -0.07308792 -0.0046390365 0.113020964 0.2863841 -1.351353 -0.83934784
0.012949986 0.2649287 -0.3402543 0.064792365 -0.13143744 -0.47060218 0.2716444 -0.056608707
-0.016992874 0.37473533 -0.18897302 0.50163424 -0.0850597 1.1387588 -0.045099687 -0.13559791
0.03263165 -0.43240133 -0.06079155 0.15103193 -1.2344589 0.07208501 -1.0075958 -0.63665247
-0.030070005 0.019831529 0.20492521 -0.0194363 0.9335144 0.011144055 -0.8283939 -0.061729807

norm1.running_mean f4 [64]
00000000: 0400 0000 28e0 3334 20a8 0f35 0400 0000
00000010: 581e 853e 0400 0000 0400 0000 0400 0000
00000020: 2197 b53f 0400 0000 0400 0000 0400 0000
00000030: 4a3b 643f b77e 863f 02ad 093f a2e3 163f
00000040: 0400 0000 88dc 0741 0400 0000 239b b53f
00000050: a4f1 c53f 13ef 253f 2ea8 1b3f 896c b03f
00000060: 0400 0000 0400 0000 0400 0000 0400 0000
00000070: 0400 0000 6e20 163d 7618 5f3e 1028 c83f
00000080: fd6d ac37 0400 0000 b12f 9b1b 0485 853b
00000090: 0400 0000 0400 0000 0400 0000 ca5c b53e
000000a0: 0400 0000 9650 513f 0400 0000 0400 0000
000000b0: 0400 0000 c5a9 033f 0400 0000 0400 0000
000000c0: 0400 0000 0400 0000 0400 0000 1026 db3f
000000d0: 0add af3f d7d7 ab3f 486b 8b3f c001 c33f
000000e0: 0400 0000 7101 9d1b e63c 2640 0400 0000
000000f0: b0b3 953f 0400 0000 7b2e 8640 66d7 293f
6e-45 1.6752222e-07 5.3516305e-07 6e-45 0.25999713 6e-45 6e-45 6e-45
1.4186746 6e-45 6e-45 6e-45 0.8915297 1.050742 0.53779614 0.5894109
6e-45 8.491341 6e-45 1.4187969 1.5464368 0.64817923 0.60803497 1.3783122
6e-45 6e-45 6e-45 6e-45 6e-45 0.03665202 0.21786675 1.5637226
2.0555215e-05 6e-45 2.567342e-22 0.0040746946 6e-45 6e-45 6e-45 0.35422355
6e-45 0.8176359 6e-45 6e-45 6e-45 0.5143092 6e-45 6e-45
6e-45 6e-45 6e-45 1.7120991 1.3739331 1.3425244 1.0892115 1.5234909
6e-45 2.5974403e-22 2.597467 6e-45 1.1695461 6e-45 4.193174 0.66344297

norm1.running_var f4 [64]
00000000: 0400 0000 61f9 3531 8ce3 5634 0400 0000
00000010: 2231 6b3e 0400 0000 0400 0000 0400 0000
00000020: 4c92 4d3f 0400 0000 0400 0000 0400 0000
00000030: fa07 213f 2264 a83f f2a1 973f d62c 8b3f
00000040: 0400 0000 1c87 1441 0400 0000 edae b93f
00000050: b5aa 513f 07ca a03f 4903 043f 0cc2 083f
00000060: 0400 0000 0400 0000 0400 0000 0400 0000
00000070: 0400 0000 55d5 153d 6e3d 663e 3fee 5d3f
00000080: 62c0 8737 0400 0000 84ad 111b 2df8 a33a
00000090: 0400 0000 0400 0000 0400 0000 7cf8 8d3e
000000a0: 0400 0000 6f16 113f 0400 0000 0400 0000
000000b0: 0400 0000 15ff 2e3f 0400 0000 0400 0000
000000c0: 0400 0000 0400 0000 0400 0000 4161 1b3f
000000d0: 7eb0 a83f d183 f63f 5759 cc3f 66b4 be3e
000000e0: 0400 0000 c96c 131a 9ef9 673f 0400 0000
000000f0: cdf4 aa3f 0400 0000 5d37 a13f 278f e63d
6e-45 2.6480722e-09 2.0013084e-07 6e-45 0.22967961 6e-45 6e-45 6e-45
0.80301356 6e-45 6e-45 6e-45 0.62902796 1.3155558 1.1846297 1.0873058
6e-45 9.282986 6e-45 1.4506508 0.81901103 1.2561654 0.5156751 0.5342109
6e-45 6e-45 6e-45 6e-45 6e-45 0.036580402 0.22484371 0.8669166
1.618284e-05 6e-45 1.2050185e-22 0.0012509875 6e-45 6e-45 6e-45 0.2772864
6e-45 0.56674856 6e-45 6e-45 6e-45 0.68357974 6e-45 6e-45
6e-45 6e-45 6e-45 0.6069527 1.3178861 1.9258977 1.5964764 0.37247008
6e-45 3.0486763e-23 0.9061526 6e-45 1.3355957 6e-45 1.259502 0.11257773

norm2.weight f4 [32]
00000000: ec8f 353f b0d6 2e3f 8acc 223f 1ac3 3d3f
00000010: 6ce2 363f fdc1 3f3f c6b4 253f c6c7 163f
00000020: e94a 283f b06a 273f 7260 2c3f 2140 2a3f
00000030: ce7e 1f3f 21d5 2c3f 4948 243f 5ba9 003f
00000040: 4889 013f 79cc 3b3f 581b 333f de52 223f
00000050: 32f1 283f aa52 303f b63b 353f 600e 213f
00000060: b25d 0f3f d141 3a3f 1c6a 243f 9715 213f
00000070: 17b0 103f 75b1 b63e 4e0b 3c3f bc43 3f3f
0.7092273 0.6829634 0.6359335 0.74125826 0.7143924 0.7490538 0.64728963 0.5889858
0.65739304 0.6539717 0.67334664 0.665041 0.62302864 0.6751271 0.641728 0.50258416
0.506001 0.73358876 0.699636 0.63407695 0.65993035 0.68876135 0.70794237 0.6291256
0.5600234 0.7275668 0.6422441 0.6292357 0.5651869 0.35682264 0.7345475 0.7471273

norm2.bias f4 [32]
00000000: c88f f33d eec8 48bc 5391 0e3e 85ac df3d
00000010: 1b0a b8bb 16fe 3a3d 48d3 083c 65ab 93bd
00000020: e595 e5bd dd1f b9bc 0e7c 67be 6e05 c8bc
00000030: 65a5 67bd 0469 403e 3695 473c 88a3 433c
00000040: d034 c2bd 2609 893e 7f89 c8bc 781e cbbd
00000050: a8cd 363d e466 fcbc a178 c4bc c864 613d
00000060: 36d5 893d e8e9 0a3d 22cc dd3c 0586 50bd
00000070: 7188 e13c 0a86 e63d f61c acbd 4ed1 0f3d
0.118926585 -0.012254937 0.13922624 0.10921577 -0.005616439 0.04565247 0.008351155 -0.07210425
-0.11210231 -0.022598201 -0.22605917 -0.024416652 -0.056554217 0.1879006 0.012181571 0.011940844
-0.094827294 0.26764792 -0.024479626 -0.09917921 0.044629723 -0.03081078 -0.023983302 0.055027753
0.0673012 0.033914477 0.027074877 -0.05090906 0.02753088 0.11256035 -0.08403961 0.035111718

norm2.running_mean f4 [32]
00000000: bde9 8a41 de7f 8041 3269 7741 737f 3941
00000010: 7ea2 8341 490b c541 2e73 9041 5419 b841
00000020: 5fe0 9c42 956f 6641 93b3 7041 e8ff 2342
00000030: c4e0 3d41 75be 5041 efa8 4941 0e94 0043
00000040: dc91 2242 2439 2f41 e9be 5241 e80c 8541
00000050: 69ef 3541 90b9 7e41 5f67 6f41 1c4e 6041
00000060: 381f 5641 5332 9341 fec8 6741 d94a 6b41
00000070: 14cd a241 0400 0000 a8c0 6541 a27f 6e41
17.36413 16.062435 15.463182 11.593616 16.454342 24.63051 18.05624 23.012367
78.438225 14.402242 15.043841 40.99991 11.867374 13.046498 12.603744 128.57834
40.64244 10.95145 13.171609 16.631302 11.37095 15.920303 14.962737 14.01907
13.382622 18.399572 14.48657 14.705773 20.350136 6e-45 14.359535 14.90616

norm2.running_var f4 [32]
00000000: 8319 1543 1ef8 c942 5e54 a442 d4e0 a442
00000010: 07aa e042 ed9c 0f43 5eb8 0143 d736 e442
00000020: f7d2 6a44 feff b442 621e 0943 e9f1 9943
00000030: 36f7 0743 3ed1 e542 0252 a542 1c84 d544
00000040: 2a8b 7f44 0edc f642 8af2 d142 4757 e642
00000050: 36b7 6642 c3df d442 ae2c f842 b70b 5e42
00000060: 990f 9742 10b0 8043 e2d0 d342 66af b042
00000070: 6a84 d842 0400 0000 7f99 b142 f4d0 e442
149.09966 100.984604 82.16478 82.43912 112.332085 143.61299 129.72018 114.10711
939.2963 90.499985 137.11868 307.88992 135.96567 114.908676 82.66017 1708.1284
1022.17444 123.429794 104.97371 115.17046 57.678917 106.437035 124.087265 55.51144
75.530464 257.3755 105.907974 88.342575 108.25862 6e-45 88.7998 114.40811

conv2.weight f4 [32, 64, 5, 5]
00000000: 0815 f73c e612 a63c 9483 643d e2d6 823c
00000010: 7a94 183d 3657 fd3c be54 913d a2bd 5a3d
00000020: 7cfa 2c3d 6e38 a43d 7a70 223d beea 2b3d
00000030: 7243 6e3d 4037 5f3d 8627 953d 9e8f e53c
00000040: 887e ea3c 803f 5b3d 72fb 233d 9f0f 843d
00000050: d0e9 793d 504b a63c 06df 0e3d a6a6 123d
00000060: 223d a539 846a bdbc 9896 97bc b27b 4f3d
00000070: f1bb 073d 81be 123c 87fa 573d f73f 7d3d
00000080: 81b2 3dbb 0868 b43c 3f65 843c 177a d23c
00000090: 6d7a f03c 5baf bb3b 1b4a ba3c c6ae 51bd
000000a0: ec8c 693d 2cfd a13b e6d9 90bc f5bc 133b
000000b0: 64b8 d6bc cff0 d03c ea7d 18bc 698c 43bc
000000c0: d359 04bd 3a86 33bd 9c25 a1bd 8fe8 90bd
000000d0: c468 ccbc 11f8 4e3d fc06 2dbd d204 0bbe
000000e0: cac1 d3bc 9084 ea3d b3a9 203e 42ab 8a3d
000000f0: 6620 babd decb 94bd 08fe 153d aa1b 94bd
00000100: d70a 4dbc 4b7a b4be 759f 53bc 3627 fc3d
00000110: 12d6 efbc 2c16 32bb 6b09 c0bd 5fbe f73d
00000120: 5533 823e 736c 6a3e 9214 c8bd 50bf c7bc
00000130: 0b5b c8bb cd86 1bbd dce6 cabc 0da9 46bc
00000140: b04d 95bc d23e b43c 62f2 9bbc 332f 363c
00000150: cb12 3fbb 8ab1 de3c 4e7b 9238 d17d 09bc
00000160: 653b 93bb 0f4e 38bc 0008 62ba d767 c63b
00000170: d4e8 933c ad43 723c e346 8c3b a0e4 f5bc
00000180: 2672 04bb e1ae 27bd 177d a63b 33ee dcba
00000190: 7637 46bd cd1d 5cbd 26b2 393e 93c7 4a3e
000001a0: a36e 49bd 8b01 ad3d de7c 593e 3181 0b3e
000001b0: 438c 30bd 5832 4ebc 8c7a e7bc 803d 39be
000001c0: 7db5 4bbd f8b4 cdbc 250a bcbd 4ed8 bfbd
000001d0: c159 65be 367e a73c 1754 d33d ee66 143c
000001e0: 5155 36be 7b28 cebd 0ae5 a03d f3cf 273e
000001f0: b23a 92bc 2fb2 b0ba 4459 313c 56cd 18bc
00000200: 5236 13bc 33e4 8d3c eb7d d83c 571a ef3c
00000210: fb07 2b3b 815e d03a c783 ab3c df70 373b
00000220: f249 72bc b942 873c a38d 80bc f683 21bc
00000230: 29c6 cd3c 57dc a03c 6181 a13c 714c 6f3b
00000240: 5994 e23c a730 ee3c a52b 93bc bf90 bc3c
00000250: 569d 7d3c 4b30 8aba 7885 763c bfdc a6bb
00000260: c274 15bc 1699 7e3c 14a2 5d3c 9130 893b
00000270: 6430 583c 65ff 873c b78d efbc 5192 f5bc
00000280: 81c0 be3c 4bb4 cd3c 3013 82bc 35b7 b0bb
00000290: db81 2fbd 872b a43b f547 903b 3435 4c3c
000002a0: 2a1a 283c 72aa 43bc 0fd3 bebc 75da b9bc
000002b0: b182 b8bc df96 a63b 1fdc e33c 46a8 c8bb
000002c0: 142d 3dbc 3035 3fbc e891 9cbb 5c3c 8f3c
000002d0: f92b 003d c3ba 773c 4803 6ebb bc87 e33c
000002e0: d706 1e3d f2d4 9e3c d6c0 983b b0c1 5a3b
000002f0: e40b 823c b4c4 ef3c 7412 bbbc fa4b 1abc
00000300: c8ad c23c 627c 973c 7b86 1c38 2865 5d3c
00000310: 0f71 a73a 7744 0c3d 1541 293d 5808 d13c
00000320: 57cf 66be ff50 05be bb31 67bd 7109 8d3e
00000330: b6b9 ec3d 280d 15be d158 38bd 01c3 37bd
00000340: f694 7f3e a613 1ebd 33b9 85bd bed3 963d
00000350: fe67 f63d 239c 383d cc06 95bd bc92 9c3d
00000360: f6fa acbd b984 623c 66d6 4b3e 190f 7a3e
00000370: c36f d7bc 48b0 8ebc 3b05 e23d 6429 5ebd
00000380: 5d93 273e de85 08bd 50f9 0fbd 8f16 e6ba
00000390: 3cc2 22bd 9363 edbc 1f96 b1bc 03c7 e1bc
000003a0: 6e80 28bd 7f51 f239 ffa2 98bc 8ea9 19bd
000003b0: 2efc 27bd ef0c eebc 12e5 01bd 3179 adbc
000003c0: aac0 08bd 7f43 debc 3565 dcbc a216 3cbd
000003d0: a770 e2bc 92cc 3dbd e791 b7bc ec0d 7cbb
000003e0: 66ad 1dbc 58a9 24bd b109 a0bc 8a6a 14bd
000003f0: 4a2e 5abd 4645 43bd 32a4 15bc 9553 c6bc
0.030161396 0.020272683 0.055789545 0.015971605 0.037250973 0.030925374 0.070962414 0.053403504
0.042231068 0.080185756 0.039658047 0.041971914 0.05816979 0.05449605 0.07282929 0.028022584
0.028624788 0.053527355 0.04003472 0.06448292 0.061013997 0.020299584 0.03488066 0.03580346
0.000315168 -0.02312208 -0.018504426 0.050655074 0.03313822 0.0089565525 0.052729156 0.06182858
-0.0028945508 0.022022262 0.01616156 0.025692983 0.029355252 0.005727691 0.022740414 -0.051192068
0.05701916 0.0049435105 -0.017682027 0.0022543047 -0.026210971 0.025505451 -0.009307364 -0.011935332
-0.032312226 -0.04382918 -0.078685015 -0.07075607 -0.0249523 0.050529543 -0.04224299 -0.13576058
-0.025849242 0.114510655 0.15689735 0.06770946 -0.09088211 -0.07265447 0.036619216 -0.07231839
-0.012514791 -0.35249552 -0.0129164355 0.123121664 -0.029276881 -0.002717386 -0.09376796 0.12096857
0.25429788 0.22892933 -0.097695485 -0.024383217 -0.006114369 -0.037970353 -0.024768285 -0.012125266
-0.01822552 0.022002611 -0.019036476 0.011119652 -0.0029155489 0.027184267 6.98479e-05 -0.008391813
-0.0044931644 -0.011249079 -0.0008622408 0.006054859 0.018055357 0.014786643 0.0042809113 -0.030016243
-0.002020964 -0.040938262 0.00508083 -0.0016855657 -0.048392735 -0.053739358 0.18134364 0.19802694
-0.049177777 0.0844756 0.2123904 0.13623501 -0.043102514 -0.012585245 -0.028256677 -0.18089867
-0.049733628 -0.025110707 -0.091816224 -0.09367429 -0.2239752 0.020445924 0.10318773 0.0090577435
-0.17805983 -0.10066315 0.07856186 0.1638792 -0.017850254 -0.0013480837 0.010824505 -0.0093263
-0.008985119 0.017320728 0.02642723 0.029187365 0.0026097286 0.0015897305 0.02093686 0.002799086
-0.014788138 0.016511308 -0.015692538 -0.009858122 0.025118904 0.019636316 0.019715013 0.0036514068
0.027658628 0.029075934 -0.017965147 0.023018239 0.015479406 -0.0010542957 0.01504647 -0.005092233
-0.0091220755 0.015539428 0.013527412 0.004186698 0.013195131 0.016601274 -0.02924238 -0.029976996
0.023285152 0.025110384 -0.01587829 -0.0053929337 -0.04284845 0.0050100717 0.004403109 0.0124638565
0.010260144 -0.011942493 -0.023294 -0.022687176 -0.022523256 0.005083903 0.027814923 -0.0061235754
-0.011546392 -0.011670396 -0.0047781356 0.017484836 0.031291936 0.015120211 -0.0036317874 0.027774684
0.03858074 0.01938865 0.0046616597 0.0033379607 0.01587481 0.0292686 -0.022835948 -0.009417528
0.023764506 0.018491928 3.7318543e-05 0.013512887 0.0012774783 0.03424498 0.041321833 0.025516674
-0.22540031 -0.13019179 -0.05644391 0.27546266 0.11558859 -0.145558 -0.045006577 -0.044863705
0.24959168 -0.038592957 -0.065294646 0.07364605 0.12031554 0.04507078 -0.07276687 0.07645175
-0.084463045 0.013825589 0.19906005 0.24419822 -0.02629841 -0.017418042 0.11036154 -0.054238692
0.16364808 -0.03333079 -0.035149872 -0.001755433 -0.039736018 -0.028978145 -0.021678029 -0.027560716
-0.041138105 0.00046218556 -0.01863241 -0.037515216 -0.04101198 -0.029058902 -0.0317126 -0.021175953
-0.033386864 -0.027131794 -0.026903728 -0.04592002 -0.027641607 -0.04633767 -0.022408439 -0.0038460447
-0.009623861 -0.04020056 -0.019535871 -0.036234416 -0.0532668 -0.047673486 -0.0091333855 -0.024209777

conv2.bias f4 [32]
00000000: 3772 323e f152 ca3d 3194 d43d f011 4dbd
00000010: 4164 cd3c e0ea e53c 9b42 343d c7e3 fc3d
00000020: c671 393e 8ea3 b03d d0da 97bb a1e5 d23c
00000030: 8175 003e 9698 2e3d 9a39 1c3d bc92 8b3e
00000040: fe13 91be bcfb f3bc ed76 8d3c 096f 833b
00000050: 75c0 523c 8b61 733d f50a 8bbc d9a5 853d
00000060: e180 143d 52dd c23d 5baa 7f3c 9ccd ec3d
00000070: 5319 9abc b689 25be 8103 c93c daec 3c3e
0.17426382 0.09879101 0.10379828 -0.050065935 0.025072219 0.028066099 0.044008832 0.123481326
0.18109807 0.086249456 -0.004634239 0.025744261 0.12544824 0.042625986 0.03814087 0.27260387
-0.28335565 -0.029783122 0.017268622 0.004011039 0.012863268 0.059419196 -0.016972998 0.065257736
0.03625572 0.0951487 0.015604581 0.115626544 -0.018810904 -0.16165814 0.024537804 0.18449727

fc1.weight f4 [384, 32]
00000000: e339 463e 27de b43e fd71 0e3d 80f4 c1bd
00000010: 06e2 ac3d 8590 e3bb d775 0e3c f039 423e
00000020: 557b bf3c 7f54 d2bb e136 4bbe a9ff 6abd
00000030: cbab d8bd d9f3 b3be 6b57 b7bd 8567 923d
00000040: 695e d53c ba39 8fbd 0d41 813d 3798 1dbe
00000050: 5d0d 2e3e 4542 8abc b295 09be 86a6 83bd
00000060: 3cef 0dbe 137d b13e 0953 a6bd 8bbe 6abe
00000070: 0772 d43d 1531 ebbd 9a92 203d 782c d63c
00000080: dc8c 8cbe 8843 dbbd a5f3 f03c ba0f a2bc
00000090: 147b 5a3e 628f d23d ac97 c13d 575f 3a3e
000000a0: fa51 3e3e b881 723d 44ea 69be 7cb4 fabd
000000b0: dfa4 e03d 284c 0dbe 0429 18be 78be a5bc
000000c0: ff7b 033d 5214 1dbe e3bf a03d 38e6 78be
000000d0: d8b8 3c3e 5d4b 37be 5740 333e 5425 d0bd
000000e0: 6eba de3d bbc8 53be 82f8 32be d8e3 643e
000000f0: a015 a33e 87f1 5f3d fdca e6bd aa12 b43e
00000100: 9afa 4fbe 685d 1c3d 31f5 863e fbb7 d03e
00000110: 85a5 c3bc e6f6 95bd bdf8 5c3c aaba db3d
00000120: fdff 933c 8757 3dbe 9d10 973d cbf1 90be
00000130: 60d7 07be b390 dcbd b1bd 87bd f50c 453e
00000140: 04c8 74be 8e2a ad3d 6d19 a93d b988 1d3e
00000150: 2e5a 99bd fb66 08be a2df 2abd f9ca ab3d
00000160: 15c1 f8bd 90f8 d53a bb5e e1bd 8a96 8bbd
00000170: 460d df3b 5020 563e 7d6f 213e 47b0 a93d
00000180: 30dc 08be f266 d2bc ce9d da3d 7d21 b1bd
00000190: 1fbd 5fbe b8ad efbd cd7e 7f3d ad42 11be
000001a0: eaec 80be ccae c33d 5623 4abd 7b70 d7bc
000001b0: 7ed7 423e bc77 653d bbbe 1bbe 57dd b4bd
000001c0: fab8 513c 449c e33d ffe5 4dbb 5097 463e
000001d0: ec3c 9b3e aeb5 01be 7cdc a2b9 d1f6 66be
000001e0: 9a93 0abe 5235 28be 607b df3d 7d12 5c3d
000001f0: 722d 1ebe e775 903e 59dc 763d 5ac8 8abe
00000200: 2a17 aa3d 1dba 9f3d 23eb 953d cc80 a03c
00000210: fad3 a5bd a697 60be 880f b03d 9139 783e
00000220: 4fd6 06bd 4cee bb3d 7ae2 babd f38a 21be
00000230: 1f28 1b3d 0583 96bd c0fc 90be 174d 83bd
00000240: c285 dbbd bcee 8dbd ff65 c1bd 78a9 71be
00000250: a0b0 473d 1cc7 a2be 3363 e5bd 45f0 2fbe
00000260: 8769 36bd 766b ba3e a45f 5d3d 8b13 bebe
00000270: aa8f 5b3e dc68 33be fe88 0e3e 7c0e 08bd
00000280: 4289 40bd 9c09 82bd 5119 9bbd c31e afbc
00000290: 36f1 803d 299f 89bd 8542 96be eab8 aabd
000002a0: b514 543e 38cb ad3c 9d7e b4bd 2b97 01bd
000002b0: 497f 8fbd 42a9 a73d e6a1 0f3d f781 7e3e
000002c0: 8d55 173e ecdd 203e 463a 0f3c 2278 f8bc
000002d0: 69a8 ff3b 70d4 813e 3691 c0bd 18be 983d
000002e0: e36b 44be 7c00 173e 7366 683d d899 3e3e
000002f0: 81c9 b93d 83aa fa3d 2786 d5bd 035d 80bb
00000300: 10af c13c 0059 85bd 7ec4 4ebd 80bc 34be
00000310: e79a 3c3d cfd3 76bd c96a 14bd be33 453e
00000320: 2e5d d33e a9a6 0e3e 3c12 f93c cf81 76bd
00000330: 00b6 833e 5cc6 123e 7332 813e f16d 153d
00000340: 69f7 4fbd d1df 10bd 5450 37be c0bd bf3d
00000350: 53d3 27be 715a 28be 7440 60bd 2c2b 88be
00000360: 8255 2bbe 16de 17be 2746 0abc d0a9 0f3e
00000370: e4c9 b5bd 0a8d 993e c607 323e 1e0c f73e
00000380: 4d1f e73d ddad 8b3e 9d28 f1bd 893a 09bf
00000390: b7e6 bf3d 1ee8 36bd da6c d8bd 171d a7bd
000003a0: 94c0 4cbe 57e5 08bd 9c0b 633a 3a06 d13d
000003b0: f149 78bd 09ec caba 5f57 d33c 8253 463c
000003c0: 665a 743e 06d1 243e c0db fdbd 2f59 76be
000003d0: c720 ca3d 7f80 743d c575 86bd f6f2 bebc
000003e0: 0dd9 093e 40b1 403e e0ee 08be 8017 ed3d
000003f0: bc42 ab3c 135c 2bbe 5f8a 9abd b8f7 3abc
0.1935802 0.3532574 0.034776676 -0.09470463 0.08441548 -0.0069447183 0.008695087 0.18967414
0.023374239 -0.006418764 -0.19845153 -0.057372723 -0.10579642 -0.35146978 -0.089522205 0.07148651
0.026045995 -0.06993432 0.063112356 -0.15390097 0.16997285 -0.016877303 -0.1343601 -0.06428246
-0.13860792 0.34665737 -0.081213064 -0.22924249 0.103733115 -0.11483971 0.03920231 0.026144251
-0.27451217 -0.1070624 0.029413054 -0.01978289 0.21336013 0.10281254 0.09452757 0.18200432
0.18585959 0.05920574 -0.22843271 -0.12241456 0.10968947 -0.13798583 -0.14859396 -0.020232424
0.032100674 -0.15339783 0.078490995 -0.24306571 0.18429887 -0.17899843 0.17505012 -0.1016337
0.108754024 -0.20682041 -0.1747761 0.2235254 0.31852436 0.054673698 -0.11269186 0.3517049
-0.2031044 0.038175017 0.2635894 0.40765366 -0.023882637 -0.07322483 0.013487038 0.10728963
0.0180664 -0.1849042 0.073762156 -0.28309473 -0.13265753 -0.10769787 -0.06627978 0.19243224
-0.23904425 0.08455382 0.08256803 0.15384187 -0.074879035 -0.13320534 -0.04171718 0.08388323
-0.121462025 0.0016324688 -0.110043965 -0.068158224 0.0068070022 0.20910764 0.15765186 0.08285575
-0.13365245 -0.025683854 0.1067463 -0.086489655 -0.21849488 -0.11703056 0.062376786 -0.14185591
-0.2518075 0.09554824 -0.049350105 -0.026298752 0.19027516 0.05602239 -0.15209477 -0.0883128
0.0128004495 0.1111379 -0.0031417606 0.19393659 0.30319917 -0.12666962 -0.00031063322 -0.2255509
-0.13532868 -0.1642659 0.10912204 0.05372857 -0.15447024 0.28214952 0.060268734 -0.2710598
0.083051994 0.0779917 0.073202394 0.019592665 -0.08097072 -0.2193285 0.08596712 0.2424071
-0.032919224 0.09176311 -0.09125228 -0.15775661 0.03788006 -0.07349209 -0.28317833 -0.06411188
-0.10718872 -0.069303006 -0.09443282 -0.23599803 0.048752427 -0.31792533 -0.112005614 -0.171815
-0.044534232 0.3641011 0.054046288 -0.37124285 0.21441522 -0.1752047 0.13919446 -0.03321694
-0.0470059 -0.06349489 -0.07573188 -0.021376973 0.06296007 -0.067198105 -0.29347625 -0.08336051
0.20711024 0.021215066 -0.08813212 -0.031638306 -0.070066996 0.0818658 0.035066508 0.24854265
0.14778729 0.15709656 0.008741921 -0.030330721 0.0078020585 0.2535739 -0.09402697 0.074581325
-0.1918178 0.14746279 0.05673833 0.18613374 0.09071637 0.12239554 -0.10425978 -0.003917338
0.023643047 -0.06511116 -0.05048036 -0.17650032 0.046046164 -0.06026059 -0.03623465 0.1925802
0.41282028 0.13930763 0.030404203 -0.06018239 0.25724792 0.1433348 0.25233802 0.0364818
-0.050773058 -0.035369698 -0.17901736 0.09362364 -0.16389208 -0.1644075 -0.054748967 -0.26595438
-0.16731837 -0.14830813 -0.008439577 0.14029622 -0.08876398 0.29990417 0.17385778 0.48251432
0.11285267 0.27281085 -0.117753245 -0.5360494 0.09370177 -0.044654958 -0.10567637 -0.08159845
-0.19995338 -0.03342184 0.0008661093 0.10206266 -0.06061739 -0.0015481721 0.025798498 0.012104871
0.2386261 0.16095361 -0.123954296 -0.24057458 0.09869533 0.059692856 -0.065654315 -0.023309212
0.13461705 0.18817616 -0.13372374 0.11576748 0.020905845 -0.16734342 -0.075459234 -0.0114116

fc1.bias f4 [384]
00000000: 4ef6 88be d985 bebe f676 a0be 5f96 75be
00000010: d607 91be 7457 8cbe c051 b6be 5db9 62be
00000020: 7b6b 50be 67f2 b8bd 3079 b9be c6a8 aebe
00000030: ca95 9ebe c632 93be f8a6 69be 402b 5bbe
00000040: bc1d 45be 550a 2abe 32ee 49be cd0d e3bd
00000050: 31da 8ebe b188 84be 2491 88be 587d 1abe
00000060: e3b5 09be 4023 dcbe 7399 95be 5911 5ebe
00000070: a88e 50be 4321 88be 4303 c7be 6b2f 5bbe
00000080: 80bf 9fbe 3f8d d7be 30bd 73be c435 8ebe
00000090: cc35 7abe bf27 0ebe 8c27 7cbe 6016 59be
000000a0: 7cbf 23be 493f 6fbe a3af f7bd 6ac1 66be
000000b0: aafd 9dbe ccf0 8ebe 7595 ebbe bd6d 6cbe
000000c0: 634f 0dbe a809 d9be a1f9 a5be 2c0f 67be
000000d0: 89ed babe 0244 aabe 48c1 09be 65ca 85be
000000e0: 61ad bbbe 7a01 a2be 66c5 1ebe 313a debe
000000f0: 3c05 c5be d2ad 7cbe 18a6 c0be 7e71 31be
00000100: ab39 3dbe 9011 a2be d359 e2be ce04 39be
00000110: e463 6dbe 6c19 73be bb3a bdbe e627 00bf
00000120: 5a24 89be e82e 87be 1771 f9bc abb2 7fbe
00000130: 5f19 68be a16b 2bbe 14f4 cebe dd75 b3be
00000140: da64 9dbe a3e5 99be 434c 99be a5bd f9be
00000150: 58e3 3ebe 056a 6cbe 920b 77be c357 3cbe
00000160: a1df b8be 6453 18be 5aff 52be 08fc 96be
00000170: 5a4b 68be 67a7 c6be a8b4 80be 8112 d6bd
00000180: ca25 63be a97c 5abe ec5d 7fbe 07ad c0be
00000190: 25ae ccbe bc82 bcbe 6502 88bd 7878 02be
000001a0: 6571 73be 9bdf 0abe aeb2 72be e761 c6bd
000001b0: bbe4 5dbe e33d abbe fb9c eabe 68de 92be
000001c0: 9998 2dbe 626b 3dbe bf11 89be 4b00 c1be
000001d0: 9a3f 58be 6e46 8abe ef2f 88be d262 67be
000001e0: fc05 81be d261 5ebe 12f1 26be 331a 8ebe
000001f0: 0fbf 30be 1be9 0abe d06f 5bbe 0fba 89be
00000200: 70b5 7cbe 55b2 bfbe 45ff 7ebe ac76 f0be
00000210: fff9 9bbe 540f 80be b668 7bbe c8cf 72be
00000220: 9278 25be 34ed 23be bf15 a8be 7128 02be
00000230: 37bf 83be b0d1 30be 5494 13be 186a 90be
00000240: a716 46be 6c00 babe 6ae7 99be 9a23 2ebe
00000250: 80cd afbe c2d9 8dbe 2419 2cbe c49f e5be
00000260: ea0c a2be 8028 bbbe 8380 20be 028e 72be
00000270: 972d d5bd 8958 5ebe fab0 8bbe 386a 9fbe
00000280: 088f 20be 5ac3 99be 607c a7be d238 a5be
00000290: 7cc9 a3be dbb4 bbbe ab7a a5be 9cf4 9cbe
000002a0: a782 82be 0d62 68be 2046 92be af90 45be
000002b0: c699 56be 2a46 c6be ac25 6dbe cf70 91be
000002c0: 2078 1ebe d663 eebd 438e c1be e5b2 6abe
000002d0: ae40 43be 81d0 babe 9586 0abe ad67 6fbe
000002e0: 86f8 49be b943 65be 9fec 8fbe e4aa aabe
000002f0: ea57 54be 1b96 8fbe ef2c 92be df64 a7be
00000300: c596 23be 3a7b afbe 387a 05be c49c c1be
00000310: 084f 91be 4505 16be 3db7 95be 69fc a4be
00000320: 91f5 e7be 50f6 90bd bcaa 2ebe 438c 57be
00000330: e571 65be 52f4 97be 7d8c 2ebe 8b07 66be
00000340: 0acc 8fbe 4b55 7abe 9c7c b2be 28c4 a6be
00000350: fe48 babe 0ecc 5fbe 294d 73be c584 8abe
00000360: fa56 a3be 38ea 71be 3f36 90be c256 a8be
00000370: 0065 83be 5b27 43be e200 e9bd 9971 5bbe
00000380: 3e84 b5be 2904 9fbe e274 84be 4c4e 26be
00000390: 0544 93be 4bc1 26be 0745 e9bd 2c71 6ebe
000003a0: 808b c2be b1fc a2be 8e0b 8dbe d1b9 90be
000003b0: 0f13 b4be 38a4 69be 5429 aabe e240 3bbe
000003c0: 47f0 73be 67db 68be 2896 57be 2516 89be
000003d0: 2c75 07be 093b c7be cd38 bcbe 4314 89be
000003e0: 4fd4 02bf 3ad8 6fbe f425 8dbe d7a6 51be
000003f0: 4725 70be b62f 89be 4fea 3cbe 1ea7 91be
-0.26750416 -0.37211493 -0.3134076 -0.23983143 -0.2832629 -0.2741047 -0.35609245 -0.22141023
-0.203535 -0.090306096 -0.3622527 -0.3411314 -0.30973655 -0.28749675 -0.228176 -0.21403217
-0.19249624 -0.16605504 -0.1971977 -0.11086617 -0.27900842 -0.25885537 -0.26673234 -0.15086877
-0.1344829 -0.42995644 -0.29218635 -0.21686305 -0.20366919 -0.26587877 -0.38869676 -0.21404807
-0.3120079 -0.4209995 -0.23802638 -0.27775395 -0.24434584 -0.1388235 -0.24624461 -0.21199942
-0.15991014 -0.23363985 -0.12094047 -0.22534719 -0.30857593 -0.27918088 -0.46012464 -0.23088737
-0.13799815 -0.4239018 -0.32417014 -0.22564381 -0.3650935 -0.3325501 -0.13452637 -0.26130977
-0.36655715 -0.31641752 -0.15504989 -0.43403772 -0.38480556 -0.24675682 -0.3762672 -0.1732845
-0.1847903 -0.31654024 -0.44209155 -0.18068239 -0.23182636 -0.23740166 -0.3695887 -0.5006088
-0.26785547 -0.26402974 -0.030449433 -0.249705 -0.22665928 -0.16740276 -0.40420592 -0.3505086
-0.30741006 -0.3005801 -0.29940996 -0.487775 -0.18641412 -0.23087318 -0.24125507 -0.18392853
-0.36108115 -0.14875561 -0.20605221 -0.2948916 -0.22684994 -0.38799593 -0.2513783 -0.10452748
-0.22182384 -0.21336617 -0.24938172 -0.3763201 -0.39976612 -0.36818492 -0.06641082 -0.12741268
-0.23773725 -0.13561861 -0.23700973 -0.09686642 -0.21669285 -0.33445653 -0.45822892 -0.28685308
-0.16952743 -0.18497995 -0.26771352 -0.37695536 -0.21118012 -0.2700686 -0.2659907 -0.2259629
-0.25199878 -0.21717003 -0.16302899 -0.27754363 -0.17260383 -0.13565485 -0.21429372 -0.26899764
-0.24678588 -0.37440744 -0.24902065 -0.4696554 -0.3046417 -0.25011694 -0.24551663 -0.23712075
-0.16159275 -0.16008455 -0.3282909 -0.1271074 -0.25731823 -0.1726749 -0.14412051 -0.28205943
-0.19344579 -0.36328447 -0.30059367 -0.17005768 -0.34336472 -0.277052 -0.16806465 -0.44848454
-0.31650478 -0.36554337 -0.15674023 -0.23686984 -0.10409086 -0.21713461 -0.2728346 -0.31135726
-0.15679562 -0.30031854 -0.32712078 -0.32269913 -0.31989658 -0.3666142 -0.3232015 -0.30655372
-0.25490305 -0.22693653 -0.28569126 -0.19293474 -0.20957097 -0.38725406 -0.23158902 -0.2840638
-0.15475512 -0.11640136 -0.3780385 -0.22919805 -0.19067642 -0.364872 -0.13527901 -0.23379393
-0.1972371 -0.22389115 -0.28110215 -0.33333504 -0.20736662 -0.2804421 -0.28549907 -0.32694146
-0.15975483 -0.34273702 -0.13034904 -0.37814915 -0.2838061 -0.14650448 -0.29241362 -0.32223824
-0.4530454 -0.070782304 -0.17057317 -0.210496 -0.22406729 -0.2967859 -0.1704578 -0.22463815
-0.28085357 -0.24446599 -0.34860694 -0.3257153 -0.36383814 -0.21855184 -0.23759903 -0.2705442
-0.31902295 -0.23624504 -0.28166386 -0.3287869 -0.25662994 -0.19057982 -0.113771215 -0.21430053
-0.35452455 -0.3105786 -0.25870425 -0.16240805 -0.28762832 -0.16284673 -0.11390119 -0.23285359
-0.37997055 -0.31833413 -0.27547878 -0.28266767 -0.3517079 -0.2281655 -0.33234656 -0.1828647
-0.23822127 -0.22739945 -0.21053374 -0.26774707 -0.13228291 -0.38912228 -0.36762086 -0.2677327
-0.5110521 -0.23422328 -0.27568018 -0.204738 -0.2345172 -0.26794213 -0.18448757 -0.28447813

fc2.weight f4 [192, 384]
00000000: fb7a 093d 962e 1bbc 4073 14be d84a 773d
00000010: 2257 fb3c 0bda 4ebd f9eb a9bd b985 03bd
00000020: 6ee6 32bb eb95 793d 4f73 f23c 0902 31bd
00000030: e37d efbc 8178 9dbd 5142 48bd 3e1b a4bd
00000040: 2c2b 4cbd b03a 16be 2c13 9d3d 8a19 2ebd
00000050: 9167 a4bd 15fa 233d 94da d6bc 7b6b 853d
00000060: 50a2 4c3d b9a5 69bd 498a 8fbc 8acd 93bb
00000070: 2cc6 d5bd ba94 32be a2f3 113d 3866 b037
00000080: 84d4 cfbc 3a08 49bd 4797 ccbd 2b6e 78bd
00000090: b13e dd3c 01a2 f6bd c4ad 8e3b 548e f83c
000000a0: 1d6d ed3d 396f 4abc 9142 91bc a37e ce3c
000000b0: 1f3f 8c3c 8fa1 94bd 447a 4e3d 4a76 033d
000000c0: e64c 8d3d 5071 e03c c3b5 d8bc fee7 2dbd
000000d0: 4caa afbd 2753 e73d 5b5e c0bc da4c ddbd
000000e0: 2526 18bd cabf afbc 1914 7abd 65a0 07bd
000000f0: 9395 f73c d431 823c 51d8 0b3c 1ab9 1e3b
00000100: e769 49bc cd0d 2b3e b790 573d cfb4 6fbd
00000110: a135 f5bc a3ca 24bd 16d2 1fbd 9f09 343c
00000120: e5c2 00bd c1ce 2dbd 76fd c9bb 06a4 76bc
00000130: 7c63 c5bb d8ff 863d 326c 8bbd 32b2 963c
00000140: 93cf f03b 110e 233d 130e 113d 7a19 aebd
00000150: b085 133d 6845 1ebd 023d 873d 9952 b83d
00000160: b5e6 3ebd f7c4 413d d89f 473d 9bc9 20bd
00000170: 0a7f 123b c043 c03d d8ee 3abc 2016 85bd
00000180: 2a79 babd 5d5d 663d 6b6f 963d a0f4 353d
00000190: a76b 33bd c0e8 f0bc bf99 aa3c c2d3 cebd
000001a0: 1399 6a3c c193 3e3c 6f40 8b3d d56e 423d
000001b0: e8af c73c 2a31 7bbe 8622 a2bd 1f85 92bd
000001c0: 5a97 f5bb 3aa8 aabd c90e 1b3e 93b5 373d
000001d0: 525a 37bd 563b c5ba cb2b 0ebd fcbe 2bbe
000001e0: 789c 64bd 7ab0 453e 48b0 59bd b7c1 c6bc
000001f0: e1b8 c8bd 1e15 a1bc a93a d7bd 1777 143b
00000200: 0407 8cbd 7f90 4fbd 0a3e 123b 5d00 52bd
00000210: 5d44 0ebe 7727 213d bfcd 583d 293b 893c
00000220: c242 80bc 403b 89bb 0ea0 7dbd 4927 fbbc
00000230: 97e8 8dbd 6f13 023e 6263 8bbd 308a b43c
00000240: bcd5 d6bc a775 023d de0f 92bd 135e 08bd
00000250: e05c 98bd 4fb1 623c 2480 4c3b 195e a8bd
00000260: cb05 bb3d 2fe5 a3b9 a625 a2bc e2fb f2bc
00000270: 0ea0 683c 20ef acbd eb35 173d a086 58bd
00000280: 043a 0dbd 16c0 233c b39c 7ebc ef7a 473d
00000290: d278 393c d444 1d3d cf11 183d 17c7 143e
000002a0: adc7 a3bb d733 13be f493 0cbd 54b3 d43b
000002b0: 0def fbbc 5643 a3bc 2140 88bd b549 9dbd
000002c0: 74ae b0bc 71a4 823d 93a6 b5bc c610 853c
000002d0: 706e 623e 6760 993d 1c2a dfbd b4b4 c53c
000002e0: 4626 cf3d baa5 993c 145b b2bd 2971 a13d
000002f0: bd56 c3bb 1b1c 9a3c 31ed c13d 12f8 4abc
00000300: 9038 02bd 6983 53bc 3426 72bd 67ea 91bc
00000310: 837b a8bc 065f 59bc 2532 11bd b7e3 2abd
00000320: 3631 45ba 2ea2 23bd da38 01bd ff0d c03b
00000330: a932 cabd 383d 21bd afe1 cdbd d831 68bd
00000340: 3707 443e d6a8 71bd 1e96 fabd e3a0 3f3d
00000350: b5b8 d2bd 34fa 043d 4837 edbc 1158 223c
00000360: de22 dabd b29a bcbd aae3 98bd 7ae0 88bd
00000370: bbd1 003e 7231 99bc 226e a1bd 60f2 1a3b
00000380: 24ed e9bc 72de 413d c58b 88bd 4362 ffbc
00000390: 40b7 86bd 734d 0a3c e7d1 17bd 4e42 b7bd
000003a0: c5c1 23bd 5eb1 b3bb 2df9 dbbd a56a 813d
000003b0: f179 63bd 277d 00bb f8a2 6b3e 0842 e33d
000003c0: 04a2 ca3d 9ef6 003d f9cb a9bc 6169 0b3d
000003d0: 47d8 7bbd eb6b 0e3d d2ca 55bd ac08 373c
000003e0: 757e 8ebd 00db a5bc ae31 d0bc 13c1 55bd
000003f0: 1463 c9bd 1de0 26bd 369e 5b3c 747f 63bc
0.03356455 -0.009471556 -0.1449709 0.06037411 0.030681197 -0.05050091 -0.08296961 -0.03210995
-0.0027297991 0.06093399 0.029595999 -0.04321483 -0.029234832 -0.07689 -0.04889137 -0.080130085
-0.04984586 -0.14670825 0.07669672 -0.042504825 -0.08027566 0.04003342 -0.026227273 0.06514641
0.04995948 -0.05704281 -0.017521994 -0.004510586 -0.10438189 -0.17439547 0.035632737 2.1028434e-05
-0.02536989 -0.04908011 -0.09989791 -0.06065194 0.027007433 -0.120426185 0.0043542106 0.030341305
0.11593077 -0.012355619 -0.017731937 0.02520687 0.017119942 -0.07257377 0.05040957 0.03209523
0.06899433 0.027397782 -0.026453858 -0.042457573 -0.085774034 0.11295157 -0.023482492 -0.10805674
-0.037145752 -0.021453757 -0.061054323 -0.03311195 0.03022269 0.0158929 0.008535461 0.0024219216
-0.0122933155 0.16704483 0.052628245 -0.058522042 -0.029932799 -0.040232312 -0.039018713 0.010988622
-0.031435866 -0.042433504 -0.006164248 -0.015053755 -0.0060238224 0.06591767 -0.06807746 0.018395517
0.0073489635 0.039808337 0.035413813 -0.08500953 0.036016166 -0.03864041 0.06603433 0.09000129
-0.046606738 0.04730698 0.048736423 -0.039254766 0.0022353553 0.09387922 -0.011409484 -0.06498361
-0.091051415 0.056241382 0.0734547 0.044422746 -0.043803837 -0.029407859 0.020825265 -0.10098983
0.014318722 0.011631907 0.06799399 0.04746898 0.02437587 -0.24530473 -0.07916741 -0.07154297
-0.007494849 -0.08332868 0.15142359 0.044850897 -0.04476387 -0.0015047591 -0.034709733 -0.16772074
-0.055813283 0.19305602 -0.05314663 -0.024262292 -0.09800888 -0.01966339 -0.105092354 0.002265399
-0.068372756 -0.05067491 0.002231481 -0.051269878 -0.13893266 0.039344277 0.05293059 0.016751843
-0.015656833 -0.0041879714 -0.06192022 -0.030658381 -0.069291286 0.12702726 -0.06806065 0.02203855
-0.026224963 0.031850483 -0.07131933 -0.03329284 -0.074395895 0.013836219 0.0031204307 -0.08221073
0.09131964 -0.00031260538 -0.019793343 -0.029661123 0.014198316 -0.08444047 0.036916655 -0.052862763
-0.034479156 0.009994527 -0.01554029 0.048701223 0.01132031 0.038395718 0.03712636 0.14529072
-0.0049981684 -0.14375244 -0.034320787 0.006491104 -0.030753637 -0.01992957 -0.066528566 -0.07680074
-0.02156756 0.06379021 -0.022174155 0.01624335 0.22112441 0.074890904 -0.108967036 0.024134018
0.10114722 0.018755782 -0.08708778 0.07882912 -0.0059612677 0.01881223 0.09469069 -0.012388246
-0.031792223 -0.012909749 -0.059118465 -0.017811967 -0.020566707 -0.013267284 -0.035448212 -0.041721072
-0.00075222866 -0.03994959 -0.03154836 0.0058610435 -0.09872944 -0.039365023 -0.10052811 -0.05668816
0.19143377 -0.058998905 -0.12235664 0.046784293 -0.10289136 0.032465175 -0.028957024 0.009908692
-0.10651182 -0.09209193 -0.074652985 -0.066834405 0.12580006 -0.018700335 -0.07882334 0.0023643002
-0.02855546 0.04733128 -0.06667284 -0.031174785 -0.06577921 0.008441317 -0.037065413 -0.089481935
-0.039979715 -0.0054837903 -0.10740886 0.06319169 -0.055536214 -0.0019605847 0.23011386 0.11096579
0.09894183 0.031485192 -0.020727145 0.034036044 -0.061485555 0.034770887 -0.052195378 0.011171501
-0.069577135 -0.020246029 -0.025414314 -0.052186083 -0.09833351 -0.040741075 0.01340442 -0.013885368

fc2.bias f4 [192]
00000000: b41b 0b3d 2b72 9f3d 3ad1 8f3a 0a8b 253e
00000010: d793 3d3d 9aa8 383e d400 1a3e fce2 acbd
00000020: 1975 823d 5249 9e3d 0b1d 9b3c 7a04 863d
00000030: a595 abbd c45e 393e 454a d03d 0279 4f3e
00000040: 64be d53d 6df6 1a3b 6fb3 093f 1094 da3d
00000050: 4a91 d33c a8b2 6b3e 4fb3 be3e f5c4 c83d
00000060: 0e4e cb3d 5327 77bd b017 16be b747 51bd
00000070: ad2f 353e 1944 cdbc 836d 003e d0de 933d
00000080: 4fb3 713e 0822 9bbd 6759 35bc 7f0a aabc
00000090: a5d0 163f b536 2a3e c00b 8e3e afb7 11bd
000000a0: 3416 c23e 0194 ddbb a982 803c 6bf9 2d3e
000000b0: 7daa a3bd 87ed f1bc 469c 37bd 9456 5a3d
000000c0: 76a7 313e c978 6f3e 2d8f dc3e ff3d 2ebd
000000d0: 29cf e33d 0073 073e c62d e1bd 860f db3d
000000e0: c407 853d 4dc2 4b3e 2871 2f3d b069 103e
000000f0: b767 b3bc 492c 12be 693b 243e 0ca8 513e
00000100: 595d 1e3e b77e 673e 9618 b93b b2e3 0c3d
00000110: 35ad 183e e603 1c3f 8aa2 e53d f14a 973d
00000120: 7d5f 9f3d 6d6e 11bc 64cd 07bc c4f1 ce3d
00000130: 3945 ea3e 57ee dc3d 8e75 e83d df95 b43e
00000140: 4c13 a13c 0952 673d bc76 693c c6a7 913e
00000150: 687a 8abd 7f04 6c3e 09c3 c13d bbc4 573e
00000160: eb31 a73d 2e27 0e3e 9174 eb3e 73de 363e
00000170: a602 0cbe 06f6 a33d 52ce 9bbd 2ff5 a73e
00000180: 6672 f8bd 0162 e33d 9589 b9bd 685a 1a3e
00000190: a4a1 c33d 1486 a3bb 79b2 d3bc 2e9c 6fbd
000001a0: bbae dd3d 74b4 39bd 3ae6 53bd e4c2 183d
000001b0: b79b 1b3e 16b3 2cbd 7d97 443e 105f 1c3e
000001c0: 18d8 37bd c3dd 10be 1b47 a73e 81b7 183e
000001d0: 3501 973e 81b2 043e 6e4a 583e bedf 04bc
000001e0: 0399 5b3e c9ab 06bd 925c a83e 84c3 edbc
000001f0: 7166 6b3e 52ce d83d 4dd0 1a3e f004 d13d
00000200: 982c b53e 0866 aa3c 9176 013d db65 a73d
00000210: 293e dcbd 3ab2 573e 1a59 143d 7e03 203d
00000220: eba9 933d e6b2 1ebe b474 843e d827 393e
00000230: 2855 9dbe b8da 8dbc 330e 863d 50fc b43c
00000240: 169d f53d d4e2 c83d e977 ac3e bf06 c53d
00000250: 41fa fa3d e933 db3d c607 c93d 2b0a c53e
00000260: f1cd 5d3a 03e0 d63e b1b8 39be 8fb8 993d
00000270: d620 60bd bace 3cbd 3c00 313e eba1 08be
00000280: 30f0 0a3d 0e67 9dbd 2226 d2bc 59c3 2d3e
00000290: 5eea 48be c1f4 263e 0f40 eb3c cc28 4a3c
000002a0: 93ee 2b3e 446d 223e 684c bf3d 3c85 d7bd
000002b0: 3914 063e add4 f33d 17b5 633e 6a07 5e3e
000002c0: 669e 943e a1ca 65bd a668 40be 39d4 4f3e
000002d0: f89d a73e 7545 cd3d 0b78 4b3e a9d4 023d
000002e0: e6d5 653b 852b 67bc 3c04 0e3d 28af 113f
000002f0: 2257 453d 2d14 8fbd 638d 1e3b 1a81 873d
0.033961967 0.07785448 0.0010972389 0.1616632 0.04628357 0.18033066 0.15039378 -0.08441731
0.06369991 0.077288285 0.018934747 0.065438226 -0.08378152 0.18102556 0.10170416 0.20261005
0.10436705 0.0023645416 0.5378942 0.10672772 0.025826115 0.2301737 0.37246177 0.098031916
0.09926997 -0.060340237 -0.14657474 -0.051093783 0.17693968 -0.025056886 0.12541775 0.072202325
0.23603557 -0.0757485 -0.011068678 -0.020756958 0.58912116 0.16622432 0.2774334 -0.035575565
0.37907565 -0.006762028 0.015687304 0.16989677 -0.079915024 -0.029532207 -0.04482677 0.053305224
0.17349038 0.2338592 0.43077984 -0.042539593 0.11123497 0.13227463 -0.10995059 0.1069632
0.06495622 0.19898339 0.042832524 0.14102817 -0.021900041 -0.14274706 0.16038288 0.20474261
0.15465297 0.22606932 0.005648683 0.034396835 0.14909823 0.6094345 0.112126425 0.07387341
0.07781885 -0.008876425 -0.008288715 0.10104707 0.45755938 0.10787647 0.11350547 0.35270593
0.019662522 0.05647472 0.0142495 0.28448313 -0.067616284 0.2304859 0.09461028 0.2107114
0.08163818 0.13882133 0.4598737 0.17858295 -0.13672885 0.080059096 -0.07607712 0.32804248
-0.12131195 0.11102677 -0.09059445 0.1507355 0.09552315 -0.0049903486 -0.025841938 -0.058498554
0.10824343 -0.04533811 -0.051733233 0.037295237 0.15196119 -0.042162977 0.19198413 0.15270638
-0.044883817 -0.14147095 0.32671437 0.14913751 0.29493108 0.12958719 0.21122143 -0.008109985
0.21445088 -0.03287867 0.32883126 -0.029023893 0.22988297 0.105862275 0.15118523 0.1020602
0.35385585 0.020800605 0.031607214 0.08173724 -0.107540436 0.21064082 0.036217786 0.03906583
0.07210144 -0.15497932 0.25870287 0.18081605 -0.30729032 -0.017316207 0.06545677 0.022092968
0.119928524 0.09808889 0.33685234 0.09620427 0.122547634 0.107032605 0.09815936 0.3848432
0.00084611686 0.41967782 -0.1813686 0.07505905 -0.054718815 -0.046095587 0.17285246 -0.13343017
0.033920467 -0.07685672 -0.025652949 0.1696905 -0.19620654 0.16304304 0.028717069 0.012338828
0.16790228 0.15861994 0.09340745 -0.10523459 0.13093652 0.11905799 0.22237049 0.21682516
0.29027098 -0.056101445 -0.1878992 0.202958 0.32737708 0.100230135 0.19870012 0.03194109
0.003507012 -0.014109497 0.034672007 0.5690789 0.0481788 -0.0698627 0.002419316 0.06616421
