practica 7-2/practica-7-cifar-y-redes-convolucionales-Jhonylaz/CIFAR_50.pth (torch, 585919 bytes, 18 tensors)

conv1.weight f4 [64, 3, 5, 5]
00000000: 67b6 e4be 456a e0be 7cdf b7be 7be5 cbbe
00000010: 4eb6 d9be 05e1 f6be d1b1 d9be 2555 02bf
00000020: 4e4d b7be 156a acbe 23c6 0bbf d0b4 28bf
00000030: 957b 1fbf 0866 ccbe 817b 08bf 6a71 0ebf
00000040: ee4f 1cbf d8a9 febe 562f efbe 14a2 04bf
00000050: f02e e4be 6a1e b5be 52f8 ecbe 7489 dfbe
00000060: ba0d 96be 76ff 83bd 19f7 e03d 684e f2bd
00000070: e5d4 41bc e9b2 2c3d d175 4abd 30e6 523d
00000080: 882e f03d 3236 debc 545c 7d3d 371f 723d
00000090: f83d 253e c565 083e 28e8 a13c ff55 eb3d
000000a0: c4ba 963d 7e01 603e 2142 863d 2351 463d
000000b0: 0637 63bd 4ace 0a3e 20a8 1e3e ab02 1a3d
000000c0: a135 163d 50cf f1bc 1663 6c3e ef71 a63e
000000d0: d602 923e 4bb8 6d3d 038e ec3d d171 a13e
000000e0: 11a6 b73e 4b9b d43e 9906 6d3e f383 763b
000000f0: 40b8 943e 51a4 da3e 5557 c33e 7064 903e
00000100: 3c76 7a3e edab bc3e 203b 013f 0643 ba3e
00000110: 27fd a03e 4e61 5b3e 2cb8 143e fbdb ad3e
00000120: 522e 4c3e f03e 8d3e 41b0 053e 6068 493e
00000130: 4600 00bd c5f9 293c 4a48 f23d 7c65 a13e
00000140: 265f 7e3e d67c b83d 4e2c 7d3e a040 5e3e
00000150: d65c e93e ff0a 803e ce46 46bd b5a3 49bc
00000160: dc50 853d d5b1 3a3e db6c 14bd 79f1 3cbe
00000170: 80fe 293e af30 a63c 5b98 99bd 47c2 25bd
00000180: 6ad7 cb3c 051e bf3e ef17 7c3e c318 9cbd
00000190: bb48 d5bd 5020 afbe c0d4 a7be 01d3 78be
000001a0: 2868 d9bd a46a dabd 1f53 90be 75f9 7ebd
000001b0: 7c4d d5bd bbf5 3bbe c679 41be 5869 a0be
000001c0: 466c 8cbe 25f2 aabe f09e c1be 50d7 9dbe
000001d0: 61ca a4be a811 abbd e92b 073c ecc1 11bf
000001e0: e41a 4abe 7784 fbbd 3c17 153f 43fc a33e
000001f0: 5506 9abd d260 30bd 0419 a5bd 794f c1bd
00000200: 5082 6bbe 89e6 5ebe b0bb ecbd d6bf 8dbd
00000210: 51c2 1bbe 14e4 46bd caa0 b1be f05b 24be
00000220: 984b a4be a977 84be b319 8bbe edb2 fdbe
00000230: 674d 04be 2199 8fbe af79 083d 372b 633b
00000240: c06b 00bf 1eec 6abe b90a a9bd 21a9 cf3e
00000250: 4ecf ac3e 7800 2ebe 5ed7 593f 9a2a b23e
00000260: 7e6f 29be 0cd8 1abe a690 7ebe 1b37 933e
00000270: 6fc7 dc3e d057 163f 5634 d13d 6059 afbe
00000280: defe aebe 10a6 b43e a5df 333f f836 5e3f
00000290: b4af ec3d 3c1e 2bbf 4d4c 9dbd fe37 3f3d
000002a0: 5817 0e3f dd88 993f 0137 4abe 3a50 93be
000002b0: 1311 57bf 3a32 85bf 07b7 98be eed2 233f
000002c0: 8f06 0239 f795 3bbe 9ff5 e3be cbb2 efbe
000002d0: ad33 773e f3dc 113e 4464 343e eb15 1fbe
000002e0: 3080 4ebf 3925 9bbe 025b ea3d a146 113f
000002f0: ee26 233f 4625 a33d 71c5 fcbe 43a5 2fbe
00000300: 4b36 37be aba7 ee3e c609 9b3f 494c c23c
00000310: 0c55 abbd 2acb 48bf 7dfe 6fbf 2aa6 b73c
00000320: bcbb 1f3f 88cb 8e3d b331 23be 2db9 eebe
00000330: 27f1 c8be 702a 9b3e e97d 1a3e 2efd 773e
00000340: 27ef febe fd3d 37bf 7caa b3be 6eda 01bc
00000350: 0b84 513c 153f 9b3e 9ce3 d1bd 02f2 c1be
00000360: 534e a4be 2f2f 0fbf 7a41 2c3d 4523 5a3f
00000370: 4d86 8a3e b5ee 95bd 1287 3cbf 65d2 72bf
00000380: 2750 5ebe 7e31 e03c a44f 863d 63ca 233e
00000390: c3e4 433e ed9a 473e 4114 49bf 830a 7abf
000003a0: 686d 5bbf b817 0ebf b1ce a2be 882d 013f
000003b0: c7e4 7c3f f19d 9c3f a480 823f 97f1 5d3e
000003c0: cc18 b03e 030a ed3e 899f b73d fb80 94be
000003d0: 7fcd c7be dc4c f6be 0d59 52bf ec88 93bf
000003e0: e1ee acbe e5bb 7bbe 9577 3b3e 60aa f83e
000003f0: 94ac d83e 536d c33e 9920 21bc 280c 2dbf
-0.44670412 -0.43831077 -0.35912693 -0.39823517 -0.425219 -0.4821855 -0.42518476 -0.5091117
-0.35801166 -0.33674684 -0.5459921 -0.659009 -0.62297946 -0.39921594 -0.5331345 -0.55641806
-0.61059463 -0.49738955 -0.46715802 -0.5180981 -0.4456706 -0.35374767 -0.46283203 -0.43659556
-0.29307348 -0.0644521 0.1098463 -0.11831361 -0.011830543 0.04216281 -0.049428765 0.051489055
0.11727625 -0.027125452 0.06185563 0.0591118 0.1613692 0.13320072 0.019764021 0.11491012
0.073598415 0.21875569 0.06555582 0.04841722 -0.055472396 0.13555256 0.15493822 0.0376002
0.03667224 -0.0295178 0.23084673 0.325088 0.2851779 0.058037084 0.11550524 0.31532148
0.35868886 0.4152473 0.23147048 0.003761527 0.29046822 0.42703488 0.38152567 0.28201628
0.24459165 0.3684992 0.5048084 0.3637926 0.3144314 0.21423838 0.14523381 0.33956894
0.19939545 0.2758708 0.13055517 0.19668722 -0.03125026 0.010374491 0.11830194 0.3152274
0.24840984 0.090081856 0.24723932 0.2170434 0.4557864 0.2500839 -0.04840737 -0.012307097
0.06509563 0.182319 -0.036236625 -0.1845149 0.1660099 0.020286886 -0.074997626 -0.04046848
0.02488299 0.3732759 0.24618505 -0.076219104 -0.10414263 -0.3420434 -0.32779503 -0.24299242
-0.10615569 -0.10664871 -0.28188416 -0.06224962 -0.104151696 -0.18355457 -0.18894109 -0.3133037
-0.27426356 -0.33387867 -0.37816572 -0.30828333 -0.32185653 -0.08352977 0.008250215 -0.56936526
-0.1973682 -0.12281125 0.5823858 0.32028398 -0.07520739 -0.043061085 -0.08061412 -0.09438986
-0.22998929 -0.2176763 -0.11559236 -0.069213554 -0.15210845 -0.048557356 -0.34692985 -0.16050696
-0.32088923 -0.25872543 -0.27168044 -0.49550572 -0.12920152 -0.28046516 0.03331917 0.003466321
-0.50164413 -0.22941634 -0.08253998 0.40558723 0.3375191 -0.16992366 0.8509425 0.34798127
-0.16546437 -0.15121478 -0.24859866 0.2875298 0.43120906 0.5872774 0.102150604 -0.34247875
-0.34178823 0.35282946 0.7026313 0.86802626 0.1155695 -0.6684301 -0.07680569 0.046684258
0.5550437 1.1994892 -0.19747545 -0.28772146 -0.8401043 -1.0405953 -0.2982714 0.6399373
0.0001240021 -0.18318926 -0.44523332 -0.46816096 0.24140806 0.14244442 0.17616373 -0.15535705
-0.8066435 -0.30301836 0.114431396 0.56748396 0.63731277 0.07966094 -0.49369386 -0.17152886
-0.17891805 0.46612296 1.2112358 0.023718016 -0.08365831 -0.78435004 -0.93747693 0.0224181
0.62395835 0.06972414 -0.15936927 -0.46625653 -0.39246485 0.30305815 0.15087093 0.24217674
-0.49791834 -0.7157896 -0.35091007 -0.007925613 0.012787829 0.30321565 -0.10248491 -0.3787995
-0.32091007 -0.5593137 0.04205463 0.8521007 0.27055588 -0.073209204 -0.736436 -0.94852287
-0.21710263 0.02736735 0.06558159 0.15995173 0.19130234 0.19492693 -0.7854653 -0.9767229
-0.85713816 -0.5550494 -0.31798318 0.504601 0.98786587 1.22357 1.0195508 0.2167419
0.3439392 0.462967 0.08965976 -0.29004654 -0.3902397 -0.48105514 -0.8216713 -1.152616
-0.33776 -0.24583395 0.18307336 0.48567486 0.42319167 0.38169345 -0.009834432 -0.67596674

conv1.bias f4 [64]
00000000: 5710 003e d241 303f 180a 90bd e54a 1a3e
00000010: aa24 6fbf 9fc0 e43e 0f3e 9a3f d789 09bf
00000020: 1231 4ebd 98dd c3bf 34a9 c9be a985 92bf
00000030: 18b1 a1bf 02a7 a73f 7d4b 13c0 d0eb f6be
00000040: 7055 4bc0 6332 fcbf 08f3 a63e 378b c1be
00000050: d769 99be 5050 1c3f 165b 393d be09 e8be
00000060: 0965 a43e 70dd 643f baac c23d 508d bd3e
00000070: eaaa 94bd be6f 9fbf 10f0 7ebe 1b0e 5a3e
00000080: 11b0 c03f f99e d63c e89e 52be 2306 86be
00000090: 005a 043f 3d8a cd3c 2a03 32be 484a 123f
000000a0: a38b 753f 48ef c63f 5d85 233d a65b 2a3c
000000b0: c09d 6cbe 691b 943b 3395 3abd 3490 5fbf
000000c0: 4411 0040 cea9 4eb9 fe4f adbf ca72 87bf
000000d0: bf0d cc3b d00c 0bbd 1048 433e 616e e93e
000000e0: 7326 bb3e dddb 813e 8c96 b5bd e9e1 d9be
000000f0: 85fc 82c0 42cd 79bd f7b6 a0bf e0a1 c2bf
0.12506233 0.68850434 -0.07033175 0.15067632 -0.9341532 0.44678208 1.2050189 -0.5372595
-0.050339766 -1.5302 -0.39386904 -1.144704 -1.263217 1.3097842 -2.3014824 -0.48226786
-3.1770897 -1.9702877 0.32607293 -0.37801525 -0.29963562 0.6106005 0.045252882 -0.45319933
0.32108334 0.89400387 0.09505601 0.37021875 -0.07259162 -1.2455976 -0.24896264 0.21294443
1.5053731 0.026198851 -0.2056843 -0.26176557 0.5169983 0.025090331 -0.1738402 0.57144594
0.95916194 1.5541773 0.039922107 0.010397827 -0.23107052 0.004519869 -0.045552444 -0.8732941
2.0010538 -0.00019708948 -1.3540037 -1.0581906 0.0062272246 -0.033947766 0.19070458 0.45592025
0.36552772 0.25363055 -0.08866605 -0.42555168 -4.093325 -0.060986765 -1.2555836 -1.520565

norm1.weight f4 [64]
00000000: 0000 803f 0000 803f 0000 803f 0000 803f
00000010: 0000 803f 0000 803f 0000 803f 0000 803f
00000020: 0000 803f 0000 803f 0000 803f 0000 803f
00000030: 0000 803f 0000 803f 0000 803f 0000 803f
00000040: 0000 803f 0000 803f 0000 803f 0000 803f
00000050: 0000 803f 0000 803f 0000 803f 0000 803f
00000060: 0000 803f 0000 803f 0000 803f 0000 803f
00000070: 0000 803f 0000 803f 0000 803f 0000 803f
00000080: 0000 803f 0000 803f 0000 803f 0000 803f
00000090: 0000 803f 0000 803f 0000 803f 0000 803f
000000a0: 0000 803f 0000 803f 0000 803f 0000 803f
000000b0: 0000 803f 0000 803f 0000 803f 0000 803f
000000c0: 0000 803f 0000 803f 0000 803f 0000 803f
000000d0: 0000 803f 0000 803f 0000 803f 0000 803f
000000e0: 0000 803f 0000 803f 0000 803f 0000 803f
000000f0: 0000 803f 0000 803f 0000 803f 0000 803f
1.0 1.0 1.0 1.0 1.0 1.0 1.0 1.0
1.0 1.0 1.0 1.0 1.0 1.0 1.0 1.0
1.0 1.0 1.0 1.0 1.0 1.0 1.0 1.0
1.0 1.0 1.0 1.0 1.0 1.0 1.0 1.0
1.0 1.0 1.0 1.0 1.0 1.0 1.0 1.0
1.0 1.0 1.0 1.0 1.0 1.0 1.0 1.0
1.0 1.0 1.0 1.0 1.0 1.0 1.0 1.0
1.0 1.0 1.0 1.0 1.0 1.0 1.0 1.0

norm1.bias f4 [64]
00000000: 0000 0000 0000 0000 0000 0000 0000 0000
00000010: 0000 0000 0000 0000 0000 0000 0000 0000
00000020: 0000 0000 0000 0000 0000 0000 0000 0000
00000030: 0000 0000 0000 0000 0000 0000 0000 0000
00000040: 0000 0000 0000 0000 0000 0000 0000 0000
00000050: 0000 0000 0000 0000 0000 0000 0000 0000
00000060: 0000 0000 0000 0000 0000 0000 0000 0000
00000070: 0000 0000 0000 0000 0000 0000 0000 0000
00000080: 0000 0000 0000 0000 0000 0000 0000 0000
00000090: 0000 0000 0000 0000 0000 0000 0000 0000
000000a0: 0000 0000 0000 0000 0000 0000 0000 0000
000000b0: 0000 0000 0000 0000 0000 0000 0000 0000
000000c0: 0000 0000 0000 0000 0000 0000 0000 0000
000000d0: 0000 0000 0000 0000 0000 0000 0000 0000
000000e0: 0000 0000 0000 0000 0000 0000 0000 0000
000000f0: 0000 0000 0000 0000 0000 0000 0000 0000
0.0 0.0 0.0 0.0 0.0 0.0 0.0 0.0
0.0 0.0 0.0 0.0 0.0 0.0 0.0 0.0
0.0 0.0 0.0 0.0 0.0 0.0 0.0 0.0
0.0 0.0 0.0 0.0 0.0 0.0 0.0 0.0
0.0 0.0 0.0 0.0 0.0 0.0 0.0 0.0
0.0 0.0 0.0 0.0 0.0 0.0 0.0 0.0
0.0 0.0 0.0 0.0 0.0 0.0 0.0 0.0
0.0 0.0 0.0 0.0 0.0 0.0 0.0 0.0

norm1.running_mean f4 [64]
00000000: 0000 0000 0000 0000 0000 0000 0000 0000
00000010: 0000 0000 0000 0000 0000 0000 0000 0000
00000020: 0000 0000 0000 0000 0000 0000 0000 0000
00000030: 0000 0000 0000 0000 0000 0000 0000 0000
00000040: 0000 0000 0000 0000 0000 0000 0000 0000
00000050: 0000 0000 0000 0000 0000 0000 0000 0000
00000060: 0000 0000 0000 0000 0000 0000 0000 0000
00000070: 0000 0000 0000 0000 0000 0000 0000 0000
00000080: 0000 0000 0000 0000 0000 0000 0000 0000
00000090: 0000 0000 0000 0000 0000 0000 0000 0000
000000a0: 0000 0000 0000 0000 0000 0000 0000 0000
000000b0: 0000 0000 0000 0000 0000 0000 0000 0000
000000c0: 0000 0000 0000 0000 0000 0000 0000 0000
000000d0: 0000 0000 0000 0000 0000 0000 0000 0000
000000e0: 0000 0000 0000 0000 0000 0000 0000 0000
000000f0: 0000 0000 0000 0000 0000 0000 0000 0000
0.0 0.0 0.0 0.0 0.0 0.0 0.0 0.0
0.0 0.0 0.0 0.0 0.0 0.0 0.0 0.0
0.0 0.0 0.0 0.0 0.0 0.0 0.0 0.0
0.0 0.0 0.0 0.0 0.0 0.0 0.0 0.0
0.0 0.0 0.0 0.0 0.0 0.0 0.0 0.0
0.0 0.0 0.0 0.0 0.0 0.0 0.0 0.0
0.0 0.0 0.0 0.0 0.0 0.0 0.0 0.0
0.0 0.0 0.0 0.0 0.0 0.0 0.0 0.0

norm1.running_var f4 [64]
00000000: 0000 803f 0000 803f 0000 803f 0000 803f
00000010: 0000 803f 0000 803f 0000 803f 0000 803f
00000020: 0000 803f 0000 803f 0000 803f 0000 803f
00000030: 0000 803f 0000 803f 0000 803f 0000 803f
00000040: 0000 803f 0000 803f 0000 803f 0000 803f
00000050: 0000 803f 0000 803f 0000 803f 0000 803f
00000060: 0000 803f 0000 803f 0000 803f 0000 803f
00000070: 0000 803f 0000 803f 0000 803f 0000 803f
00000080: 0000 803f 0000 803f 0000 803f 0000 803f
00000090: 0000 803f 0000 803f 0000 803f 0000 803f
000000a0: 0000 803f 0000 803f 0000 803f 0000 803f
000000b0: 0000 803f 0000 803f 0000 803f 0000 803f
000000c0: 0000 803f 0000 803f 0000 803f 0000 803f
000000d0: 0000 803f 0000 803f 0000 803f 0000 803f
000000e0: 0000 803f 0000 803f 0000 803f 0000 803f
000000f0: 0000 803f 0000 803f 0000 803f 0000 803f
1.0 1.0 1.0 1.0 1.0 1.0 1.0 1.0
1.0 1.0 1.0 1.0 1.0 1.0 1.0 1.0
1.0 1.0 1.0 1.0 1.0 1.0 1.0 1.0
1.0 1.0 1.0 1.0 1.0 1.0 1.0 1.0
1.0 1.0 1.0 1.0 1.0 1.0 1.0 1.0
1.0 1.0 1.0 1.0 1.0 1.0 1.0 1.0
1.0 1.0 1.0 1.0 1.0 1.0 1.0 1.0
1.0 1.0 1.0 1.0 1.0 1.0 1.0 1.0

norm2.weight f4 [32]
00000000: 0000 803f 0000 803f 0000 803f 0000 803f
00000010: 0000 803f 0000 803f 0000 803f 0000 803f
00000020: 0000 803f 0000 803f 0000 803f 0000 803f
00000030: 0000 803f 0000 803f 0000 803f 0000 803f
00000040: 0000 803f 0000 803f 0000 803f 0000 803f
00000050: 0000 803f 0000 803f 0000 803f 0000 803f
00000060: 0000 803f 0000 803f 0000 803f 0000 803f
00000070: 0000 803f 0000 803f 0000 803f 0000 803f
1.0 1.0 1.0 1.0 1.0 1.0 1.0 1.0
1.0 1.0 1.0 1.0 1.0 1.0 1.0 1.0
1.0 1.0 1.0 1.0 1.0 1.0 1.0 1.0
1.0 1.0 1.0 1.0 1.0 1.0 1.0 1.0

norm2.bias f4 [32]
00000000: 0000 0000 0000 0000 0000 0000 0000 0000
00000010: 0000 0000 0000 0000 0000 0000 0000 0000
00000020: 0000 0000 0000 0000 0000 0000 0000 0000
00000030: 0000 0000 0000 0000 0000 0000 0000 0000
00000040: 0000 0000 0000 0000 0000 0000 0000 0000
00000050: 0000 0000 0000 0000 0000 0000 0000 0000
00000060: 0000 0000 0000 0000 0000 0000 0000 0000
00000070: 0000 0000 0000 0000 0000 0000 0000 0000
0.0 0.0 0.0 0.0 0.0 0.0 0.0 0.0
0.0 0.0 0.0 0.0 0.0 0.0 0.0 0.0
0.0 0.0 0.0 0.0 0.0 0.0 0.0 0.0
0.0 0.0 0.0 0.0 0.0 0.0 0.0 0.0

norm2.running_mean f4 [32]
00000000: 0000 0000 0000 0000 0000 0000 0000 0000
00000010: 0000 0000 0000 0000 0000 0000 0000 0000
00000020: 0000 0000 0000 0000 0000 0000 0000 0000
00000030: 0000 0000 0000 0000 0000 0000 0000 0000
00000040: 0000 0000 0000 0000 0000 0000 0000 0000
00000050: 0000 0000 0000 0000 0000 0000 0000 0000
00000060: 0000 0000 0000 0000 0000 0000 0000 0000
00000070: 0000 0000 0000 0000 0000 0000 0000 0000
0.0 0.0 0.0 0.0 0.0 0.0 0.0 0.0
0.0 0.0 0.0 0.0 0.0 0.0 0.0 0.0
0.0 0.0 0.0 0.0 0.0 0.0 0.0 0.0
0.0 0.0 0.0 0.0 0.0 0.0 0.0 0.0

norm2.running_var f4 [32]
00000000: 0000 803f 0000 803f 0000 803f 0000 803f
00000010: 0000 803f 0000 803f 0000 803f 0000 803f
00000020: 0000 803f 0000 803f 0000 803f 0000 803f
00000030: 0000 803f 0000 803f 0000 803f 0000 803f
00000040: 0000 803f 0000 803f 0000 803f 0000 803f
00000050: 0000 803f 0000 803f 0000 803f 0000 803f
00000060: 0000 803f 0000 803f 0000 803f 0000 803f
00000070: 0000 803f 0000 803f 0000 803f 0000 803f
1.0 1.0 1.0 1.0 1.0 1.0 1.0 1.0
1.0 1.0 1.0 1.0 1.0 1.0 1.0 1.0
1.0 1.0 1.0 1.0 1.0 1.0 1.0 1.0
1.0 1.0 1.0 1.0 1.0 1.0 1.0 1.0

conv2.weight f4 [32, 64, 5, 5]
00000000: 16a9 08be 0529 9c3d 97cf 89bd 123d 34be
00000010: fc50 45bd 37a4 cbbd 05ec 2b3e 1283 7a3d
00000020: 66b1 f1bd 25b7 c9bc 23f2 2abc 5bb0 143e
00000030: 83fe 6b3d 182b 923c 3330 193b 7494 463d
00000040: a87b 683e 70db 153e 8d30 133e 9f05 e23d
00000050: 6089 a83d 4e4c ce3d 2334 293e cd96 823e
00000060: f400 7d3e 9083 c8bd b682 93bd 5023 8f3d
00000070: 94c1 3e3d b271 f03b 2c3f fdbd 06b8 14bb
00000080: 03c2 d23d 2f52 e33c 2db2 ab3d 9083 d2bd
00000090: df63 2dbb 9cfa e63c 08db 9cbd fa36 b2bd
000000a0: a941 bcbc 4c08 9a3d 691e 173e 260a 093e
000000b0: f942 163e 976a 313e ac8d 3bbd f485 17be
000000c0: a84a c2bd 86e4 b43d e32d d83c 4839 ad3d
000000d0: 402d 32bb 4bdf 023d a1a2 97be 8ff7 9f3c
000000e0: 0fd4 7f3c d3f3 c73d 8b55 c23e f278 283b
000000f0: 10af 683c 633f 1fbe 74fd 03be e07f 35be
00000100: ab4e 09be 0a45 ecbd c011 dbbd 1715 abbe
00000110: 28b5 aebd 0074 f0bd 14a2 353f 09d9 ee3e
00000120: b2d9 c53d 34d6 ab3d 24f8 b8bd 44cd 51be
00000130: b9bc 7fbe 16dd 48be ccaa f03d c026 003d
00000140: 3f41 e3bc 3701 03be 06e6 f7be 2df0 033e
00000150: 3078 573e ab2b 0d3e 9ec7 8e3d d2bc 833e
00000160: 5bb6 bcbe 6e74 c2bc 1e2d b6bd 7dab bdbc
00000170: 6825 07be 20ee e5be 056b 163e 1be0 363f
00000180: 5849 483e 0996 ea3e 8c6e b13e c804 0a3f
00000190: eaa5 d23d 9dba dc3d ad3c 3b3d 4d81 743d
000001a0: fb4d 003e 77f0 04be b5dd 07bd 9cca 89be
000001b0: 947b 20be eb0f ffbd 022c 6d3d c1e8 023d
000001c0: 7baa 9ebd efd5 34bd b315 12be 1663 9f3c
000001d0: 9231 0a3d 7c16 f13d 46d4 433c 3aad 24be
000001e0: eeff 04be 5205 63bd 63bc a5bd b49f 29be
000001f0: b8ce a3be 83c7 b53d 4288 35be b4d8 033d
00000200: a8a6 503e df7a 34bd a857 153e 655e 83bd
00000210: 2502 b33e d8ec b43e 6d60 ac3e 382f 00be
00000220: 482c 20be 3f6d b6bc 26e0 ae3d d435 74be
00000230: 8b4b 12bf 042e 92be 8a8a 1d3e f092 95be
00000240: 448b 03bf 0fcd 47bd 7be9 d3be b106 8dbe
00000250: ec13 b3be 4e64 9dbd 1a7d 9fbd bee4 03bd
00000260: 9f0e 24bc e52f 883d c3d4 0ebd 1fb6 01bb
00000270: d217 e13c 0d4b 9b3d bcae 333d a23d e03c
00000280: 05a0 9c3a 0040 ab3d dabb fd3d 809a 0b3d
00000290: 3b93 a03c c241 403d 4b5f b2bc 782b 5f3d
000002a0: 69bf c73c abd6 41bd cb18 a43d 484d 353d
000002b0: 7e6f 0ebe 2394 6cbd 69f0 8bbd 761d bbbe
000002c0: d726 f3bd 6c32 c0bd c953 3dbe 0bfb 553e
000002d0: dca7 2fbe 323f 033e 5b11 8c3d 255d 693e
000002e0: 1b6f a93e 41d9 59be cde8 45b8 a54c cebd
000002f0: e3e9 b2bd 342e fd3d 1fad 383d 730a 1abe
00000300: a249 92be 6d22 8abd e761 0c3e 9f69 5f3e
00000310: 85d3 2fbd a67a cf3d 1c0f e13c 2d8e 6b3e
00000320: 534a 90bd 268a 83be 2caa a03d 96a7 79bd
00000330: b3b6 88bd e315 6ebe da26 bc3d ff59 d23e
00000340: 5d80 7f3c 9adb 553d 14d4 ba3d b824 dbbd
00000350: 9285 a93e a727 413d 7a79 743e 279b edbd
00000360: bd86 85be 9e00 9ebe 09d7 44bd 7156 803e
00000370: 7db7 f0bd f826 e1be e954 3fbd 5f2b 39be
00000380: ef49 05be f926 613e 4e56 873c de13 0cbe
00000390: b58d 203e 66ff 7ebe d6d7 963d 2344 15bc
000003a0: a71b a7be e576 983c f67f e2bb 5b77 103e
000003b0: d0e1 73bd 307d 403a 022f 25be 0b67 7f3e
000003c0: 437d d03d fd46 9fbe 2daa 00be 01c3 b4be
000003d0: 2e3d b83e 01a2 adbe 3dc7 bebc 04cf d83d
000003e0: 124f a2be 381c e6bb 3a02 e3be c57f 31be
000003f0: a3f3 4fbe 2516 983d 2762 293b 2bdd eabe
-0.13345751 0.07625011 -0.06729048 -0.17601421 -0.048172936 -0.09943431 0.16789253 0.061160155
-0.11801414 -0.024623463 -0.010433706 0.145204 0.05761577 0.017842814 0.0023374676 0.04848142
0.22703421 0.1463449 0.1437399 0.110362284 0.08229327 0.10073148 0.16523795 0.25505677
0.24707395 -0.097907186 -0.072026655 0.06989157 0.04657133 0.0073377723 -0.12365565 -0.0022692694
0.10290911 0.02774915 0.08383594 -0.10279 -0.0026457233 0.028195672 -0.076589644 -0.08701892
-0.022980528 0.07521114 0.14757694 0.13382778 0.14673986 0.17325817 -0.045789406 -0.14797193
-0.09486896 0.0883265 0.026389068 0.08458191 -0.0027187616 0.03195123 -0.29616264 0.019527225
0.015614524 0.09763303 0.3795589 0.0025706855 0.014201894 -0.15551524 -0.12889653 -0.17724562
-0.13408916 -0.11536606 -0.10696745 -0.33414528 -0.085306466 -0.11740875 0.70950437 0.4664996
0.09660663 0.083904654 -0.09031704 -0.20488459 -0.24974336 -0.19615588 0.11751327 0.031286955
-0.027741073 -0.12793432 -0.4841768 0.12884589 0.21041942 0.1378619 0.06971668 0.25729996
-0.36857876 -0.023737159 -0.08895324 -0.023153061 -0.13197863 -0.44908237 0.14689262 0.7143571
0.19559228 0.45817593 0.34654653 0.53913546 0.10285552 0.10777781 0.04571216 0.059693623
0.12529747 -0.12982355 -0.03317042 -0.2691239 -0.15672141 -0.12454208 0.057903297 0.031960253
-0.0774736 -0.044149335 -0.1426609 0.019456428 0.03373868 0.11771867 0.011952465 -0.16081706
-0.12988254 -0.055424996 -0.080925725 -0.16564828 -0.3199365 0.088759445 -0.1772776 0.032189086
0.20376074 -0.04406249 0.1458422 -0.06414489 0.34962574 0.35336947 0.33667317 -0.12518013
-0.15641892 -0.02226889 0.08538847 -0.23848659 -0.5714652 -0.28550732 0.1538488 -0.29213667
-0.5138438 -0.048779543 -0.4138907 -0.27544168 -0.34976137 -0.07685147 -0.07787533 -0.032200567
-0.010013252 0.0664976 -0.034870874 -0.001979239 0.027477179 0.07582674 0.04386781 0.027373139
0.0011949545 0.083618164 0.123893455 0.03408289 0.019601455 0.04693771 -0.021773955 0.054484814
0.024383264 -0.047323864 0.080125414 0.044263154 -0.13909718 -0.05775846 -0.06832964 -0.36545914
-0.118726425 -0.09384617 -0.18488993 0.20896547 -0.17153877 0.12817076 0.06839248 0.22789438
0.3309258 -0.21274282 -4.7185273e-05 -0.100732125 -0.087360166 0.12362328 0.045086976 -0.15043049
-0.28571802 -0.067448474 0.13709222 0.21817635 -0.04292633 0.10130815 0.027473025 0.23003455
-0.07045426 -0.25691336 0.07844958 -0.060950838 -0.06675472 -0.23250537 0.09187098 0.41084287
0.015594569 0.05221138 0.09122482 -0.10700363 0.3310972 0.047156956 0.23874465 -0.116018586
-0.2607936 -0.30859846 -0.048056636 0.2506595 -0.117537476 -0.43975043 -0.046711836 -0.18082951
-0.13016485 0.21987523 0.016520645 -0.13679454 0.15679057 -0.24902114 0.07365386 -0.009110483
-0.32638285 0.01861138 -0.006912227 0.1410803 -0.059541523 0.0007342873 -0.16131213 0.24941652
0.10180142 -0.31108847 -0.12564917 -0.35305026 0.35984176 -0.33912662 -0.023288364 0.1058636
-0.3170095 -0.007022407 -0.44337636 -0.17333896 -0.20307784 0.07426099 0.0025845857 -0.45871863

conv2.bias f4 [32]
00000000: 59de 52be 0cd4 b7bf 3605 68bf 5222 1e3e
00000010: 8035 94bf 7583 e93f 8e1d f4bf 6058 5bbf
00000020: adb2 a53d 897d 893e 9c1f 44bf a150 10be
00000030: b459 ac3e 6260 0fbf c3f8 e53d 0e29 a8be
00000040: 9ebc 94bf b3ca e23f 7d75 d43f 7e6d 28bf
00000050: 57f0 a33e be45 21bf dd8b d0bf 57cc 20c0
00000060: 3740 dd3e b0c3 55bf f359 95bf f029 9fbf
00000070: c4e6 753e 5dc2 50bf 72f6 85be ba2d 0abf
-0.20592631 -1.4361587 -0.9063295 0.1544278 -1.1578827 1.8243243 -1.9071519 -0.85681725
0.0809072 0.26853588 -0.7661073 -0.14093257 0.33662188 -0.56006444 0.11229088 -0.32843822
-1.1620061 1.7718109 1.6598355 -0.6579207 0.32019302 -0.62997043 -1.6292683 -2.512472
0.43213055 -0.8350172 -1.1668075 -1.2434673 0.24013811 -0.81546575 -0.26164585 -0.53976023

fc1.weight f4 [384, 32]
00000000: ac6e a3be 553b 493d e67a a7bd 420a 3e3e
00000010: dfac e5bd 3583 f9bd 6f53 733e 76c8 89be
00000020: c17b 963e 249f 82be 2d37 cb3e 4018 52be
00000030: dd83 15be 72bd 0abe f5d6 e03e 9e6f 7d3e
00000040: bff0 83be 3feb 87be 001e ddbd 85e1 59bd
00000050: b3d1 f8be 94d1 2c3e 95bb c2be f19c 82be
00000060: 34b6 76be def5 8bbe 5e0c c6be 3c55 e93e
00000070: af7b 21be 7080 e83d a2f3 bcbe 35a4 7ebe
00000080: 9fe0 823d 5273 8c3d 8e9c 143d 17ee aa3c
00000090: 2241 443e 904f 803e 7476 7b3e c42c 32be
000000a0: 13b5 613e 9e65 093d 5e85 a13e 1e4a 653d
000000b0: b8ce 94be b338 18bc 59cf d5be 5c8e 07be
000000c0: 4cc7 253d 2065 12be 5a48 a2be 6b9b 63bc
000000d0: 8ef0 18be f2b4 37bf 315d 00be 903e f93c
000000e0: 1c0a e2bb 0d49 d3be e7be 3c3e a332 fcbe
000000f0: 9d68 5b3e d88d 9cbd 023e 6a3e 6174 4cbd
00000100: 6153 b33d 5031 83bd 79aa c0be 1e88 f33d
00000110: 40cc f3be 4000 4fbe a905 9e3d 49cd c33e
00000120: eba6 49bb 603d 103d 1db7 d7be e3cd 173e
00000130: 090c 4b3e 6619 683e 98db ffbc de71 47be
00000140: 267d 31be d28f b03e cb2f 823d 80d7 e33d
00000150: 935c a5be 7add b83e d885 61be c4a7 fdbe
00000160: 2794 95be 9670 d03c 2e3a cebd b498 c13d
00000170: 60bf 933c b5d8 77be a5b5 423e 117d 4ebe
00000180: e330 ebbb 597c 5cbe 4e42 56be aff6 673d
00000190: a7f7 a6be be6e d23d 0b86 87be 9de0 4fbd
000001a0: 6896 2b3e 6f8f 1f3d 656f 083e 04cb 483e
000001b0: 1ac8 c4be f5f1 8d3e 8b9c 753e 762b 5fbd
000001c0: f348 873e 8a81 7fbd e523 afbd 6fd3 84be
000001d0: 1eb2 c4be 25c4 0b3e 0e7c 7cbe 5f04 39bd
000001e0: 3a99 87bd 632b 80be a4f8 20bd 0a94 b9bd
000001f0: 790a 90bd ac6b 10be 9585 91be 0fc6 a93d
00000200: 407e a2be 475e 023f 7de7 26bd 90c4 4b3d
00000210: 8b2f 8ebe 8156 9ebd d045 b1be 7f3d e0bd
00000220: cd3d 5fbe b3fb c1be 2275 9d3d 52a8 20be
00000230: 38f3 933d eaf7 55bd 9b00 ff3e 6416 c2bd
00000240: 5a43 18bf 943f c9bd 9526 1abf 55d9 d3bc
00000250: a7fc 3f3e 7651 10be 6580 8bbe 23b5 2d3e
00000260: 76e9 01be 17fd 02be 12dd fbbe 5869 993e
00000270: 6b4a 6f3e 7934 e1bd 7b10 143d 11c8 173f
00000280: 6db2 1ebd fbf3 863d d168 2ebf 6a58 89be
00000290: f746 febd 3c71 4abe 6aeb cebe 6f6b 12bf
000002a0: ac56 a8be fbcd 0bbc dd15 33be 3788 603d
000002b0: 98b1 1a3f 55af 553e f245 ddbd 9ee0 87be
000002c0: 903e 3a3d c019 de3e d64c adbe 4d8d 50bd
000002d0: f8a0 933d ac38 28be 257d 1ebe 3cb1 10be
000002e0: 2b5d 5d3e 96cb b3be 22b2 3f3e f029 74be
000002f0: 73dc 223e 9a50 583e e4e4 1a3e 1353 d83e
00000300: 1e86 b7bd 1b5e bf3c ddc4 86be a2ac 2c3c
00000310: 8b17 03bf bcac 893e 678c 0f3e 14a3 abbc
00000320: 9d5c d3bd 35ab 61be 087d c23d 92bb f63e
00000330: 967b 12bf 9246 9c3d d036 22bf c97d f0bd
00000340: 9dca 14bd 5a21 a0bb 9013 45be 072c 023f
00000350: dd95 25be a54e ec3e df64 c33d 1941 0dbe
00000360: a792 e0be 6110 2abe fde8 393e 9e34 acbd
00000370: d997 a8be d354 b5be 7045 01be 65b0 5fbe
00000380: 9b1f 06bf eb40 9a3e 62bd 1dbd a3b0 debe
00000390: b99a 0e3e 6b7c 24bf 4c7f 01bf 96f4 aabe
000003a0: f6dc ae3e 13c7 06bf 0e7c 38be 606a 23bd
000003b0: 27e5 fcbe 84d9 b9bb cc68 7d3e b0f5 5a3d
000003c0: 0ef5 373e 66c7 f33c 812a ad3d af3a 83bd
000003d0: 942a 113d 9d55 9f3e 5c49 9abd 8bd2 743d
000003e0: 622d 0dbf f1d7 bc3e 1ef6 183e 2235 883d
000003f0: 2291 a33e 39ee c33a e401 f5be 7a64 d3be
-0.31920373 0.04912885 -0.08177738 0.185586 -0.11214613 -0.12183229 0.23762296 -0.26910752
0.29391292 -0.2551204 0.39690533 -0.20517063 -0.14601083 -0.1354883 0.43914 0.2474961
-0.25769612 -0.26546666 -0.10796738 -0.053193588 -0.48597488 0.16876823 -0.3803374 -0.25510362
-0.24092942 -0.2733602 -0.3868131 0.4557284 -0.15769838 0.113526225 -0.36904627 -0.24867328
0.06390499 0.06857933 0.036282115 0.020865483 0.19165471 0.250607 0.24556905 -0.17399889
0.2204173 0.033544175 0.31547064 0.055978887 -0.29063964 -0.009290862 -0.41759756 -0.132379
0.040473267 -0.14296389 -0.31695825 -0.013892035 -0.14935514 -0.71760476 -0.1253555 0.03042534
-0.006898178 -0.4126667 0.18432198 -0.49257383 0.21426626 -0.07644242 0.22875217 -0.049915675
0.08756138 -0.0640589 -0.3763006 0.11891197 -0.47616768 -0.20214939 0.07715923 0.38242558
-0.0030769657 0.03521478 -0.42131892 0.14824633 0.1982881 0.22665939 -0.03123264 -0.1947703
-0.17332897 0.34484726 0.06356772 0.11125088 -0.3229719 0.36106473 -0.22023714 -0.49542058
-0.29214594 0.02544431 -0.10069691 0.09452954 0.01803559 -0.24203761 0.19014604 -0.20164897
-0.0071774586 -0.2153181 -0.2092373 0.05663174 -0.3261082 0.10275029 -0.26469454 -0.050751317
0.16756594 0.03895515 0.13323744 0.19608694 -0.38433915 0.2772366 0.23985498 -0.054484807
0.26422843 -0.062379397 -0.08551768 -0.2594256 -0.38417143 0.13649042 -0.24656698 -0.045170184
-0.066210225 -0.250331 -0.039299622 -0.09061439 -0.070332475 -0.14103574 -0.28422228 0.0828973
-0.31736946 0.50925106 -0.04074811 0.049748003 -0.27770647 -0.07731343 -0.34623575 -0.109492294
-0.21800919 -0.37887344 0.07688357 -0.15689209 0.07224125 -0.052238382 0.4980515 -0.09476927
-0.5947777 -0.0982658 -0.6021512 -0.025860468 0.18748723 -0.14093575 -0.27246395 0.1696363
-0.12686715 -0.12791859 -0.491921 0.29963183 0.23368232 -0.109963365 0.03614853 0.5928965
-0.03874438 0.06589504 -0.6812869 -0.26825267 -0.12415879 -0.19769758 -0.40413982 -0.5719518
-0.32878625 -0.008532996 -0.17488809 0.054817405 0.60427237 0.20867665 -0.10804357 -0.26538557
0.04546982 0.4337902 -0.33847684 -0.050916005 0.07208437 -0.16427869 -0.15477426 -0.1413011
0.21617572 -0.3511626 0.18720296 -0.23844123 0.15904407 0.21124497 0.15126377 0.4225088
-0.08961128 0.023360303 -0.2632207 0.010539206 -0.512078 0.26889598 0.14018403 -0.020951785
-0.10320399 -0.22037967 0.09496504 0.4818998 -0.5721983 0.07630648 -0.6336489 -0.117427416
-0.03632604 -0.0048867883 -0.19245744 0.5084843 -0.1617045 0.4615375 0.09540724 -0.13794364
-0.43861887 -0.1660781 0.18155284 -0.084084734 -0.3292835 -0.35416278 -0.12624145 -0.21844633
-0.52391976 0.30127653 -0.038510688 -0.43494138 0.1392621 -0.64252347 -0.50584865 -0.3338973
0.34152955 -0.52647513 -0.18016073 -0.03989637 -0.4939358 -0.005671682 0.24747008 0.053456962
0.17964575 0.029758167 0.084553726 -0.064076774 0.035440996 0.31120005 -0.075335234 0.059771102
-0.55147374 0.368835 0.14937636 0.06650759 0.31946665 0.0014948315 -0.47853005 -0.41287595

fc1.bias f4 [384]
00000000: d9a7 ecbd 33bf 403e 16a6 b83e 7fdd 40be
00000010: b65d 7dbd abc4 883e 134d 36be 415f d1be
00000020: 9605 cc3e 430a 04bf 751a 513d dad7 0d3f
00000030: a17b 693e a540 c0be bfcd 143d b680 123e
00000040: 5303 9f3d daf0 87be 5446 b83e 0f7f ec3e
00000050: 5427 08bf bbb6 f6bc 0ce8 50be 5599 8dbe
00000060: 0ba5 c73d 24fa 553e 10e7 8dbd 5488 c8be
00000070: 416c 123e f17b aebc 52a3 70be 9335 d73e
00000080: cd6e 90be f730 02bd 0123 ba3e 7277 063f
00000090: a6bf 793c a07b acbd a35e 2cbe 1193 903e
000000a0: d6d3 813e 8e07 d7bd d727 86be 4c71 913e
000000b0: 8183 2dbe 731e 4cbe ae06 fb3d ed40 f53e
000000c0: 3ccc 89be 0e5e 123f ea60 e2be c22d fabe
000000d0: 54a6 003e d461 553e 8fb6 bb3d 3883 26be
000000e0: 77c5 f0bd 07c3 6bbe d03e 9cbd b14d dd3e
000000f0: a914 6bbd dd7d 893e 7de2 7dbe e28a e73e
00000100: 3191 d0be 5f3e c23e 8dfb 843e 7443 07be
00000110: c9c2 e93d fe52 e43c c149 8f3d 27c9 1c3f
00000120: 0ccc 88be b5d1 cc3e a7f5 e73d 9a0c 8cbe
00000130: eb30 5abe c1db 3cbe 5f76 00bf 82d5 023f
00000140: af23 cf3e 3b86 bd3e 8a04 f63c fd5c 67bd
00000150: 4d9a 193c 227d 703e fe41 efbd 629e 13be
00000160: 5e5d 2abd 14a0 afbe 9489 cdbe bf58 493e
00000170: 0335 ab3d 5a30 babd 06ad cb3c d076 533d
00000180: b0ea a83d 1521 083e b1a6 8abc 4f4e a23e
00000190: 98bb 343f 2db9 71be fffe bb3e 54e2 893b
000001a0: eb19 a93e 0112 22be 70e3 c03c 8ba1 23be
000001b0: cea5 80be 1d67 72be ed68 f5be 75a4 bebe
000001c0: ab02 0d3f 998d 16be f8c3 273c 1248 0d3e
000001d0: 6687 68be 7d8b 0bbe 5e00 5abe 4e69 bdbd
000001e0: b5f3 803c 5538 a63e b924 c03e 2e7a f13d
000001f0: 6a9c 97be 84fe c7be 9b5c e3bd 9058 a63d
00000200: 5ff7 b03d 7b9e c0be 6f36 7fbe 4d5f a8bd
00000210: 7ecf 383e 5197 06be cc5f 333e d1fc c8be
00000220: 429f 2bbd 1229 a1be 5d79 193f ac26 2ebe
00000230: 012a 4b3d 3ef8 383f eb33 023d e4d7 123f
00000240: 7b8a 3ebf 2592 adbe d59f ca3e 7f61 8f3e
00000250: f6ef bebd 80c3 f0be c056 fe3c c01d bbbe
00000260: ee2f 9fbc 612b 01be f466 d33d aae7 193e
00000270: 2a23 2f3f bec5 493e dcd9 6ebe ac5a 3f3d
00000280: a65e 89bd cbda 86be a43c 093f 9bce df3d
00000290: d445 efbd d363 d43e d916 11be 820b e33d
000002a0: 6a73 a03d d4ef 12be d1e8 7dbd 95a6 edbe
000002b0: 1eee 273f a258 98bc 1e30 293d 0efa 863e
000002c0: 1fe3 3abe c0af 193d 9317 a0bd c4eb adbd
000002d0: c499 8abe ff0e df3e 2621 413e a65a 3dbe
000002e0: 3968 16be 4971 3b3e 2b9f d5bd e788 183d
000002f0: 8aba 3e3d c639 c4bd a4a1 13bd 270f 2abf
00000300: 294a 65bd d063 30bf acf7 5e3d 15d8 133e
00000310: cfd6 9e3e 505f 40be 0498 10be d1b3 dcbe
00000320: ed81 dc3d 1c1b 133e 6060 b53e cf2b 7a3e
00000330: b8a2 5fbf 3bfa 793e cb63 383e 61c2 46be
00000340: a246 5dbf 79ef 313f 80f0 643e fa6e e13e
00000350: b030 3d3d 8285 5f3e ccba fa3e 17c3 97be
00000360: e652 0fbf 9e4a 90bd e356 203e 121a 8dbd
00000370: 969b f8bd 2af2 22be a521 123e ff53 753c
00000380: 8033 c6bc 20d5 853e 6d60 f3bc 243c bcbd
00000390: 072b f63d b65c 07bd 6d4c 8dbe a109 4d3e
000003a0: 8869 73be 4f62 3cbd 2856 da3d 0b4e 60be
000003b0: 1241 6e3e bbd8 b73e a305 253e 5f2d 7a3e
000003c0: ebfc ac3d 7f68 01bf 7fa7 7dbe e893 b1be
000003d0: 4c46 ee3e a491 e2bd 6b8d 8d3e 123a ac3e
000003e0: b215 1ebf bc61 bb3e 8add 813c 6721 063d
000003f0: 670a ed3e 6cc2 acbc c6ba c53d eaaf 58be
-0.11555452 0.18822937 0.36064214 -0.18834494 -0.061856948 0.26712546 -0.17802839 -0.40892985
0.39848012 -0.5157816 0.051050622 0.5540749 0.22801067 -0.3754932 0.036329027 0.14306912
0.07764306 -0.26550943 0.35991156 0.46190688 -0.5318501 -0.03011643 -0.20401019 -0.27656046
0.09748276 0.20896202 -0.06928837 -0.3916651 0.14299108 -0.021299334 -0.23499802 0.4203306
-0.28209534 -0.031784978 0.3635483 0.5252601 0.015243446 -0.08422017 -0.16832976 0.28237203
0.2535693 -0.10499488 -0.2620227 0.2840675 -0.16944696 -0.1993349 0.122571334 0.47901097
-0.2691363 0.57174766 -0.44214565 -0.48863035 0.12563449 0.208381 0.0916568 -0.16260993
-0.117564134 -0.23023616 -0.07629168 0.43223336 -0.05739275 0.2685384 -0.2479343 0.45223147
-0.40735772 0.3793821 0.25973168 -0.13209325 0.114141054 0.027871605 0.06996489 0.61244434
-0.26718175 0.40003744 0.11326151 -0.27353364 -0.21307723 -0.18443204 -0.5018062 0.5110704
0.40456912 0.37016472 0.030031461 -0.056485165 0.009375167 0.23485234 -0.11682509 -0.14415887
-0.04159295 -0.34301817 -0.40144026 0.1966276 0.083597206 -0.090912536 0.024862777 0.05162698
0.08247888 0.1329387 -0.016925188 0.3170037 0.70598745 -0.23605795 0.36717984 0.0042078886
0.33027586 -0.1582718 0.02354595 -0.15979593 -0.251265 -0.23672147 -0.47931615 -0.37234846
0.55082196 -0.14702453 0.010239594 0.13797024 -0.227079 -0.1362743 -0.21289203 -0.09248601
0.015741209 0.32464853 0.37528017 0.11790882 -0.29611522 -0.39061368 -0.111016475 0.08122361
0.08640932 -0.3762091 -0.24923109 -0.08221302 0.18047902 -0.1314366 0.17517012 -0.39255384
-0.041899927 -0.31476647 0.5995081 -0.1700694 0.049600605 0.7225379 0.031787794 0.5736067
-0.74430054 -0.33900562 0.39575067 0.2800407 -0.09323113 -0.47024155 0.031047225 -0.36546135
-0.019432034 -0.12614204 0.10322371 0.15029779 0.6841303 0.19704339 -0.23325294 0.04671733
-0.06707506 -0.263388 0.53608155 0.10928079 -0.116832405 0.4148241 -0.14168872 0.11086179
0.078345135 -0.143493 -0.06198961 -0.46416155 0.65597713 -0.01859695 0.041305654 0.26362652
-0.18250702 0.037521124 -0.078169964 -0.08492234 -0.2707044 0.4356613 0.18860301 -0.18491611
-0.14688195 0.18304934 -0.104307495 0.037239935 0.046564616 -0.09581332 -0.036042824 -0.6642937
-0.055978928 -0.689023 0.054435417 0.14437898 0.3102326 -0.18786359 -0.1412049 -0.4310594
0.10766969 0.1436581 0.3542509 0.24430774 -0.87357664 0.24411862 0.18006818 -0.19410087
-0.864359 0.6950603 0.22357368 0.4402998 0.04618901 0.21828273 0.4897064 -0.2964103
-0.5598587 -0.07045482 0.15658145 -0.06889738 -0.12139051 -0.15912691 0.14270647 0.0149736395
-0.024194479 0.26139164 -0.029709065 -0.091911584 0.120199256 -0.0330474 -0.2759737 0.20023204
-0.23770726 -0.045992192 0.10660964 -0.21904771 0.2326701 0.3590754 0.16115431 0.2443137
0.08446678 -0.50550073 -0.24770926 -0.34683156 0.46538007 -0.11062935 0.27646956 0.33638054
-0.61751854 0.36598003 0.015852708 0.0327467 0.46297 -0.021088801 0.09654765 -0.21160856

fc2.weight f4 [192, 384]
00000000: 4c39 4abd 0168 14ba e4f7 81bd 6cbb 2a3d
00000010: fedb 29bd c88e 0d3d 1d9f e8bc df98 27be
00000020: 2273 8dbd 6224 25bb 7b7c d839 f6df 523d
00000030: ade4 29bd 35e0 3abd ec69 10bb b28b e43c
00000040: 6421 c1bc 3145 1a3d add6 e0bd 30e2 eebd
00000050: d64b 9ebd 55dd 053c ae87 bc3c 00f2 0e3e
00000060: 6a91 ffbd 9039 57bb fb37 663d 9617 43bc
00000070: 348b 013d 8650 e5bc 6c05 003d 6956 643c
00000080: 6f0f e0bd b82f 753d e1f9 0fbe d51f 22bd
00000090: c722 8b3c 3aa7 5dbd 985b 40bd 4bef 063e
000000a0: 4ef4 d23c 19fb e1bd 6e59 4dbd 8a2d 23bd
000000b0: 01d9 56bd 5b32 d53d 8fbe 143d 44ca 15bd
000000c0: 0d3e 0b3b 709d e6bd 467d dcbd 2b0d 33be
000000d0: 72c6 8fbd 06a0 24bd 2dc5 88bb 1803 55bd
000000e0: 32ab 55bd bbc8 9e3d 1ecf 57bd 4488 01be
000000f0: a38b 923d 6b74 fbbd 8d17 aebd 0146 363d
00000100: cc23 0fbe 1a19 a5bd 11c6 e93d 7ab3 9e3d
00000110: 975c 8abd d50c 7abc 82da acbd 809a b23c
00000120: 3be9 473d 032a f5bc 46e1 5ebc 9a63 1bbd
00000130: 4a42 61bc 7756 8abd ea15 953c 349a c2b9
00000140: c083 8ebd cd38 eabd 4596 4abe 9c0f babd
00000150: 8961 233b d8ab 0fbe 10f4 143d 47c4 e4bd
00000160: ca9c c63b 90ed 92bd 4321 a3bd 9f8f ecbd
00000170: f8b8 3ebd bdcb bcbd c923 6ebd 5572 7e3d
00000180: abab c8bd 7463 593d 79ce 89bd 865e 6cbd
00000190: c835 7cba 5198 a33c 427c ff3d a714 9e3d
000001a0: 9dd0 0ebd ea32 0ebd 4430 593d bf97 26bd
000001b0: 43b9 fabd f15e 503a 6a90 b03b 41da 1e3b
000001c0: 8226 ccbd 249f cebb 39c6 b3bc 4001 39bd
000001d0: 2bf8 d6bc 73f8 d43c f3ef bcbd ee52 ccbc
000001e0: 225d 283d 5fe3 e8bd e998 e6bc 78af e0bd
000001f0: e0e0 f5bc 7cd9 1cbe c14a 81bd 2d9e c9bd
00000200: 7ddc 6cbd 4c56 aa3d 85b9 1d3e aad3 84bd
00000210: 1b43 04bb 2804 20be 4904 febc aca8 2dbd
00000220: 1fc3 0bbd e9aa 98bc 8df2 2fbd 3c6e 933c
00000230: d959 2abe a1cd 28bb fbe6 96bd 5486 a5bc
00000240: 3d77 3b3a dae3 0dbd bc2c e8bd f781 6ebd
00000250: e737 06bd 50f8 e7bd b76e cb3b e39a 443c
00000260: f00f 4a3b d22d a3bd 788a 0bbd 4ddf 3ebc
00000270: a0c1 4b3b b178 f3bd f417 27bc e8b3 fcbd
00000280: 11c4 953d 4c0b d7bd db8b 2dbd b094 f1bd
00000290: 785e 33bd 7e4e 97bd 8bb3 ea3c e314 85bd
000002a0: aed3 3dbd d524 09bd 9d6e 8e3d 3e9d dbbd
000002b0: bc34 f3bb a43e ae3d 9314 bfbd 4423 ae3d
000002c0: 9b01 523c e4d4 d439 a7a3 afbd 60ed 38bc
000002d0: a42c babd 2857 d6b9 9397 e6bd d4e3 c6bc
000002e0: 6a3a 73bd 0082 e2bc dc73 51bc 33b1 153e
000002f0: 3f02 423c 34e9 47be 5822 37bd 3f44 a1bd
00000300: f432 f23d cdda b3bd b913 b7bd f22a bbbb
00000310: 8b44 18bc 9cc2 17be 4897 08bb 4fb5 b2bb
00000320: ac70 cfbd 1560 453e bd99 853c feef dfbc
00000330: d6ca c1bd 29f7 8c3d c83a c73d 5e10 a2bd
00000340: 055b 303d d4b6 8f3d 556d 96bc 8aa2 f5bd
00000350: 1be2 40be ec5b ab3c acac e4bd ed3f 34bd
00000360: b735 4a3d 809f 74bd 84ad b3bd e7be 6abd
00000370: f929 f33d b80c 41bd 4a67 49bd d8fd 403e
00000380: 53ba 85bc 768e b53c be5d 2cbe 0a48 24bd
00000390: b97c 71bd a9e8 d23d 0974 a23c fcf7 563b
000003a0: 0e9e a8bd e809 e0bd c21b 8cbd 7eae 15ba
000003b0: d605 28bc 780a 77bc d35b 0ebe dc9a 1bbe
000003c0: 151e 063d 0865 1cbe 92c3 bcbd 0262 633b
000003d0: ed96 4b3c e3ea 04be 98cd 69bd 1e46 0e3c
000003e0: b581 913d d216 b2bd 25e5 14bc c579 1fbd
000003f0: b025 d4bd 17a4 ec3d 400e d53d 1d3f ee3d
-0.04937105 -0.000566125 -0.063461095 0.041682646 -0.041469567 0.034559995 -0.028396184 -0.1636691
-0.069067255 -0.0025198688 0.00041291476 0.051483117 -0.041477848 -0.045623977 -0.002203579 0.027898643
-0.023575492 0.037663642 -0.10978446 -0.116642356 -0.07729308 0.008170445 0.023013916 0.13959503
-0.124789074 -0.0032840706 0.05620573 -0.011907479 0.031626895 -0.027992498 0.03125517 0.013936617
-0.10940444 0.05985996 -0.14060165 -0.03958114 0.016984357 -0.054114558 -0.04696235 0.1317722
0.02575126 -0.11034221 -0.050134115 -0.03983835 -0.052453045 0.10409995 0.036314543 -0.03656985
0.0021246702 -0.112604976 -0.107660815 -0.17485492 -0.07020272 -0.040191673 -0.004173896 -0.052004904
-0.052165218 0.0775313 -0.052687757 -0.12649637 0.0715554 -0.12278064 -0.08500586 0.044500355
-0.13978499 -0.08061428 0.11414731 0.07749076 -0.06755941 -0.015261848 -0.084401146 0.021802187
0.04880641 -0.02992726 -0.013603514 -0.037936784 -0.013748715 -0.06754773 0.018198926 -0.00037117454
-0.06958723 -0.11436615 -0.19783886 -0.090850085 0.0024929962 -0.14030397 0.03636557 -0.111702494
0.006061171 -0.07174218 -0.079653285 -0.11550831 -0.04656312 -0.092185475 -0.058139596 0.062120754
-0.09798368 0.05307336 -0.06728835 -0.057707332 -0.0009621051 0.019970091 0.12474872 0.07718783
-0.034866918 -0.034716524 0.053024545 -0.04067206 -0.12242367 0.00079487177 0.0053883092 0.0024238976
-0.09968282 -0.006305592 -0.021945106 -0.045167208 -0.026241383 0.025997376 -0.09225454 -0.024941888
0.041104443 -0.113714926 -0.028149085 -0.10970968 -0.030014455 -0.15317339 -0.06313086 -0.09844623
-0.05782746 0.08317241 0.15402801 -0.06485684 -0.00201816 -0.15626585 -0.031007903 -0.042397186
-0.03412163 -0.018636184 -0.042955924 0.0179969 -0.16635837 -0.002575733 -0.07368275 -0.020205654
0.0007151252 -0.034641124 -0.113366574 -0.058229413 -0.032768156 -0.11326659 0.0062082666 0.0119998185
0.0030832253 -0.07967724 -0.0340676 -0.011649919 0.0031090751 -0.118882544 -0.010198582 -0.12339002
0.07312787 -0.105002016 -0.042369705 -0.11795938 -0.043791264 -0.07388018 0.028650066 -0.064981245
-0.04634445 -0.03348239 0.069546916 -0.10723351 -0.007422058 0.085080415 -0.09330096 0.0850282
0.012817766 0.00040594407 -0.08576136 -0.011287063 -0.09090546 -0.00040882197 -0.11259379 -0.024278559
-0.05938188 -0.02764988 -0.012783971 0.14618377 0.011841356 -0.19522554 -0.044710487 -0.07874345
0.11826125 -0.08781967 -0.08939309 -0.0057119066 -0.009293686 -0.14820331 -0.0020842124 -0.0054537426
-0.10128912 0.19274934 0.01630866 -0.027336117 -0.09462516 0.068830796 0.097280085 -0.07913278
0.043055553 0.070172936 -0.01836268 -0.119938925 -0.18836252 0.020917855 -0.11165747 -0.044006277
0.049367633 -0.059722424 -0.0877333 -0.057310965 0.1187324 -0.04713127 -0.04917077 0.18846834
-0.016324198 0.022162657 -0.16832635 -0.040107764 -0.058956835 0.10298283 0.01983072 0.0032801619
-0.082332715 -0.109393895 -0.06841232 -0.00057099 -0.010255298 -0.01507818 -0.13902216 -0.15195793
0.032743532 -0.15272915 -0.092169896 0.0034695868 0.01242612 -0.12980227 -0.057080835 0.008683709
0.07104818 -0.08695759 -0.009087835 -0.038934488 -0.10358751 0.11554735 0.104031086 0.11633132

fc2.bias f4 [192]
00000000: ddb8 78bd d62b 25bd ea2a 22be 91be 10be
00000010: 8d93 58be 376d 203e af20 2a3e d67a 13be
00000020: 0d1e a1be 773a 333e 4bef a5be 7113 6bbe
00000030: 7947 c13d 1eea 823d 3cbb be3e c48e 563e
00000040: 5b19 cb3e 6255 9d3e 43cd 8abe 415b ac3d
00000050: 3a3f 923e da52 83bc fdbb 54bd 8252 593b
00000060: 88d6 193b 2982 7c3d 3c7b 02be 37bb 453e
00000070: ac5e b03e a201 71be d1ed 9e3d 65a4 613c
00000080: 437e 6abc f4f1 6f3e ffeb 15be 7cb2 90be
00000090: b752 88bc 90ef 933d 8e22 e63d 0545 2b3d
000000a0: bdf7 0cbe c8c3 0abe 4e81 4ebe f0cf 3b3f
000000b0: 8b6a eaba 62b4 aabe 19b5 acbe fc43 403e
000000c0: 60b3 d33e a573 03be c785 a03d b099 01be
000000d0: 95ea 863d fe40 b73e 4217 f3bd 8591 b63e
000000e0: 22cd 473e f5c7 983e 879d 71be 8f3a 7d3e
000000f0: 8ea9 05bd 1295 fd3e 1a21 b6bd dbf6 183f
00000100: 7fa9 69be 9083 5e3e 4071 21bd 2a64 9ebe
00000110: d256 7dbd e52c 85be da64 4dbe 9e37 62be
00000120: b37f a3bc f2c8 193f f621 2d3e cc1e f43e
00000130: 6678 f13e 9c60 09be f0ff a23c 91c3 0dbd
00000140: 89a2 5bbe 8ec6 a2bc 6fcb 483f 977a b8bd
00000150: dc36 6ebd c5ff 88be 9c37 203e 3cea fd3e
00000160: 81c4 0c3e 8b58 8d3e cd2a 47bd 71ea f43e
00000170: eafe bc3e 912c 523e 90c5 c83d eef7 943e
00000180: dbbe 883e bd5b 6d3d 1e93 0a3e 7777 0a3f
00000190: 11b9 e3bc 7a76 aa3d d18b 723c a4e7 47be
000001a0: 0d3d b7bc 8003 a03e e15e fb3d 91cc fdbd
000001b0: c695 9a3d 931b 3cbc f41d 42bb c051 2f3c
000001c0: fdb2 37be d3cb 2c3e 2693 833e 3387 7c3e
000001d0: 8275 a33e 393c 5b3f bcb7 943d aac6 3e3e
000001e0: bc4d 4ebe 2331 553c 9a27 0bbd 6d69 55be
000001f0: 98f0 0e3f 357c bc3c 5454 903e e278 863d
00000200: 79c1 f13d 09eb b13e c57e be3e 0827 253e
00000210: 54ba be3e fe92 2ebe fd32 f0bb dec5 6e3e
00000220: 0356 8b3e 739b c8bd f85d 6d3d dab0 ed3c
00000230: c081 443f 59b6 dbbd a4ef af3d 3d45 70bd
00000240: 1a9b 11bd ddc4 10be bf42 103e a3f9 043f
00000250: eedc 023f 4bb5 0dbc 58a7 213e 63ff f3bc
00000260: 1546 653e aa0d 4b3d d5e1 7d3e 4070 e93e
00000270: 4566 913d d306 75be 6ed2 093f 934d 02be
00000280: 10d3 193f c209 fa3e 8f0b 5dbe 15d5 0f3e
00000290: faaa 933e 761e 003f ad59 e8bd f7c0 f8bd
000002a0: ed3c 343e 901d 933e 5d95 a9bd 0d5f 923e
000002b0: 513a bdbd 9ed1 84be b192 a83e 16a4 ae3e
000002c0: 4ac8 0f3e 338f 38be 9184 5abd ff13 283e
000002d0: 269d 493d f2df 103f caee ca3e 010f 393d
000002e0: a351 053f cdab 253e ad8c 1f3f 7517 1b3e
000002f0: dcbe 123e 2a47 2e3e 9d06 643d aeeb d1bd
-0.060723174 -0.04032501 -0.15836683 -0.14135195 -0.21150036 0.15666662 0.1661403 -0.14402327
-0.3146824 0.17502771 -0.3240913 -0.22956635 0.094374605 0.063923106 0.37252223 0.20952898
0.39667782 0.30729204 -0.27109727 0.08415843 0.28563863 -0.016030718 -0.051937092 0.003316075
0.0023473818 0.061647568 -0.12742323 0.19309698 0.3444723 -0.23535779 0.07760204 0.013772105
-0.01431233 0.23432142 -0.14640807 -0.28261173 -0.016641004 0.07223427 0.112370595 0.04181387
-0.1376638 -0.13551247 -0.20166513 0.7336416 -0.0017884535 -0.33340746 -0.33731917 0.18775934
0.4134779 -0.12837084 0.07838016 -0.12656283 0.06587712 0.35791773 -0.118696705 0.35657898
0.19511846 0.29840055 -0.23595248 0.2472937 -0.032632403 0.49527794 -0.08893032 0.5975167
-0.22818564 0.21729875 -0.039414644 -0.30935794 -0.061850376 -0.26010814 -0.20058003 -0.22091529
-0.019958353 0.60072243 0.16907486 0.47679746 0.4716217 -0.1341576 0.019897431 -0.034610335
-0.21448721 -0.019870069 0.78435415 -0.09007757 -0.058157787 -0.26757637 0.15646213 0.4959277
0.13746835 0.27606615 -0.048624802 0.47835115 0.36913234 0.20524813 0.09803307 0.29095405
0.2670811 0.057948817 0.13532683 0.5408854 -0.027798207 0.08323379 0.014803843 -0.19521958
-0.022367978 0.3125267 0.12273956 -0.123925336 0.07548098 -0.011481184 -0.0029619904 0.010700643
-0.17939372 0.16874628 0.25698203 0.2466095 0.3192559 0.8563877 0.07261607 0.18630472
-0.20146841 0.013012203 -0.033973314 -0.20840998 0.55835867 0.023008445 0.28189337 0.06566025
0.1180448 0.3474963 0.37206092 0.1612817 0.37251532 -0.1704826 -0.007330297 0.23317668
0.2721406 -0.097952746 0.057950944 0.029014993 0.7676048 -0.107281394 0.0859063 -0.05865978
-0.035548307 -0.14137597 0.14087962 0.51943415 0.5111836 -0.008649181 0.15786493 -0.029784864
0.22390015 0.049573578 0.2479318 0.45593452 0.070995845 -0.23928384 0.53836715 -0.12724905
0.6008768 0.4883557 -0.2158644 0.14046128 0.28841382 0.5004648 -0.11345229 -0.1214618
0.17601366 0.28733492 -0.08280442 0.28588143 -0.092396386 -0.25941175 0.32924417 0.34109563
0.14041248 -0.18023376 -0.05334908 0.16413878 0.049222134 0.56591713 0.39635307 0.045180324
0.5207769 0.16178818 0.6232403 0.15145667 0.1433062 0.17019334 0.05567037 -0.102500305
