practica 7-2/practica-7-cifar-y-redes-convolucionales-Jhonylaz/CIFAR_N.pth (torch, 581127 bytes, 10 tensors)

conv1.weight f4 [64, 3, 5, 5]
1.7234532 -0.18500723 -1.3716211 -0.011017679 0.52525485 -0.14780359 -0.7827352 0.3178015
0.6442099 0.004340387 -1.2549115 0.13893284 0.9778578 -0.7355761 -0.56977546 -0.45709372
-0.89293116 -0.3483974 -0.022096338 0.22729886 -0.15258756 -0.3983724 -0.19904974 0.36336142
0.1300273 0.8503049 -0.77786684 -1.4771305 -0.031516083 0.4698011 -0.37597358 -0.8342788
0.5601925 0.9299243 0.15981036 -0.80956686 0.7791661 1.8496212 -0.26834697 -0.20228599
0.11406348 -0.10784403 0.26422027 0.17465678 0.7739018 0.15684764 -0.21149275 -0.12531145
0.23353857 0.44921014 1.1065099 -0.2882757 -1.0232097 0.47305396 0.38458413 -0.03480791
-0.40730298 0.51620495 0.6597101 -0.579372 -0.56604826 1.079336 1.4515656 -1.0767499
-1.159821 0.55989224 0.023491168 -0.4766902 -0.89277214 -0.19071452 0.645118 0.04611864
-0.35795784 -0.37784514 -0.36556506 0.01220711 -0.08583501 0.04985826 0.008544902 0.077145845
0.0798026 -0.020403028 -0.08778679 -0.0371433 0.09923726 -0.08441708 -0.0041437484 -0.08377371
0.023598814 -0.037577186 -0.107683666 0.0032266895 0.03584754 -0.04961458 0.02648453 -0.040360752
0.029134119 -0.08313695 0.011927707 0.05915797 -0.10360076 0.114050135 0.022120908 -0.11502772
-0.007368113 -0.07708797 0.049062677 -0.036691315 -0.04456684 -0.10843556 -0.004475841 -0.028886886
-0.10087197 -0.06494238 -0.029071968 -0.06809631 -0.101293 0.0034313782 -0.029666917 0.04164599
-0.056209102 0.09264732 0.100715436 -0.05837869 -0.0015200862 -0.06764043 -0.02278345 -0.0473052
-0.1025758 -0.045981698 -0.014462564 0.10966429 -0.10070737 0.06430924 0.0702965 -0.091891065
0.031088836 0.11153174 -0.09168889 -0.026872436 -0.050008845 -0.057002023 -0.032276995 -0.017584153
-0.064068854 0.08170048 -0.0625433 0.09658205 -0.090011366 -0.02534444 0.64987665 -0.5956635
-0.5619328 0.42060235 -0.16506252 0.16004097 -0.31916386 0.14130585 0.5045381 -0.15830176
-0.13508847 0.53987044 0.8881366 0.20103717 -0.18448254 0.28438294 -0.022279492 0.111048095
0.45383692 0.16567901 0.84557426 -0.18077256 0.026557622 0.48304492 0.39606512 0.6430674
-0.40813524 -0.39830709 -0.10606748 0.03427698 -0.09613255 -0.258786 0.17373298 0.27876973
-0.19321543 -0.33891052 0.8443913 1.1593436 0.41005978 0.11384716 0.10233156 0.59691066
0.7439516 0.7373238 0.5107417 0.36463383 0.008441089 -0.0072863474 0.08469485 0.19496593
0.69298184 -0.26291192 -0.58755994 -0.2687842 0.32659552 -0.48162314 -1.0232992 -0.52511364
-0.3475489 -0.14826302 -0.9283756 -0.6082831 -0.35431343 -0.7243882 -0.27419955 -0.4295248
-0.9349353 -1.018586 -0.76573414 -0.19396165 0.27269664 -0.56641924 -0.6967032 -0.28278875
-0.19046822 -0.036810733 -0.18177119 0.29679617 0.40302965 -0.07587677 0.48988307 -0.39242572
-0.3265665 -0.07660804 0.6161669 0.07502356 -0.10780913 0.104462214 -0.4699872 0.3073435
0.21710669 0.18658336 0.17948814 -0.022390194 -0.60731065 -0.529239 0.12886296 -0.14460051
0.5071025 0.14368923 -0.7455021 -0.3506892 0.41905832 0.7599076 0.6582446 0.18697542
00000000: 1d9a dc3f 8972 3dbe 4891 afbf 7f83 34bc
00000010: 1a77 063f d359 17be 5661 48bf e1b6 a23e
00000020: f1ea 243f ce39 8e3b f1a0 a0bf 6944 0e3e
00000030: e454 7a3f b74e 3cbf cedc 11bf 3008 eabe
00000040: 2397 64bf 2561 b2be 6103 b5bc 08c1 683e
00000050: ea3f 1cbe 78f7 cbbe b2d3 4bbe 820a ba3e
00000060: e025 053e 95ad 593f 4822 47bf 9d12 bdbf
00000070: 0217 01bd c589 f03e 9c7f c0be 4c93 55bf
00000080: c768 0f3f 850f 6e3f 54a5 233e c63f 4fbf
00000090: 6e77 473f 63c0 ec3f c664 89be 0f24 4fbe
000000a0: 1d9a e93d 55dd dcbd e147 873e 3ad9 323e
000000b0: 6e1e 463f ab9c 203e 8e91 58be a551 00be
000000c0: bc24 6f3e dffe e53e 1ea2 8d3f df98 93be
000000d0: 89f8 82bf 2134 f23e 36e8 c43e bd92 0ebd
000000e0: 048a d0be 0226 043f c3e2 283f b951 14bf
000000f0: 8ae8 10bf af27 8a3f e7cc b93f f1d2 89bf
00000100: 0475 94bf 1955 0f3f 8d70 c03c bd10 f4be
00000110: b78c 64bf ab4a 43be 7426 253f e6e6 3c3d
00000120: 4046 b7be eb74 c1be 582b bbbe 5500 483c
00000130: 44ca afbd 2d38 4c3d ebff 0b3c a4fe 9d3d
00000140: 8c6f a33d 4024 a7bc 90c9 b3bd 9323 18bd
00000150: e83c cb3d dde2 acbd 48c8 87bb 8d91 abbd
00000160: 4d52 c13c 89ea 19bd 4189 dcbd de76 533b
00000170: dfd4 123d a838 4bbd 16f6 d83c 5151 25bd
00000180: adaa ee3c b543 aabd 6e6c 433c a14f 723d
00000190: a32c d4bd 1e93 e93d e836 b53c a793 ebbd
000001a0: 3670 f1bb 4ce0 9dbd f2f5 483d a249 16bd
000001b0: b88b 36bd 7613 debd 13aa 92bb 31a4 ecbc
000001c0: f795 cebd 8300 85bd 5628 eebc 1476 8bbd
000001d0: b472 cfbd f9e0 603b 0908 f3bc fc94 2a3d
000001e0: 843b 66bd e1bd bd3d e543 ce3d 7e1e 6fbd
000001f0: a13d c7ba 1187 8abd 5ca4 babc 19c3 41bd
00000200: 4313 d2bd 4e57 3cbd 64f4 6cbc ac97 e03d
00000210: aa3f cebd 90b4 833d 9df7 8f3d 6231 bcbd
00000220: 04ae fe3c c16a e43d 62c7 bbbd 9523 dcbc
00000230: 13d6 4cbd f47a 69bd e234 04bd a40c 90bc
00000240: 8836 83bd 9552 a73d b416 80bd cfcc c53d
00000250: e157 b8bd 259f cfbc 515e 263f 677d 18bf
00000260: d4da 0fbf 3159 d73e 2606 29be c8e1 233e
00000270: 7269 a3be 7bb2 103e 6929 013f db19 22be
00000280: a254 0abe f334 0a3f ec5c 633f b0dc 4d3e
00000290: fee8 3cbe a49a 913e 7b83 b6bc 2f6d e33d
000002a0: 505d e83e c2a7 293e 8e77 583f 711c 39be
000002b0: 5f8f d93c aa51 f73e 0cc9 ca3e 11a0 243f
000002c0: 1af7 d0be e8ee cbbe e839 d9bd 0566 0c3d
000002d0: 24e1 c4bd 997f 84be 0fe7 313e e8ba 8e3e
000002e0: 44da 45be ae85 adbe 072a 583f 5f65 943f
000002f0: 5bf3 d13e b328 e93d 3593 d13d 23cf 183f
00000300: 9d73 3e3f 41c1 3c3f f8bf 023f 49b1 ba3e
00000310: 7e4c 0a3c 50c2 eebb 7e74 ad3d 26a5 473e
00000320: 4267 313f 649c 86be 546a 16bf 159e 89be
00000330: 8737 a73e 4f97 f6be 78fb 82bf d96d 06bf
00000340: eef1 b1be 43d2 17be 06aa 6dbf 71b8 1bbf
00000350: 9268 b5be 8171 39bf e263 8cbe adea dbbe
00000360: eb57 6fbf 0761 82bf 2707 44bf e29d 46be
00000370: e59e 8b3e da00 11bf 245b 32bf b0c9 90be
00000380: 1a0a 43be dac6 16bd 3a22 3abe abf5 973e
00000390: e759 ce3e 4865 9bbd f4d1 fa3e 06ec c8be
000003a0: b933 a7be ade4 9cbd 1dbd 1d3f f4a5 993d
000003b0: 08cb dcbd 49f0 d53d 2aa2 f0be 215c 9d3e
000003c0: 3751 5e3e b50f 3f3e bdcb 373e a46b b7bc
000003d0: b678 1bbf 357c 07bf a7f4 033e 2812 14be
000003e0: 78d1 013f 4523 133e 3ad9 3ebf 898d b3be
000003f0: d08e d63e 4e89 423f b882 283f 7c76 3f3e

conv1.bias f4 [64]
-0.10209945 -0.07011717 0.26596048 -0.198943 -0.29845363 0.4668665 -0.6778486 -0.031469002
0.28411114 -0.06344121 -0.02748152 -0.016618444 0.07263143 -0.7340933 -0.81235874 0.5809305
-0.7903842 0.20433322 0.020076703 0.24102926 -0.97126347 -3.8411653 0.0037172225 0.8860307
0.9450192 -0.08118757 -0.017088396 1.6168126 0.21652222 -0.16355176 0.3844704 -0.1810526
0.76919246 -0.32176962 0.47255608 0.3686634 -0.3540297 -0.028545111 0.0150429355 -0.006417712
1.0925387 0.15184337 0.92542374 0.32727608 -0.1735298 -0.05559277 0.36294195 1.4857528
0.068620026 -0.6789763 0.06513085 -0.49867934 0.169639 0.36132783 -4.6933703 0.18233846
-1.0386732 -0.107173726 0.18867037 0.5618689 -1.3189731 0.8903861 0.24992594 1.3758341
00000000: 8419 d1bd 9799 8fbd f92b 883e b7b7 4bbe
00000010: eace 98be 2009 ef3e 7c87 2dbf a4e5 00bd
00000020: 0477 913e 77ed 81bd ed20 e1bc 6723 88bc
00000030: cabf 943d 8aed 3bbf bef6 4fbf dcb7 143f
00000040: 9e56 4abf ba3c 513e e677 a43c 60d0 763e
00000050: b9a4 78bf a7d5 75c0 a59c 733b e8d2 623f
00000060: c7ec 713f ab45 a6bd f7fc 8bbc b7f3 ce3f
00000070: 00b8 5d3e 1d7a 27be 4ed9 c43e da65 39be
00000080: cce9 443f fdbe a4be dff2 f13e 73c1 bc3e
00000090: 6143 b5be 70d7 e9bc a576 763c ac4b d2bb
000000a0: 4fd8 8b3f d47c 1b3e 92e8 6c3f bb90 a73e
000000b0: ccb1 31be 3fb5 63bd 87d3 b93e 262d be3f
000000c0: a888 8c3d 64d1 2dbf 5363 853d e652 ffbe
000000d0: d9b5 2d3e f6ff b83e 1730 96c0 efb6 3a3e
000000e0: 3ef3 84bf e67d dbbd ce32 413e a4d6 0f3f
000000f0: 1cd4 a8bf 58f0 633f 96ec 7f3e 551b b03f

conv2.weight f4 [32, 64, 5, 5]
0.35971996 0.51452357 0.17708072 0.1045787 -0.13621144 0.06266691 0.12407878 -0.1762713
-0.13561854 -0.22454102 0.14114836 -0.23012042 -0.011338356 0.40412417 -0.5732435 -0.07475636
0.5052678 -0.4162349 0.085792825 0.03645627 -0.02089382 -0.33987764 -0.12059395 -0.33988023
-0.0047929822 0.29037613 0.2852589 0.2970618 0.28836703 0.2909161 0.2717437 0.2787184
0.2862478 0.29772365 0.284294 0.2854007 0.27816248 0.29783762 0.2750944 0.28652236
0.2702958 0.27729696 0.2846173 0.28765738 0.28467253 0.2926139 0.275864 0.2641846
0.27597713 0.2776482 0.014590024 -0.09223033 0.5237077 0.3425762 -0.06876165 -0.28662527
0.05173303 0.03538092 -0.11050294 0.24180076 -0.078745574 0.08453667 -0.050600715 -0.3100094
-0.68540895 -0.019058881 0.37001345 0.43231001 0.1099813 -0.2324135 -0.1114175 0.0888615
-0.1615847 -0.26328394 -0.19226883 -0.045973822 -0.47342932 0.043730326 -0.10396782 0.5444514
-0.2181231 -0.4830759 0.16289994 -0.16482699 -0.36962283 -0.23719208 -0.051691912 0.16287576
-0.18532543 0.28928787 0.6044818 0.10496051 0.04793537 -0.10060527 0.34439507 0.12729964
0.28471047 -0.081639625 0.01017963 -0.29652658 0.013173753 -0.036093052 0.096779644 0.29143307
0.058958292 -0.20480542 -0.21815066 0.019298488 0.30910146 0.44053918 -0.050992835 -0.034387838
-0.26661506 -0.49159193 -0.048495423 0.09194878 -0.07966194 -0.15987015 0.2570019 0.76498526
-0.16591603 -0.7074695 -0.31340873 0.20795254 0.23653989 0.41663 -0.10441065 0.20394301
0.45152315 -0.09985888 -0.16318862 -0.29752046 0.19835918 -0.15185338 -0.29638162 -0.022508822
-0.22025372 -0.011637155 -0.18635534 0.07058721 0.18112703 0.75355357 0.12331672 0.13174126
0.1717945 0.065784045 -0.15767217 -0.6123615 0.14389688 0.14062895 -0.040308405 -0.22861777
-0.39026546 -0.02735092 0.15467878 -0.24308184 -0.5399901 -0.12915133 -0.007973935 0.3161737
0.45887417 0.14884533 0.4730425 -0.2429313 -0.2548444 0.003957099 0.14086078 0.13676319
0.08926382 1.0351957 -0.39933077 -0.37743273 -0.08937901 0.23368542 -0.5673771 -0.067092665
-0.39013472 0.090086 -0.053591706 0.27137005 -0.083895676 0.06307411 0.050167516 -0.38013148
0.5542332 -0.24495725 0.1866719 -0.28761744 -0.21103881 -0.0038156065 0.011959444 -0.045295548
0.38236436 -0.28243732 0.29001626 0.29568586 0.08526387 0.5036546 -0.5705107 0.16257814
0.09893059 -0.34569693 -0.2572745 0.3275628 -0.22523174 0.30322558 -0.13595049 0.14017127
0.42308554 -0.1826469 0.43627617 -0.4346796 -0.6170368 -0.56721556 -0.34536973 -0.24112417
-0.012633936 0.22209866 0.44082466 0.11334397 0.5704087 -0.49230087 -0.27827471 0.07717092
0.13637267 0.2670315 0.2670713 0.28848082 0.272623 0.31123447 0.26715153 0.29937994
0.3026154 0.2924615 0.28697342 0.30721617 0.30289567 0.3102268 0.29736477 0.31103075
0.28719693 0.29115576 0.2769186 0.28427655 0.28250486 0.31370795 0.28778183 0.2833553
0.2915359 0.2927792 0.17362183 0.078064874 -0.0020412179 -0.08280034 0.086156294 0.03600062
00000000: 372d b83e d1b7 033f a654 353e 5c2d d63d
00000010: 037b 0bbe 8257 803d 041d fe3d 7780 34be
00000020: 96df 0abe 15ee 65be 3289 103e b0a4 6bbe
00000030: 83c4 39bc 5de9 ce3e 16c0 12bf dd19 99bd
00000040: 3b59 013f be1c d5be 26b4 af3d 2b53 153d
00000050: 8429 abbc 7104 aebe f6f9 f6bd c804 aebe
00000060: 730e 9dbb 2eac 943e 740d 923e 7c18 983e
00000070: d8a4 933e f4f2 943e fe21 8b3e 2eb4 8e3e
00000080: 128f 923e 3c6f 983e fc8e 913e 0a20 923e
00000090: 506b 8e3e 2c7e 983e 2cd9 8c3e 0fb3 923e
000000a0: 3664 8a3e def9 8d3e 5cb9 913e d447 933e
000000b0: 99c0 913e 7dd1 953e 0c3e 8d3e 3443 873e
000000c0: e04c 8d3e e827 8e3e ff0a 6f3c 41e3 bcbd
000000d0: b511 063f 2666 af3e e8d2 8cbd 8cc0 92be
000000e0: 03e6 533d 95eb 103d 5e4f e2bd 9e9a 773e
000000f0: 5c45 a1bd 9021 ad3d b242 4fbd 8db9 9ebe
00000100: f676 2fbf 5f21 9cbc 6772 bd3e bd57 dd3e
00000110: e03d e13d cefd 6dbe dc2e e4bd 05fd b53d
00000120: 7676 25be 27cd 86be 1fe2 44be 0c4f 3cbd
00000130: 5465 f2be 921e 333d 15ed d4bd 2b61 0b3f
00000140: a95b 5fbe b955 f7be 3ecf 263e 68c8 28be
00000150: 343f bdbe 7be2 72be e6ba 53bd e7c8 263e
00000160: f3c5 3dbe 8a1d 943e 52bf 1a3f 89f5 d63d
00000170: e157 443d 230a cebd 8d54 b03e d65a 023e
00000180: 92c5 913e ad32 a7bd 76c8 263c 55d2 97be
00000190: bad6 573c 4fd6 13bd 6834 c63d b736 953e
000001a0: 407e 713d 83b8 51be e362 5fbe dd17 9e3c
000001b0: 8c42 9e3e 5a8e e13e dddd 50bd 43da 0cbd
000001c0: c581 88be f0b1 fbbe 23a3 46bd a44f bc3d
000001d0: cd25 a3bd 00b5 23be c195 833e 13d6 433f
000001e0: e4e5 29be b91c 35bf 1c77 a0be 83f1 543e
000001f0: 8337 723e 8750 d53e 40d5 d5bd 70d6 503e
00000200: 0b2e e73e d082 ccbd eb1a 27be 9a54 98be
00000210: ab1e 4b3e 747f 1bbe 55bf 97be 6c64 b8bc
00000220: 318a 61be c4a9 3ebc efd3 3ebe 0790 903d
00000230: 5d79 393e e3e8 403f 7a8d fc3d 2ee7 063e
00000240: e6ea 2f3e c9b9 863d d074 21be b9c3 1cbf
00000250: b459 133e 0901 103e 6d1a 25bd c71a 6abe
00000260: e0d0 c7be 090f e0bc 1d64 1e3e 72ea 78be
00000270: cb3c 0abf 3f40 04be 1ca5 02bc 85e1 a13e
00000280: 8ef1 ea3e e96a 183e a032 f23e fcc2 78be
00000290: f77a 82be 8daa 813b cf3d 103e a60b 0c3e
000002a0: f3cf b63d 4b81 843f 1575 ccbe dd3e c1be
000002b0: 580c b7bd 3b4b 6f3e a03f 11bf e167 89bd
000002c0: bdbf c7be 027f b83d fa82 5bbd 04f1 8a3e
000002d0: 7fd1 abbd 002d 813d 747c 4d3d 98a0 c2be
000002e0: 3ae2 0d3f 13d6 7abe eb26 3f3e 9842 93be
000002f0: 8f1a 58be 410f 7abb 8bf1 433c d387 39bd
00000300: 43c5 c33e a09b 90be 037d 943e 2364 973e
00000310: d39e ae3d 82ef 003f fd0c 12bf e27a 263e
00000320: 1f9c ca3d 30ff b0be 7cb9 83be 50b6 a73e
00000330: 26a3 66be 6240 9b3e 9b36 0bbe 0f89 0f3e
00000340: ab9e d83e ca07 3bbe 975f df3e 538e debe
00000350: 20f6 1dbf 0a35 11bf 4dd4 b0be 41e9 76be
00000360: 91fe 4ebc d56d 633e c5b3 e13e e220 e83d
00000370: 4e06 123f dc0e fcbe 067a 8ebe ca0b 9e3d
00000380: 47a5 0b3e 5ab8 883e 92bd 883e c2b3 933e
00000390: 3e95 8b3e 205a 9f3e 16c8 883e 5448 993e
000003a0: 68f0 9a3e 84bd 953e 2eee 923e 704b 9d3e
000003b0: 2415 9b3e 0cd6 9e3e 3240 983e 6c3f 9f3e
000003c0: 7a0b 933e 5e12 953e 46c8 8d3e b28c 913e
000003d0: 7aa4 903e 549e a03e 2458 933e f213 913e
000003e0: 3244 953e 28e7 953e ecc9 313e 7ae0 9f3d
000003f0: f4c5 05bb 3a93 a9bd b672 b03d 6375 133d

conv2.bias f4 [32]
-0.3086124 -0.1832352 -0.19058888 -0.18256307 -0.16313376 -0.20935827 -0.16820432 -0.15630217
-0.204476 -0.15946099 -0.2640666 -0.26152155 -0.14437726 -0.23513803 -0.12999912 -0.2394332
-0.17219171 -0.13556643 -0.30754942 -0.1817406 -0.3074205 -0.22457983 -0.20564987 -0.23557809
-0.20092393 -0.27601993 -0.22910565 -0.11988302 -0.28020477 -0.24770783 -0.1950593 -0.2442148
00000000: 7202 9ebe 02a2 3bbe bb29 43be d0f1 3abe
00000010: 890c 27be 0462 56be c13d 2cbe ad0d 20be
00000020: 2862 51be be49 23be bd33 87be 27e6 85be
00000030: a2d7 13be 06c8 70be 7d1e 05be fa2d 75be
00000040: 0653 30be edd1 0abe 1e77 9dbe 351a 3abe
00000050: 3866 9dbe 41f8 65be e195 52be 623b 71be
00000060: 01bf 4dbe 7c52 8dbe ac9a 6abe 3b85 f5bd
00000070: 0077 8fbe 1fa7 7dbe a0bd 47be 7213 7abe

fc1.weight f4 [384, 32]
-0.56434166 0.029782595 0.04455818 -0.2982671 -0.46200487 0.010935203 -0.0669603 -0.2876731
-0.07669538 -1.152873 -0.22124787 -0.27753022 -0.26459265 -0.23606089 0.22436184 -0.1290469
-0.3555102 -0.29501298 -0.49785954 -0.3377106 0.28609705 -0.21474455 0.24228096 -0.2943754
0.29430997 -0.14853126 0.17005117 0.27484873 -0.2570155 0.3041063 -0.6568519 0.05655719
-0.011112001 -0.44298044 -0.17173874 -0.45973885 -0.41363886 -0.32822013 -0.013428526 -0.4556661
-0.0046231337 0.53872246 0.032260865 -0.26993456 -0.28647786 -0.014328288 -0.7659455 0.70929885
-0.22745468 0.13615926 0.23078083 0.18481626 -0.020529507 -0.2969262 -0.23719558 -0.46116036
-0.33926073 -0.344818 -0.52130127 -0.052411426 -0.064595364 -0.27623206 -0.44765925 0.06427419
-0.13519269 -0.2614945 0.019085065 -0.67672145 -0.05984266 0.14382514 -0.11920415 0.036082845
0.1804026 -0.95018196 -0.20285828 -0.24002132 -0.2652639 0.25485516 0.15297887 -0.5412805
-0.79759336 -0.5528916 -0.13694687 -0.32065985 0.42037308 0.20647267 0.113143854 0.13542141
-0.72546315 -0.9370589 -0.1315037 -0.28105494 0.14547606 -0.06564413 0.0763882 -0.14095624
-0.33859962 -0.37989625 -0.00070140616 0.00046927013 0.15902779 -0.3018334 -0.00078176195 0.20021549
0.21377496 -0.18052554 -0.271562 -0.22894783 -0.21419619 -0.5783978 -0.77578366 -0.69050616
-0.06998338 0.36142138 -0.45183724 0.16956572 -0.3939446 -0.057376854 0.2309277 -0.24952014
-0.1423708 0.08744532 -0.39097252 -0.51188177 0.0073257796 0.217388 -0.5821768 0.40128422
-0.15779442 -0.096050344 -0.37193835 0.22752114 0.06520725 -0.95927304 0.2977653 -0.4443201
0.28075445 -0.29906535 -0.35657173 -1.1926124 -0.4669925 0.24656348 0.13993722 0.3844948
-0.29077962 -0.21399705 -0.5726553 -0.2465919 -0.41756463 -0.2467108 -0.4280129 0.0056693275
-0.39863145 0.14313659 -0.50654197 0.46353242 -0.43874508 -0.5805572 -0.031313 -0.052682128
-0.3754372 -0.3265731 -0.19220336 0.073134296 0.32832897 0.51025844 0.42098287 -0.24467534
-0.15375422 0.29138857 0.10091834 -0.8135906 -0.2660414 -0.2172107 -0.45753264 -0.65897524
-0.16425504 -0.14252038 0.017204933 -0.63160896 -0.48904085 -0.058650333 -0.08063183 0.15601888
0.10970773 -0.3950426 0.24349886 -0.6801295 -0.8755668 -0.33346978 -0.30068722 -0.36568293
0.25464278 -0.23506306 -0.49436322 -0.22068208 -0.15730608 0.3494751 -0.1818173 -0.9167937
-0.27478412 -0.18605235 -0.36899796 0.025656847 -0.5223893 0.18276699 0.03963493 0.16350843
0.17249976 0.086313404 0.45452672 -0.5384851 -0.31518963 -0.32736206 -0.08689084 -0.26789656
0.29165277 -0.09934861 -0.37112752 0.2609366 0.52941144 -0.18714757 -0.09660323 -0.35611278
0.38534325 0.2742219 -0.36070883 -0.038632195 -0.54868054 -0.18328953 -0.03243763 -0.31705415
-1.0019348 -1.044866 -0.07909095 -0.013129817 -0.44615385 -0.69121474 0.48346552 -0.23035775
-0.07907827 -0.31937993 -0.20169875 -0.37173492 -0.23056474 -0.21312301 -0.21379067 -0.16963273
0.24466652 0.24633576 0.14001676 0.004309638 -0.14667207 0.3766476 -0.1298423 -0.2137032
00000000: b278 10bf a1fa f33c a382 363d 77b6 98be
00000010: e78b ecbe 9129 333c 7b22 89bd e349 93be
00000020: 7812 9dbd 5891 93bf cd8e 62be 7118 8ebe
00000030: b078 87be f2b9 71be 1cbf 653e df24 04be
00000040: 6f05 b6be f10b 97be 72e7 febe 67e8 acbe
00000050: 507b 923e ffe5 5bbe 8018 783e 5fb8 96be
00000060: ccaf 963e 9418 18be e521 2e3e f9b8 8c3e
00000070: 8997 83be d2b3 9b3e 7227 28bf 83a8 673d
00000080: 1c0f 36bc 55ce e2be 48dc 2fbe e462 ebbe
00000090: 79c8 d3be 780c a8be 5203 5cbc 114d e9be
000000a0: a87d 97bb b7e9 093f f823 043d dd34 8abe
000000b0: 3aad 92be 32c1 6abc 0115 44bf 9c94 353f
000000c0: e1e9 68be 556d 0b3e cf51 6c3e 7940 3d3e
000000d0: 7f2d a8bc b606 98be 66e3 72be 361d ecbe
000000e0: 95b3 adbe fc8b b0be 0074 05bf 5dad 56bd
000000f0: 934a 84bd 4a6e 8dbe 9833 e5be 30a2 833d
00000100: f46f 0abe 9be2 85be 4858 9c3c 9e3d 2dbf
00000110: 941d 75bd e646 133e 4e21 f4bd 9bcb 133d
00000120: 76bb 383e 203f 73bf 15ba 4fbe 26c8 75be
00000130: abd0 87be 607c 823e 7ea6 1c3e 5c91 0abf
00000140: 142f 4cbf 4e8a 0dbf cd3b 0cbe 872d a4be
00000150: 243b d73e 926d 533e f7b7 e73d e9ab 0a3e
00000160: f4b7 39bf 18e3 6fbf e8a8 06be 6fe6 8fbe
00000170: adf7 143e 6e70 86bd 6b71 9c3d d556 10be
00000180: ee5c adbe c381 c2be 92de 37ba 5f08 f639
00000190: 2ed8 223e e889 9abe 28ef 4cba 4a05 4d3e
000001a0: d3e7 5a3e b0db 38be 2d0a 8bbe 4d71 6abe
000001b0: 3f56 5bbe e111 14bf c299 46bf 03c5 30bf
000001c0: 7253 8fbd 390c b93e 3657 e7be a3a2 2d3e
000001d0: 1bb3 c9be fe03 6bbd 5078 6c3e 3582 7fbe
000001e0: a7c9 11be 8816 b33d 8d2d c8be af0a 03bf
000001f0: 180d f03b f69a 5e3e 8a09 15bf 2075 cd3e
00000200: dc94 21be 0bb6 c4bd b46e bebe 4dfb 683e
00000210: 618b 853d eb92 75bf b274 983e ed7d e3be
00000220: 0cbf 8f3e 181f 99be 9290 b6be 86a7 98bf
00000230: a419 efbe 237b 7c3e b44b 0f3e 81dc c43e
00000240: 11e1 94be 0b22 5bbe 8a99 12bf 9682 7cbe
00000250: 08cb d5be c2a1 7cbe 8224 dbbe c4c5 b93b
00000260: 6c19 ccbe 6692 123e bcac 01bf 1f54 ed3e
00000270: 32a3 e0be 669f 14bf 0f42 00bd 37c9 57bd
00000280: 4e39 c0be 9734 a7be f5d0 44be 6fc7 953d
00000290: bc1a a83e 4ca0 023f 118b d73e 2c8c 7abe
000002a0: bf71 1dbe e230 953e 46ae ce3d 7947 50bf
000002b0: 9436 88be 7b6c 5ebe b841 eabe 9ab2 28bf
000002c0: 7932 28be ddf0 11be 5cf1 8c3c 20b1 21bf
000002d0: 9063 fabe 553b 70bd 4d22 a5bd 6ac3 1f3e
000002e0: 72ae e03d 0643 cabe c457 793e f81c 2ebf
000002f0: 2525 60bf 8dbc aabe adf3 99be cb3a bbbe
00000300: 8a60 823e 5fb4 70be 2d1d fdbe 7cfa 61be
00000310: d814 21be 66ee b23e 502e 3abe feb2 6abf
00000320: 81b0 8cbe 8284 3ebe 4ded bcbe 4f2e d23c
00000330: 4ebb 05bf 4527 3b3e 3d58 223d c16e 273e
00000340: c7a3 303e 15c5 b03d bab7 e83e 29da 09bf
00000350: 8960 a1be 009c a7be d3f3 b1bd bd29 89be
00000360: 8353 953e 4977 cbbd 6d04 bebe 7b99 853e
00000370: 8287 073f 9da3 3fbe ead7 c5bd 6a54 b6be
00000380: b64b c53e d066 8c3e d4ae b8be cb3c 1ebd
00000390: 5476 0cbf 40b0 3bbe 52dd 04bd ec54 a2be
000003a0: 663f 80bf 2bbe 85bf 70fa a1bd 721e 57bc
000003b0: 476e e4be 73f3 30bf cb88 f73e e7e2 6bbe
000003c0: caf3 a1bd c485 a3be 1e8a 4ebe 0a54 bebe
000003d0: 2a19 6cbe eb3c 5abe f1eb 5abe 34b4 2dbe
000003e0: dc89 7a3e 713f 7c3e 8e60 0f3e dd37 8d3b
000003f0: 3431 16be f4d7 c03e 61f5 04be 03d5 5abe

fc1.bias f4 [384]
-0.16293167 -0.16980287 -0.0006965674 -0.119736604 0.15524578 0.21955977 0.01219143 -0.21884708
-0.12777823 -0.1313046 -0.1861108 0.0045402176 -0.29546845 0.12781574 -0.00574576 -0.23908082
0.06570096 -0.09129942 -0.015415046 0.1302552 -0.109775126 0.17047098 -0.043406222 -0.03308025
0.08845368 -0.124170005 0.14737183 0.0083149485 0.123755075 -0.082216166 0.14037442 -0.1406923
-0.10611724 -0.26554158 -0.2533226 -0.10627381 0.13991007 0.005253944 -0.0054798285 -0.21180134
0.046884287 0.12242565 -0.38069883 -0.052536495 -0.38950816 0.08799035 -0.03300755 -0.12151276
-0.23948193 -0.25605533 -0.2187078 -0.30047676 -0.021658713 0.049752563 -0.01682242 0.16542715
-0.11315641 -0.0024722302 -0.1357367 -0.2583971 0.09621479 0.0066320663 -0.10344964 -0.29300123
0.1919369 -0.42723423 -0.11481285 -0.1900562 0.3635482 -0.03353776 -0.23033838 -0.24230629
-0.116358876 0.21580379 -0.0442578 -0.1611124 -0.2785759 -0.13508616 0.009632577 -0.04347029
-0.047976404 -0.13339415 -0.0109882625 -0.23492242 -0.01258928 -0.27689674 -0.05430897 0.0591535
0.16761868 -0.04658086 0.09910464 0.14388877 0.10229962 -0.12254167 -0.23062678 -0.20739062
0.013539577 -0.08808637 -0.086991355 -0.18484713 -0.006611758 0.069793954 -0.08793619 0.07952761
0.046995617 0.05154913 0.028767293 -0.076997295 -0.36283946 0.06899612 0.25451377 -0.21892367
0.099545516 0.046862066 0.21634267 -0.021970768 -0.1104912 -0.36585644 0.11294003 0.27542818
-0.016070316 -0.26807514 -0.21061334 0.040776312 -0.08751866 -0.11812759 -0.13233641 -0.07571393
0.29034197 0.024004977 -0.014371877 -0.21958636 0.11231533 0.20763737 -0.06529946 -0.16627936
0.08414944 -0.12404922 -0.029000666 -0.09681318 0.26914975 -0.1832856 -0.062173583 -0.31982914
0.18838657 -0.22190101 -0.07329872 -0.13731281 -0.06367515 0.28471622 -0.1450265 0.08655807
0.06969823 0.028114665 -0.18207118 -0.033232503 0.031106347 -0.1038809 -0.08860667 0.089405224
-0.022868581 0.051163808 0.05358374 -0.075525254 -0.11378824 0.023893885 -0.058534652 -0.19170764
-0.29671374 0.12600547 0.108104415 0.08821982 0.20042965 0.19566151 -0.16617042 -0.1498612
0.010219417 -0.19483216 -0.11057616 0.06869501 0.16646035 0.07870189 -0.29620007 -0.08539427
-0.07198914 0.23757185 -0.14305022 -0.28069973 0.09489324 0.095768675 0.1344137 0.06451533
-0.108830914 -0.21983865 -0.16651313 0.06362401 -0.17607582 -0.31612456 0.02302417 -0.036984112
-0.15168819 0.083706334 0.39473912 -0.24050538 0.14742613 -0.11553049 0.104036324 -0.12920327
-0.056337737 -0.09661277 -0.16366047 -0.16216104 -0.11849889 -0.05813194 0.026919574 -0.17968443
-0.24135116 -0.083601244 -0.11963116 0.013286135 -0.16421337 -0.06840012 -0.24606438 -0.06433021
0.13161631 -0.15856706 0.028301658 0.02192634 0.034974683 0.064703114 0.14648505 -0.08838618
0.16554455 -0.030468373 -0.06995952 -0.2691426 -0.06545215 -0.1876105 -0.1382598 -0.23700307
-0.013450267 0.03663403 0.19814631 -0.04831176 -0.030652313 0.048468623 -0.16865748 0.06484707
-0.0031371024 0.0006986022 -0.13820711 -0.12656777 -0.10328547 -0.23345333 -0.0667674 -0.19686665
00000000: 8fd7 26be cee0 2dbe d999 36ba 7738 f5bd
00000010: c0f8 1e3e 47d4 603e 90be 473c 7319 60be
00000020: 4cd8 02be b774 06be d493 3ebe 1bc6 943b
00000030: a447 97be 21e2 023e ee46 bcbb 9ad1 74be
00000040: 3a8e 863d 31fb babd 648f 7cbc 9f61 053e
00000050: c8d1 e0bd f28f 2e3e b9ca 31bd 287f 07bd
00000060: 3427 b53d d84c febd a4e8 163e 6c3b 083c
00000070: 4d73 fd3d f360 a8bd 50be 0f3e a411 10be
00000080: ff53 d9bd 11f5 87be 80b3 81be 15a6 d9bd
00000090: 9644 0f3e 4729 ac3b 2290 b3bb 73e2 58be
000000a0: bd09 403d 4dba fa3d f5ea c2be 8230 57bd
000000b0: 9d6d c7be 4934 b43d ed32 07bd afdb f8bd
000000c0: c03a 75be af19 83be f0f4 5fbe 17d8 99be
000000d0: 9d6d b1bc 58c9 4b3d 2ccf 89bc bc65 293e
000000e0: 8cbe e7bd 2405 22bb 90fe 0abe a04c 84be
000000f0: 430c c53d ce51 d93b 68dd d3bd 4204 96be
00000100: 1b8b 443e 72be dabe 0023 ebbd 189e 42be
00000110: fd22 ba3e e45e 09bd d3dd 6bbe 241f 78be
00000120: 904d eebd abfb 5c3e ab47 35bd a6fa 24be
00000130: 80a1 8ebe 0754 0abe f5d1 1d3c e70d 32bd
00000140: e882 44bd 7a98 08be 1d08 34bc 818f 70be
00000150: 4443 4ebc 69c5 8dbe 1573 5ebd f14a 723d
00000160: 3ba4 2b3e 92cb 3ebd 60f7 ca3d 9457 133e
00000170: 7782 d13d 21f7 fabd 6d29 6cbe 355e 54be
00000180: 1ad5 5d3c a066 b4bd 8628 b2bd 9148 3dbe
00000190: 72a7 d8bb 22f0 8e3d e417 b4bd 5fdf a23d
000001a0: 7a7e 403d 2e25 533d 63a9 eb3c c2b0 9dbd
000001b0: 18c6 b9be d64d 8d3d a14f 823e 872d 60be
000001c0: 85de cb3d 70f2 3f3d ef88 5d3e 0afc b3bc
000001d0: 3649 e2bd 8951 bbbe 1a4d e73d ec04 8d3e
000001e0: e5a5 83bc 2541 89be 06ab 57be 1005 273d
000001f0: fc3c b3bd e1ec f1bd 3283 07be e80f 9bbd
00000200: b4a7 943e 16a6 c43c 0578 6bbc 3fdb 60be
00000210: 9405 e63d e49e 543e b9bb 85bd 2345 2abe
00000220: 8b56 ac3d 840d febd ce92 edbc fd45 c6bd
00000230: ffcd 893e 38af 3bbe baa9 7ebd a5c0 a3be
00000240: 69e8 403e 053a 63be a41d 96bd bb9b 0cbe
00000250: 1e68 82bd 53c6 913e d481 14be 5b45 b13d
00000260: f2bd 8e3d ba50 e63c de70 3abe ce1e 08bd
00000270: bdd2 fe3c 82bf d4bd 6a77 b5bd 161a b73d
00000280: e456 bbbc 2491 513d a07a 5b3d fcac 9abd
00000290: cf09 e9bd 1cbd c33c 08c2 6fbd 024f 44be
000002a0: ddea 97be 9407 013e d965 dd3d 98ac b43d
000002b0: 6e3d 4d3e 7e5b 483e 9428 2abe 3775 19be
000002c0: 576f 273c 1582 47be c175 e2bd f8af 8c3d
000002d0: 9574 2a3e 752e a13d 89a7 97be 31e3 aebd
000002e0: 0b6f 93bd 0946 733e c27b 12be e0b7 8fbe
000002f0: 6357 c23d 5e22 c43d bfa3 093e 9d20 843d
00000300: bee2 debd 621d 61be 6b82 2abe 4e4d 823d
00000310: 384d 34be 14db a1be 2f9d bc3c a77c 17bd
00000320: 2654 1bbe 3a6e ab3d 3f1b ca3e 0b47 76be
00000330: e0f6 163e 409b ecbd ff10 d53d dd4d 04be
00000340: 66c2 66bd eadc c5bd 9c96 27be 8b0d 26be
00000350: 8caf f2bd c21b 6ebd 7086 dc3c 32ff 37be
00000360: c224 77be 2137 abbd 2e01 f5bd 17ae 593c
00000370: 8d27 28be 5d15 8cbd 4df8 7bbe 8fbf 83bd
00000380: 6dc6 063e 675f 22be e1d8 e73c de9e b33c
00000390: 9d41 0f3d 1183 843d 2d00 163e d003 b5bd
000003a0: 8384 293e cf98 f9bc f046 8fbd 0fcd 89be
000003b0: c70b 86bd f81c 40be fa93 0dbe efb0 72be
000003c0: 825e 5cbc 910d 163d dee6 4a3e 8de2 45bd
000003d0: 8f1a fbbc 0987 463d 8cb4 2cbe 8ace 843d
000003e0: d897 4dbb 6622 373a 2a86 0dbe fb9a 01be
000003f0: 5587 d3bd 640e 6fbe 59bd 88bd 6997 49be

fc2.weight f4 [192, 384]
-0.15159132 0.060181227 0.043991037 -0.15244065 0.05992901 0.044916246 0.088972956 -0.17399974
0.0002800335 -0.036480732 -0.029495906 -0.07204525 -0.064055234 -0.1325572 0.017001564 0.053941317
0.0016634987 0.0029654205 0.02484236 -0.22493199 0.16319382 -0.10321406 -0.05348166 -0.2596573
-0.13971764 -0.15585272 -0.033222105 -0.019976111 -0.22646317 -0.09803343 -0.16194366 -0.11818636
-0.3009232 -0.42721882 -0.053773742 -0.11104903 0.065274194 -0.15423958 -0.08845969 -0.14896409
-0.18615729 -0.109638214 0.09985325 -0.4116849 -0.0051646503 0.11209312 -0.27923745 -0.036294524
-0.30764017 -0.21529715 -0.16752522 0.014323231 -0.09745935 0.04179044 -0.1855379 -0.016282793
-0.14635795 -0.06108819 -0.23065169 -0.14875498 -0.19752972 -0.01433734 -0.036072362 0.21183485
-0.12256991 -0.24416766 -0.024178442 -0.12899244 0.13779354 -0.0048882836 0.17284997 0.0021795933
0.07655584 -0.20995112 -0.23533644 -0.21160428 -0.23928025 -0.08992768 -0.0744737 -0.19901647
-0.087107144 -0.14585418 -0.14533219 0.023306115 -0.19142069 -0.016910966 -0.08653378 0.00508483
-0.0630656 0.032425225 -0.19738883 -0.19008353 -0.04086024 -0.08620799 -0.06661972 -0.2717369
-0.07929602 -0.13132493 -0.08648413 0.018115805 0.018425303 -0.0516477 -0.026937366 0.021335032
-0.12686373 0.03174085 0.07087834 -0.077375434 -0.07110893 -0.12762465 0.20273528 -0.25026444
-0.05103765 -0.050563797 -0.12898292 -0.230465 -0.30859813 -0.19297482 0.040136624 0.20465519
-0.11687583 -0.032845054 -0.22571348 -0.19669203 -0.09765782 -0.11729181 0.022030242 -0.109787054
-0.089163646 -0.2724044 -0.011275868 -0.101559 -0.16269767 0.016710557 -0.17279151 -0.10454155
-0.05136989 -0.12985525 -0.05497425 0.083429575 -0.113883495 0.01777524 -0.04651393 -0.07933267
-0.031010928 0.016706655 -0.23561758 0.028965974 -0.07306292 0.11213016 -0.28374922 -0.19018881
-0.06548937 -0.037349965 -0.1680781 -0.03725185 -0.122779764 -0.15398875 0.103302084 -0.14341901
0.033459097 -0.11621737 0.03909933 -0.2115991 -0.19708087 -0.3083448 -0.21181561 0.0008950273
-0.20051378 -0.12127025 0.1068856 -0.018988486 0.078777924 -0.016632088 0.04312324 -0.0023666162
-0.1816735 -0.017306402 -0.2117067 -0.056518227 0.023228584 -0.1901222 -0.060439054 0.121024504
-0.035677634 -0.098300144 -0.12984046 -0.20308171 0.16083424 -0.16894662 -0.11710624 -0.2067956
-0.12070549 -0.04646227 -0.26067618 0.2610606 0.07589931 -0.17174454 -0.07550414 -0.18905729
-0.090761155 -0.10947134 -0.060144283 -0.09306747 -0.110042 -0.2760117 -0.14309795 -0.1999621
-0.0634768 0.11423013 -0.1253704 0.05008278 -0.1389529 -0.19175678 0.06863089 0.0050077992
0.05710839 -0.17713939 -0.25225905 -0.06433629 -0.07742315 -0.12750977 -0.4403113 -0.17989573
-0.1162596 -0.1792161 -0.10515638 -0.1616957 -0.100983836 -0.03393803 0.114105806 -0.13413489
-0.2226014 -0.014837937 -0.08719881 0.05150871 -0.2830836 -0.0472748 -0.18109404 -0.2218188
-0.21812783 0.0361138 -0.10322019 -0.14659302 -0.23100555 -0.15894116 -0.089989424 -0.14226575
-0.113124385 -0.1766487 -0.09383488 -0.20725226 -0.25443253 -0.15497316 -0.03335835 0.007954259
00000000: c13a 1bbe 9780 763d f22f 343d 6719 1cbe
00000010: 1f78 753d 19fa 373d 7437 b63d fd2c 32be
00000020: 76d1 9239 d26c 15bd 66a1 f1bc 768c 93bd
00000030: 642f 83bd 13bd 07be dd46 8b3c 92f1 5c3d
00000040: c109 da3a 8057 423b 3482 cb3c 9254 66be
00000050: 481c 273e e561 d3bd 960f 5bbd cdf1 84be
00000060: 2412 0fbe db97 1fbe e713 08bd f1a4 a3bc
00000070: f6e5 67be c0c5 c8bd 8fd4 25be b10b f2bd
00000080: 9b12 9abe 6dbc dabe db41 5cbd ad6d e3bd
00000090: 7aae 853d fbf0 1dbe 5b2a b5bd 0b8a 18be
000000a0: 04a0 3ebe 008a e0bd dc7f cc3d 5dc8 d2be
000000b0: 3a3c a9bb 1491 e53d 36f8 8ebe 91a9 14bd
000000c0: 0383 9dbe db76 5cbe bb8b 2bbe fcab 6a3c
000000d0: c598 c7bd 742c 2b3d a6fd 3dbe 7e63 85bc
000000e0: dcde 15be 9c37 7abd f52f 6cbe 3a53 18be
000000f0: 3b45 4abe 2ae7 6abc 9dc0 13bd 3ceb 583e
00000100: ef05 fbbd 1607 7abe de11 c6bc 9816 04be
00000110: c019 0d3e e52d a0bb 95ff 303e 82d7 0e3b
00000120: 4fc9 9c3d 6dfd 56be 09fc 70be cbae 58be
00000130: e205 75be 012c b8bd ab85 98bd f9ca 4bbe
00000140: 3b65 b2bd cc5a 15be f6d1 14be 77ec be3c
00000150: c903 44be de88 8abc 9f38 b1bd a59e a63b
00000160: 8a28 81bd 50d0 043d 4c20 4abe 42a5 42be
00000170: 115d 27bd d18d b0bd eb6f 88bd 1921 8bbe
00000180: f465 a2bd 0b7a 06be 971e b1bd 9967 943c
00000190: a9f0 963c 8a8c 53bd c0ab dcbc cec6 ae3c
000001a0: 91e8 01be b202 023d aa28 913d 0377 9ebd
000001b0: 8fa1 91bd 09b0 02be d699 4f3e a922 80be
000001c0: db0c 51bd fc1b 4fbd 1914 04be 04ff 6bbe
000001d0: 9300 9ebe 319b 45be 4d66 243d 2191 513e
000001e0: 985c efbd 8988 06bd 6f21 67be a369 49be
000001f0: d300 c8bd b036 f0bd c478 b43c 09d8 e0bd
00000200: 6e9b b6bd 9778 8bbe 6bbe 38bc 2afe cfbd
00000210: 389a 26be 94e4 883c 42f0 30be e119 d6bd
00000220: 3c69 52bd c6f8 04be ae2c 61bd 20dd aa3d
00000230: c03b e9bd 619d 913c 6485 3ebd 2b79 a2bd
00000240: a10a febc 65dc 883c bc45 71be 0d4a ed3c
00000250: 03a2 95bd 7fa4 e53d 9447 91be dbc0 42be
00000260: 4a1f 86bd 47fc 18bd aa1c 2cbe 6595 18bd
00000270: f573 fbbd 3aaf 1dbe 0b90 d33d 6fdc 12be
00000280: 680c 093d 5f03 eebd 9e26 203d 6fad 58be
00000290: 91cf 49be 5fdf 9dbe 31e6 58be 44a0 6a3a
000002a0: 7c53 4dbe 895c f8bd d6e6 da3d be8d 9bbc
000002b0: 5256 a13d 0440 88bc ffa1 303d 3b19 1bbb
000002c0: 9e08 3abe 28c6 8dbc a4c9 58be a87f 67bd
000002d0: df49 be3c 65af 42be f18e 77bd b2db f73d
000002e0: b622 12bd 9651 c9bd e6f4 04be a7f4 4fbe
000002f0: bbb1 243e 5800 2dbe 65d5 efbd 3ac2 53be
00000300: 7134 f7bd 394f 3ebd 5977 85be bca9 853e
00000310: 1971 9b3d cddd 2fbe eaa1 9abd 3c98 41be
00000320: fce0 b9bd 8332 e0bd da59 76bd 289a bebd
00000330: b35d e1bd 6851 8dbe 4588 12be ddc2 4cbe
00000340: 2000 82bd 7df1 e93d 1961 00be 9a23 4d3d
00000350: ab49 0ebe e45b 44be 5a8e 8c3d 7718 a43b
00000360: 7dea 693d 0764 35be 1928 81be bfc2 83bd
00000370: 0790 9ebd ec91 02be 7c70 e1be 9636 38be
00000380: 8319 eebd 6d84 37be 3a5c d7bd 8f93 25be
00000390: 9dd0 cebd 9b02 0bbd 4eb0 e93d a85a 09be
000003a0: 9ff1 63be d21a 73bc 4a95 b2bd ccfa 523d
000003b0: 55f0 90be 38a3 41bd b770 39be 7824 63be
000003c0: e75c 5fbe 10ec 133d 1b65 d3bd 7b1c 16be
000003d0: b88c 6cbe 79c1 22be 604c b8bd 1dae 11be
000003e0: c2ad e7bd 66e3 34be 802c c0bd f039 54be
000003f0: fb44 82be 49b1 1ebe c4a2 08bd 9552 023c

fc2.bias f4 [192]
-0.22225933 -0.33855462 0.22459051 -0.16187698 -0.30746412 -0.2801696 -0.6223489 -0.3112373
-0.16444221 -0.11001931 0.20963223 0.020734752 -0.1276848 -0.2402795 0.08953071 -0.3200645
-0.22717285 -0.433146 0.075572595 -0.50040406 -0.2378247 -0.20488065 -0.2761666 -0.16255818
0.27378264 -0.23023738 -0.110776216 -0.25735617 -0.17321803 -0.2124996 -0.3307668 -0.18740885
-0.11801844 -0.24916713 -0.38225308 -0.2304544 -0.0421447 -0.08432396 0.029663408 -0.02502202
-0.025387952 0.018085321 -0.20125882 0.39229047 0.13231793 -0.14596613 0.14786552 -0.19614393
-0.08089182 0.020631174 0.31195036 -0.36918023 -0.19995357 -0.348369 -0.19886723 -0.09619901
-0.058481973 -0.22502673 -0.26338604 -0.23755653 0.0842147 -0.41680047 -0.1210711 -0.07083989
-0.16404589 -0.02796874 -0.32762358 -0.21234941 -0.27258095 -0.3239973 -0.3517253 -0.22682579
0.106405996 -0.2166864 0.20655188 -0.26492944 -0.26646823 0.032315247 -0.21576245 -0.29471266
-0.081421025 -0.23649755 0.1219096 0.27807996 -0.11078093 -0.24907984 0.052799582 -0.32228136
-0.16690089 -0.029892858 -0.31360006 -0.5884608 -0.44281045 -0.15667695 -0.23400955 0.18989994
-0.21082792 -0.2852192 -0.30167508 -0.3052653 -0.1693995 -0.1472204 -0.29888457 -0.28989434
-0.1145935 -0.18740167 -0.57710123 -0.16703501 -0.3142054 -0.24413748 -0.4291226 0.65259814
0.04515699 -0.22584476 -0.3325054 -0.10429092 -0.22846197 0.033767957 -0.21982528 -0.29797316
-0.44663227 0.42239526 -0.17174247 0.24732561 -0.15909466 -0.002827714 -0.110333815 -0.17414664
0.004780173 0.07629148 -0.14042132 0.18224692 -0.4006365 -0.033850785 0.30445835 0.66678286
-0.2878827 -0.061731648 -0.33877912 -0.17390795 -0.1449954 -0.56070125 -0.2125418 0.024296965
-0.15569627 0.009521908 -0.118134834 0.605245 0.12120733 -0.30936116 -0.046013284 -0.20881686
-0.07136084 -0.34963286 -0.13532929 -0.3211436 -0.025063552 -0.18726505 -0.26683524 -0.3021493
-0.14415774 -0.36665604 -0.17503974 -0.22965777 -0.23823303 -0.26540834 0.061263032 -0.23117197
-0.24115185 -0.12638707 -0.111186236 -0.36200967 -0.2243862 -0.3812453 -0.22526994 -0.24708703
0.22586033 -0.09919982 -0.32600933 -0.36284468 -0.14324343 -0.1796776 -0.23286985 -0.1701638
0.16946308 0.08399418 -0.17192556 -0.1397083 -0.22524962 -0.30387357 -0.10509965 0.210839
00000000: f397 63be 0857 adbe 0efb 653e 14c3 25be
00000010: f06b 9dbe 6472 8fbe 4252 1fbf 7f5a 9fbe
00000020: 8a63 28be ce51 e1bd d5a9 563e eddb a93c
00000030: cebf 02be d40b 76be e05b b73d 7fdf a3be
00000040: 00a0 68be 50c5 ddbe cec5 9a3d 7b1a 00bf
00000050: 5188 73be 3ccc 51be b565 8dbe a775 26be
00000060: 3d2d 8c3e 59c3 6bbe a4de e2bd 30c4 83be
00000070: 1160 31be 7f99 59be 445a a9be 1be8 3fbe
00000080: a7b3 f1bd ab25 7fbe adb6 c3be 3dfc 6bbe
00000090: ec9f 2cbd 0ab2 acbd ad00 f33c fbfa ccbc
000000a0: 65fa cfbc ab27 943c cb16 4ebe 4cda c83e
000000b0: 5a7e 073e 2578 15be 0f6a 173e f4d9 48be
000000c0: 9caa a5bd b502 a93c f5b7 9f3e 3105 bdbe
000000d0: a1c0 4cbe 6c5d b2be daa3 4bbe fd03 c5bd
000000e0: cb8a 6fbd 686d 66be 89da 86be 0542 73be
000000f0: c278 ac3d df66 d5be 20f4 f7bd 8114 91bd
00000100: a5fb 27be b31e e5bc 47be a7be 2072 59be
00000110: bb8f 8bbe f9e2 a5be 5715 b4be 0545 68be
00000120: 63eb d93d 0ae3 5dbe 5682 533e d5a4 87be
00000130: 866e 88be fe5c 043d d5f0 5cbe 94e4 96be
00000140: 11c0 a6bd 6a2c 72be beab f93d 7f60 8e3e
00000150: 1de1 e2bd c90e 7fbe 6044 583d 1002 a5be
00000160: 11e8 2abe dee1 f4bc 3090 a0be 5ea5 16bf
00000170: 0db8 e2be ec6f 20be 33a0 6fbe 2175 423e
00000180: 46e3 57be 4008 92be 2875 9abe bc4b 9cbe
00000190: 1077 2dbe f2c0 16be 6607 99be 086d 94be
000001a0: ffaf eabd 39e6 3fbe e8bc 13bf 3a0b 2bbe
000001b0: 88df a0be 2dff 79be f5b5 dbbe ac10 273f
000001c0: 89f6 383d d943 67be 263e aabe 7a96 d5bd
000001d0: eff1 69be 4550 0a3d e119 61be f08f 98be
000001e0: fcac e4be 3144 d83e 42dd 2fbe ed42 7d3e
000001f0: b6e9 22be 2b51 39bb b2f6 e1bd 7f53 32be
00000200: ffa2 9c3b b53e 9c3d 9bca 0fbe f09e 3a3e
00000210: 3a20 cdbe 1fa7 0abd f7e1 9b3e 48b2 2a3f
00000220: 5c65 93be 53da 7cbd 7574 adbe ed14 32be
00000230: ad79 14be 1e8a 0fbf 8fa4 59be 6e0a c73c
00000240: d86e 1fbe c701 1c3c adf0 f1bd 56f1 1a3f
00000250: 8c3b f83d 9664 9ebe 6d78 3cbd 16d4 55be
00000260: a225 92bd 1403 b3be c393 0abe ef6c a4be
00000270: 1452 cdbc 69c2 3fbe a19e 88be 50b3 9abe
00000280: 169e 13be 57ba bbbe 9e3d 33be 682b 6bbe
00000290: 5cf3 73be 9ae3 87be f2ee 7a3d 58b8 6cbe
000002a0: 83f0 76be 9d6b 01be 9cb5 e3bd 5559 b9be
000002b0: 7fc5 65be 9532 c3be 2aad 66be 6204 7dbe
000002c0: ee47 673e 4629 cbbd b2ea a6be c7c6 b9be
000002d0: 68ae 12be 68fd 37be 6f75 6ebe 6b3f 2ebe
000002e0: bb87 2d3e 2405 ac3d 410d 30be b10f 0fbe
000002f0: d6a7 66be 5195 9bbe 7c3e d7bd 2ee6 573e

fc3.weight f4 [10, 192]
0.1721015 -0.0101550305 -0.112497 -0.08793884 0.0030291034 0.092136994 0.1881359 -0.063388124
0.004325863 -0.045478255 -0.12362738 0.05664137 0.071408786 -0.057164744 0.008763656 0.048769604
0.14751808 0.12924866 0.027237337 0.04765838 -0.09910438 0.029579408 0.13299419 0.036614988
-0.015993077 0.08592778 0.1801211 -0.0021388473 0.0494835 0.10496017 0.19575036 0.050976265
0.020778015 0.06937715 0.04173417 -0.15328309 -0.043663435 -0.12727433 0.04751716 0.028913021
-0.03502884 -0.07731435 0.016104823 -0.1430497 0.11760212 0.1718954 0.050275207 -0.09008565
0.059473835 -0.052056152 -0.04256464 -0.015893344 -0.044731468 -0.021922728 0.022246538 0.072210476
0.042765614 -0.0030174996 -0.10128878 -0.008079024 -0.035042033 -0.052480623 0.23287868 -0.04263831
-0.19076172 -0.0999341 0.09524552 0.0051841745 -0.010273427 -0.016405981 0.06797713 0.0013343059
-0.091617726 -0.02365564 0.21217376 -0.03750425 -0.057286102 -0.06828085 -0.053728584 -0.1301144
-0.056861944 -0.007968545 0.031051617 0.015754115 0.11817475 0.15039669 -0.24156454 0.038153302
-0.06947644 0.13040851 0.18489976 0.01097301 -0.008510591 -0.016642654 0.024018314 0.10698032
-0.018520545 -0.09594126 -0.09528934 -0.03750478 0.052305285 -0.04153837 -0.100412145 -0.025423214
0.022780424 -0.019530552 0.022744965 -0.092398204 0.15927699 -0.03753572 0.058157783 -0.19525209
-0.12332702 0.11514974 -0.0075148647 0.027846389 0.124423474 -0.036783565 0.06969654 -0.083300166
0.27995503 -0.10393108 0.13791278 0.19525161 0.15439834 -0.018077737 -0.019098526 -0.061742034
-0.14574148 -0.05625025 -0.05470594 0.025873227 -0.011238463 -0.15499596 -0.18507439 -0.10539058
-0.023052134 0.018059768 -0.049634136 -0.01965395 0.031195223 -0.032065846 0.003630571 -0.050685517
0.21145765 -0.026070828 0.030449465 -0.17029896 0.028340518 -0.018409656 0.024668653 -0.086870715
0.16708125 -0.11904435 -0.053651147 0.0680597 -0.11518656 -0.07151912 0.08860104 0.1023272
-0.15849458 0.12867478 0.042901725 -0.057883203 -0.23636414 0.15999246 -0.18882836 0.0050015775
0.03580147 0.09965699 -0.0034275595 -0.075067975 -0.15225786 -0.031546384 -0.027612507 0.01408908
0.064643085 0.012230953 -0.057417974 0.17716505 0.10193881 0.021572618 0.04744457 -0.07104024
0.06783573 0.011210452 0.048829313 -0.07706064 0.062150165 -0.058786575 -0.098905765 0.066288985
-0.012449414 -0.08775275 0.036135595 -0.09733617 -0.04160325 -0.0103758015 -0.014777723 -0.12477206
0.064433895 0.057914216 0.034272965 0.18104817 -0.16202842 -0.10898084 -0.18384415 0.21514878
0.016873272 -0.037780467 0.12625888 0.054541845 0.030475704 0.17972195 -0.031070422 0.08874461
0.17116998 -0.095530294 0.026484972 0.12266369 -0.12435005 0.039722122 -0.17900711 -0.09846411
-0.15037549 -0.0636132 -0.045355666 -0.10621959 -0.16123618 0.014495242 0.03918797 0.04619488
0.13665497 0.22074892 -0.085333444 -0.12919132 -0.2085699 -0.16382633 0.051965624 -0.14824657
-0.058221605 -0.017147241 -0.10950168 0.13968897 -0.08062499 -0.18814427 0.19312751 -0.0066135353
-0.0121949455 0.055947814 -0.06512866 0.10344199 0.23925397 0.18357739 0.07031417 0.036606785
00000000: 603b 303e 4961 26bc d464 e6bd 4719 b4bd
00000010: ec83 463b 52b2 bc3d b3a6 403e a2d1 81bd
00000020: f8bf 8d3b 6847 3abd 5a30 fdbd c800 683d
00000030: c53e 923d 9425 6abd 7095 0f3c a3c2 473d
00000040: fb0e 173e c359 043e d620 df3c 6f35 433d
00000050: 3df7 cabd 8450 f23c a12f 083e 99f9 153d
00000060: ea03 83bc e7fa af3d aa71 383e e72b 0cbb
00000070: 36af 4a3d 5cf5 d63d c872 483e 7dcc 503d
00000080: a836 aa3c 9b15 8e3d 73f1 2a3d 3ef6 1cbe
00000090: 6ed8 32bd 3454 02be 5ba1 423d 00db ec3c
000000a0: 677a 0fbd fc56 9ebd 43ee 833c 9f7b 12be
000000b0: 61d9 f03d 5905 303e 60ed 4d3d d37e b8bd
000000c0: d69a 733d d538 55bd 4358 2ebd c232 82bc
000000d0: 5838 37bd 4b97 b3bc 5f3e b63c 16e3 933d
000000e0: ff2a 2f3d 3ec1 45bb 7e70 cfbd e25d 04bc
000000f0: 3c88 0fbd ecf5 56bd c077 6e3e 82a5 2ebd
00000100: 0a57 43be 40aa ccbd 1510 c33d 02e0 a93b
00000110: e051 28bc d665 86bc 9837 8b3d e0e3 ae3a
00000120: 13a2 bbbd 79c9 c1bc 1444 593e 0e9e 19bd
00000130: d5a4 6abd d5d6 8bbd 8112 5cbd b63c 05be
00000140: 12e8 68bd 808e 02bc f65f fe3c c60e 813c
00000150: 9a05 f23d 9701 1a3e b25c 77be a346 1c3d
00000160: aa49 8ebd cf89 053e 5d56 3d3e 24c8 333c
00000170: 0270 0bbc 2d56 88bc 0ec2 c43c 7f18 db3d
00000180: 66b8 97bc da7c c4bd 0f27 c3bd 9d9e 19bd
00000190: 113e 563d 2324 2abd e2a4 cdbd 5844 d0bc
000001a0: 039e ba3c 89fe 9fbc a653 ba3c 453b bdbd
000001b0: 8219 233e 0ebf 19bd db36 6e3d 2af0 47be
000001c0: e092 fcbd a0d3 eb3d 413f f6bb 1c1e e43c
000001d0: bcd1 fe3d 5daa 16bd 0fbd 8e3d 4799 aabd
000001e0: 4456 8f3e d1d9 d4bd 0239 0d3e 0af0 473e
000001f0: 991a 1e3e c317 94bc 8374 9cbc 37e5 7cbd
00000200: 413d 15be aa66 66bd 5613 60bd 17f4 d33c
00000210: 8821 38bc 43b7 1ebe 2484 3dbe 04d7 d7bd
00000220: d4d7 bcbc 14f2 933c 2a4d 4bbd 5201 a1bc
00000230: 208d ff3c 7a57 03bd e0ee 6d3b 9e9b 4fbd
00000240: 5b88 583e 7d92 d5bc 2871 f93c da62 2ebe
00000250: 602a e83c d9cf 96bc ea15 ca3c 46e9 b1bd
00000260: 5917 2b3e 86cd f3bd 4ec1 5bbd e262 8b3d
00000270: eee6 ebbd 9e78 92bd 7674 b53d ec90 d13d
00000280: 674c 22be 52c3 033e b8b9 2f3d f016 6dbd
00000290: 7109 72be 10d5 233e 395c 41be 46e4 a33b
000002a0: 90a4 123d f718 cc3d e8a0 60bb 3dbd 99bd
000002b0: 7ce9 1bbe c836 01bd a033 e2bc e2d5 663c
000002c0: 9863 843d 5664 483c 1c2f 6bbd c16a 353e
000002d0: 4bc5 d03d 0fb9 b03c 3d55 423d 8c7d 91bd
000002e0: 76ed 8a3d 0bac 373c 3f01 483d f8d1 9dbd
000002f0: 2c91 7e3d 31ca 70bd 1b8f cabd 85c2 873d
00000300: a0f8 4bbc b7b7 b3bd eb02 143d 3058 c7bd
00000310: 2b68 2abd 44ff 29bc 431e 72bc 7e88 ffbd
00000320: ebf5 833d 7537 6d3d cf61 0c3d b164 393e
00000330: c7ea 25be 5931 dfbd a441 3cbe f64f 5c3e
00000340: d139 8a3c b1bf 1abd 024a 013e 4567 5f3d
00000350: 2fa8 f93c 0809 383e 6687 febc bcbf b53d
00000360: 2f47 2f3e 63a5 c3bd 03f7 d83c 1a37 fb3d
00000370: 3dab febd aab3 223d a44d 37be 8da7 c9bd
00000380: 08fc 19be a347 82bd ddc6 39bd a889 d9bd
00000390: 191b 25be 747d 6d3c 9183 203d d836 3d3d
000003a0: 48ef 0b3e 010c 623e 4dc3 aebd bb4a 04be
000003b0: 5993 55be 17c2 27be e8d9 543d f3cd 17be
000003c0: c779 6ebd 5f78 8cbc 6b42 e0bd a00a 0f3e
000003d0: b71e a5bd e4a8 40be 38c3 453e 5bb6 d8bb
000003e0: 4fcd 47bc 8929 653d 2d62 85bd 65d9 d33d
000003f0: fefe 743e b6fb 3b3e e000 903d fff0 153d

fc3.bias f4 [10]
0.044976957 -0.3112474 0.11562749 0.38057846 0.1403645 0.16612948 -0.39347708 -0.12457075
-0.0731668 0.030203303
00000000: c239 383d d25b 9fbe 1bce ec3d 2edb c23e
00000010: b6bb 0f3e d91d 2a3e d475 c9be f31e ffbd
00000020: 7ad8 95bd eb6c f73c
