practica 4/pesos/W0.npy (npy, 157128 bytes, 1 tensors)

array f8 [25, 785]
1.114396047878256 0.10318176117612099 -0.031771367667662004 -0.09643329988281467 0.004509888547443414 -0.03802634501983429 0.11351943561390904 -0.07867490956842903
-0.009361218339057675 0.03335281578201249 0.16324515407813406 0.0018747423269561136 -0.08726486224011848 0.10282769846322189 0.0481447764816627 -0.10014335164509941
0.1638840903793762 0.19311419041506123 0.12408689439863585 0.1608663801758331 -0.07594097227226695 0.09193269930405146 0.15953531518719738 0.07359357276617651
-0.011142913818914663 -0.1597195167726537 -0.02633126581848652 0.04435478937752063 0.16520442129515928 0.18664254710830352 -0.009196089378913197 0.14612397110865605
-0.09580307584321623 0.12204419243810677 0.01957821117033543 -0.1940462610607296 0.08883226272158026 -0.04094358386756161 0.1292978905737497 0.0737782299309506
-0.1890178011780262 0.012519761371328928 0.16728050158877686 -0.08245872648486081 -0.05286958642781039 0.15940895078321463 -0.11384836170978682 0.033571382611005604
-0.09777481066323786 0.19182998971672374 0.12286810481972256 -0.019082559101796917 -0.1671678339550071 -0.07197815813098171 0.0031762570082295716 0.17313352969076273
-0.15637686162755854 0.0205068984362205 0.08262456394675588 0.01897730644326398 0.12580736079565152 0.01687612317970551 0.18568582659170899 0.040781940969966284
0.03386664206451065 -0.02979965379988508 0.022840245801777112 -0.04707889404898337 0.07164102971066584 -0.0009372327079161537 -0.008772366135348415 0.0023348067907904488
0.16221288011486934 0.15341177497674197 0.058315103482927136 -0.11148201615932435 0.13784905192184113 0.1705757874756697 0.17859083004553872 0.1413116298170737
0.1605098079994263 0.16983753095397836 0.01686958343259566 -0.043481579906150036 0.0821133599417625 -0.08974635147514914 0.12465148340315141 0.13989698118012414
0.15815244128067615 0.035425937515191006 0.18211894609420645 0.02562453325193366 -0.04177613780498594 -0.0013096864687247827 0.0819450757586924 0.027912518045520963
0.016555206644092067 -0.21425447243240006 0.014636109757764484 -0.018581009317698096 0.015439631804676777 0.06592307338989493 -0.16495918781893382 0.038503916506112186
-0.21861030821557195 -0.1743458594079807 0.05436292016567187 -0.10259260016868436 0.10104065040059394 -0.17150252767155527 -0.14006094395708368 0.07944034789571798
-0.18190637285375508 0.02954641471566677 0.16414513692225777 0.01410570806342743 0.07399652374144254 -0.18622115029605413 0.06392223413157326 0.05647368529412358
0.02118188440833367 -0.10499650443366526 -0.1823918357035155 0.021583228927733344 -0.4590129308004475 -0.6635886246800095 -0.5469673087922273 -1.1711356065009024
-1.3760135020572533 -1.356412231572711 -0.8668360237228673 -0.495976856293572 -0.6634405610213577 -0.40606712244948484 -0.42211611350746975 -0.2672928035301696
-0.22247819143373793 0.01926603422192274 -0.06395506928949196 -0.12815767750952337 0.0012911402701445813 -0.18424851716612306 -0.15963150352441335 0.19546556220930925
-0.1100558809815639 -0.02366840561154232 0.18491508861909223 0.24124934382605928 0.24651305326994868 -0.1411532363201231 -0.12286484973361614 -0.25212545722756624
-1.0819663308460972 -1.394062136347299 -1.9135643394439934 -2.773408183333874 -3.261216547326806 -3.301222319733885 -3.1807910302756155 -2.6368960926240317
-1.7940450657346467 -1.2276230122817997 -0.7844343206568443 -0.6053479294017968 -0.46511366854032965 -0.17107116641035758 0.12727785034059413 -0.09295209196701378
0.024511729685874922 -0.19502547246827426 0.09664316788821678 -0.05808517714089894 -0.13218566506566568 0.03431048817818813 0.14919841552571278 0.5439267935409963
0.2774520047406476 0.20610923825082103 -0.09615440333443899 -0.2848816706604031 -0.9377444295286811 -1.4257525143597922 -1.6127985888660035 -1.811793339793148
-1.894699818773595 -1.8451653494413276 -2.2601729136351123 -2.1184578291159837 -1.8079206141532662 -1.379523036347156 -0.9409016838937547 -0.9187566839113213
-0.4641380867405272 -0.16320449323532613 -0.03927442734738562 -0.028909037680489778 0.08330460818080654 -0.03255369600742682 0.07004989284343864 -0.15055248909196034
0.11835239450179026 0.2538165952288482 0.5095293960931471 0.934853233391581 0.9391106123934159 0.8375915064964761 0.5963401570476969 0.3873915582220933
0.12914288936515506 0.22111096217910345 0.5575422408041507 1.0975238166854862 1.3541636537964563 1.245495250529726 0.633356742625482 0.21897895099865394
-0.21321778000543712 -0.5230733932071356 -0.4952422177918357 -0.47976073423274535 -0.5377870570868019 -0.10863091944198416 -0.05563951602074463 -0.09354581398625088
0.08947145976635278 -0.1991787958645074 0.14897108324094033 0.11656436318019275 0.19561862072752112 0.5504353767139184 1.13757373137391 1.4998924948892218
1.2921989871166777 1.3476247650371365 0.6727763168028676 0.9548420241178532 1.1039384465477424 1.5218110427877685 2.256027976643414 3.2796113488861534
3.854048931045388 3.673204686354186 2.627512633241762 1.5000798768511119 0.5201443481781086 -0.11420886154466367 -0.24899416650162248 -0.5777020924084889
-0.5759727491271811 -0.340172635822378 0.07894625119683475 0.032254761931565366 0.17576920558658413 0.17656165458248413 0.1958555721464559 -0.017330339701010108
00000000: 33dc 46f3 90d4 f13f 208d cbb1 1e6a ba3f
00000010: b4e1 2932 5644 a0bf f7f6 3d4d daaf b8bf
00000020: a034 1efd f578 723f 7442 7e68 3078 a3bf
00000030: dc0f 6c17 9c0f bd3f 87b6 9cf3 0924 b4bf
00000040: 008d ef74 f92b 83bf 88c9 06ca 9e13 a13f
00000050: 1e7f ff9a 37e5 c43f 009d e43e 3db7 5e3f
00000060: f447 6971 fd56 b6bf bdc1 0582 ea52 ba3f
00000070: 7f87 eca0 6ea6 a83f 643f 3aa4 fea2 b9bf
00000080: fbce 4164 27fa c43f 46f4 1c3e f7b7 c83f
00000090: a8e9 4da1 28c4 bf3f 14c8 f000 4597 c43f
000000a0: eaf8 5518 de70 b3bf a0a3 f1c0 e688 b73f
000000b0: c69d a438 a76b c43f 80fd 3944 07d7 b23f
000000c0: d09e 7993 18d2 86bf f725 896a b071 c4bf
000000d0: 58f2 3556 95f6 9abf 5847 98c3 abb5 a63f
000000e0: 2e04 4f21 6b25 c53f a0a7 ef29 e7e3 c73f
000000f0: a075 1139 66d5 82bf c462 89b6 30b4 c23f
00000100: 8052 9ae5 8c86 b8bf ec3a 30c7 493e bf3f
00000110: e259 c382 4f0c 943f 5f5d 9504 82d6 c8bf
00000120: ae07 380f b6bd b63f 6469 62b3 8ef6 a4bf
00000130: 935f ba51 d58c c03f becf b54c 21e3 b23f
00000140: 2af2 353d bc31 c8bf 3f0e 26ed f5a3 893f
00000150: e987 ca8d 7269 c53f 8db4 85dd 031c b5bf
00000160: e32b 52f1 b811 abbf b9db 2633 8367 c43f
00000170: 9628 3f8e 2a25 bdbf a6a2 caac 4430 a13f
00000180: add3 2b1e c507 b9bf 19d8 1c96 e28d c83f
00000190: d915 ecbb 4874 bf3f 0498 10dd 608a 93bf
000001a0: 37d4 e36d c165 c5bf fee9 321b 296d b2bf
000001b0: 404f 2bff 1705 6a3f 8e72 ee4f 3d29 c63f
000001c0: 424f 4531 2804 c4bf d0fb 80a8 c2ff 943f
000001d0: 3861 ff27 e226 b53f d8f2 287a c96e 933f
000001e0: 8e50 1ba2 741a c03f 1577 8f74 f947 913f
000001f0: 1964 459c 8dc4 c73f 3781 77dd 5ee1 a43f
00000200: 8450 2ff0 f756 a13f 0fb1 02ea cc83 9ebf
00000210: 7c43 01f3 6e63 973f 1262 8b8c b91a a8bf
00000220: 15b9 a807 1157 b23f 0c95 24ea 13b6 4ebf
00000230: 5764 470d 3ff7 81bf f0b3 e2d9 7120 633f
00000240: a4aa 8a43 64c3 c43f 6c57 2c3e ffa2 c33f
00000250: d2e0 a42c 7adb ad3f cc16 7fdd 158a bcbf
00000260: 1ffb e4a8 09a5 c13f f845 596a 6dd5 c53f
00000270: 5e9e 3477 10dc c63f d5ec 4dde 7f16 c23f
00000280: 31bb 05dc 958b c43f 3055 8a78 3cbd c53f
00000290: 5481 8f94 4246 913f 38c4 59b7 3743 a6bf
000002a0: 50b9 8393 6105 b53f f465 85ec 9df9 b6bf
000002b0: c44a 9ddc 28e9 bf3f 4327 7def 24e8 c13f
000002c0: dba1 8ad5 563e c43f 16a3 1d36 5923 a23f
000002d0: fd71 ba72 ac4f c73f d455 2b51 513d 9a3f
000002e0: 254f 4093 ae63 a5bf 73a4 4623 3975 55bf
000002f0: e3aa 733c 5afa b43f 1d3b 9e60 1995 9c3f
00000300: a6a7 751c d9f3 903f d937 0fc8 b06c cbbf
00000310: e88a 0066 89f9 8d3f 377e 626d e606 93bf
00000320: ff93 4e4d d09e 8f3f 8beb 42a4 55e0 b03f
00000330: 90b3 6df6 611d c5bf f1c5 520c c9b6 a33f
00000340: b95b 2d2e 6cfb cbbf 56d6 2c12 f750 c6bf
00000350: 7b07 74e8 74d5 ab3f 133e 8936 8243 babf
00000360: b780 09d1 ccdd b93f d4ec c379 cbf3 c5bf
00000370: 500c df5a 84ed c1bf a1e9 31e0 3356 b43f
00000380: 4fa1 2b41 b548 c7bf c0de ab53 6a41 9e3f
00000390: f973 7035 b502 c53f 6304 8e16 74e3 8c3f
000003a0: 0bb8 7ca9 6ff1 b23f b42a 2c3b 18d6 c7bf
000003b0: af15 1521 355d b03f b480 d86e 1eea ac3f
000003c0: 1cae 3433 b4b0 953f 38a6 bc08 0de1 babf
000003d0: 69b6 b39c 9d58 c7bf 00fa 8bf9 e919 963f
000003e0: 7ba8 8ec5 7760 ddbf bdf1 1f36 1e3c e5bf
000003f0: cccc e795 c180 e1bf d8a3 91b0 f8bc f2bf
00000400: 990b e3bb 2604 f6bf 9cfc e74f ddb3 f5bf
00000410: f74c 9ce6 1ebd ebbf 64a4 56b6 15be dfbf
00000420: e7a6 0db3 e73a e5bf f6af b9f4 00fd d9bf
00000430: eb44 a84d f303 dbbf 1c91 6746 531b d1bf
00000440: 20fc 2356 2a7a ccbf 9e89 a0ab 79ba 933f
00000450: 2404 0303 5c5f b0bf 6d3e d184 7867 c0bf
00000460: b648 074f 6f27 553f b251 c895 7495 c7bf
00000470: a03a 861b ce6e c4bf 4d74 97fa 0305 c93f
00000480: 6d5c 8c49 9f2c bcbf f03c 33d0 873c 98bf
00000490: f0f5 1331 4cab c73f 8a0a f52c 42e1 ce3f
000004a0: c16f ea5e bd8d cf3f 3018 dc2a 4f11 c2bf
000004b0: da0f 6f1f 1274 bfbf 2d03 52d0 d222 d0bf
000004c0: b2b6 65ed bb4f f1bf b541 4319 144e f6bf
000004d0: be42 0ba4 f59d febf a805 2fa1 f02f 06c0
000004e0: 968a 7fb3 f816 0ac0 88a8 603f e768 0ac0
000004f0: 238d 5391 4272 09c0 c929 86fa 5c18 05c0
00000500: 7016 4e99 68b4 fcbf cf13 1907 58a4 f3bf
00000510: 9098 2201 161a e9bf d36c ef9e 025f e3bf
00000520: 4469 d31e 6cc4 ddbf 14b2 82f4 a8e5 c5bf
00000530: 8ce8 5bfe a34a c03f f5d5 1753 b5cb b7bf
00000540: 2816 7a55 9a19 993f 17b0 113d 98f6 c8bf
00000550: d633 764d 9bbd b83f b7b1 6720 57bd adbf
00000560: 6980 3aba 75eb c0bf 7c2d 45f1 2491 a13f
00000570: 6423 a605 ef18 c33f b7a7 b529 d967 e13f
00000580: a686 a40d c6c1 d13f 736a d89a c961 ca3f
00000590: 3d14 b031 939d b8bf 6fd7 ad54 803b d2bf
000005a0: 9d9e 1a9b 0002 eebf 5cd7 55de e1cf f6bf
000005b0: 536e a3e4 05ce f9bf e05a 5803 1bfd fcbf
000005c0: 5dea d5c1 b050 febf b201 f919 cc85 fdbf
000005d0: 56f1 5a89 d514 02c0 0311 b004 9af2 00c0
000005e0: 18d7 782a 3eed fcbf d308 53bf 8612 f6bf
000005f0: 7466 22d9 dd1b eebf 562d cc6a 7466 edbf
00000600: 953a d83b 70b4 ddbf ebc3 8084 e2e3 c4bf
00000610: 7063 0d1a c71b a4bf 590d 96ad 549a 9dbf
00000620: d81e be67 7353 b53f 7b80 6ec7 e0aa a0bf
00000630: d7d2 d92e caee b13f 6a9d 7dd0 4d45 c3bf
00000640: c9d9 c9af 574c be3f 8328 ecf5 873e d03f
00000650: 2643 9297 104e e03f 1741 ff53 51ea ed3f
00000660: d4cc f1b2 310d ee3f 5ce9 f9b3 8ccd ea3f
00000670: aef6 f9f3 3715 e33f 1ddd 53f6 05cb d83f
00000680: ecc9 2a13 c187 c03f f154 ac2f 5d4d cc3f
00000690: 698e 4cd3 62d7 e13f 98ec 3322 758f f13f
000006a0: 66cd e781 a7aa f53f 7593 856d 8ced f33f
000006b0: 90e1 085c 7544 e43f 009b 8694 8007 cc3f
000006c0: 1848 0660 b84a cbbf ca6f a769 04bd e0bf
000006d0: a5ec 406a 0cb2 dfbf 4ed0 db5d 66b4 debf
000006e0: f9cb cc33 8d35 e1bf a475 5666 3ccf bbbf
000006f0: 8846 595b c87c acbf 53a7 bf53 9ef2 b7bf
00000700: 8b32 9f01 9ae7 b63f 5db9 25d7 b07e c9bf
00000710: 70e6 4805 7c11 c33f 34ed bc7f 29d7 bd3f
00000720: d4b4 41ed 070a c93f eb86 b1a6 2a9d e13f
00000730: 56a2 5083 8033 f23f 770a d145 8fff f73f
00000740: 8272 59d8 d8ac f43f b4d3 51fc de8f f53f
00000750: 0322 c632 6287 e53f 0cd8 4ddc 108e ee3f
00000760: 7983 4b5c bba9 f13f 2471 3789 5659 f83f
00000770: 2b5b 5465 580c 0240 a973 f8df a43c 0a40
00000780: 8a30 209b 17d5 0e40 c83d 7b23 b962 0d40
00000790: 3bcd ec57 2505 0540 6769 c7c1 5300 f83f
000007a0: 8ff9 93c2 05a5 e03f be6a 3fbd ca3c bdbf
000007b0: b276 0275 0adf cfbf 1535 3719 897c e2bf
000007c0: 3a6e 1c67 5e6e e2bf 947a 7672 63c5 d5bf
000007d0: a93e 084f d235 b43f 3bce 4537 b283 a03f
000007e0: 23b3 d1f6 9a7f c63f ce67 1482 9299 c63f
000007f0: f1df 8d9e cb11 c93f 4f46 fa68 0bbf 91bf
