practica 4/pesos/W1.npy (npy, 2208 bytes, 1 tensors)

array f8 [10, 26]
000000 07 21 7e 27 51 66 eb bf 36 6f e4 72 11 69 f0 bf
       -0.8562398692456846 -1.0256514060956312
000010 4a 12 52 21 28 fb fe bf 9b de 2d 2c c4 bd cd bf
       -1.9363175679765328 -0.23235370785890982
000020 cc 32 88 f5 c6 64 02 c0 ee 41 4d e8 23 24 de 3f
       -2.299207609385439 0.47095582662316715
000030 fa 91 91 a2 76 f8 ef bf 27 11 71 71 d2 25 e2 bf
       -0.9990800070923449 -0.5671169486672952
000040 cf 57 44 3e 60 35 f1 3f 7d c6 34 1f 88 ed f3 bf
       1.075531237821895 -1.2454911440840128
000050 96 d2 8c c5 98 9c e1 bf 58 98 16 b4 d9 e5 e3 3f
       -0.5503658159637606 0.6218079106663579
000060 92 a6 2c 38 28 33 cf bf 26 20 f9 fc 12 25 cc bf
       -0.2437486910142082 -0.2198814139576381
000070 f1 16 df 00 c0 39 e8 bf 29 52 49 ea b4 97 c6 bf
       -0.7570495621700656 -0.17650472106710538
000080 ca 11 dc 22 bb 47 ed bf ed 85 18 69 75 70 f1 bf
       -0.9150062256672353 -1.0899557214073596
000090 93 79 75 fa ad f9 d5 bf 68 4e 81 b7 7b 4b f2 bf
       -0.3433642335784494 -1.1434285324256965
0000a0 36 88 c7 1e fe 12 e4 bf 94 dd d4 88 b2 f3 03 c0
       -0.627318439594325 -2.4939928712808044
0000b0 ba 67 aa 3e 62 94 d5 bf cc 78 41 8f 66 6e f6 3f
       -0.337181626507682 1.4019532771995271
0000c0 3c 7b 51 6d e5 07 e4 bf c5 88 a7 08 21 de f0 3f
       -0.6259638915179049 1.054230722242708
0000d0 53 67 89 b9 f9 e1 e6 bf d0 06 d4 eb ee bd d1 bf
       -0.715084898353988 -0.2772176077852295
0000e0 7e 68 cd 49 10 0d f8 3f d7 13 99 9a e2 3b 06 c0
       1.5031893618493366 -2.779240806385569
0000f0 2a 8b 93 2a b3 95 c3 3f 62 52 9b e4 78 78 04 c0
       0.15300597742960892 -2.558824335088773
000100 08 d4 8e ef 2a 18 d9 bf ee 00 32 91 cc 60 db bf
       -0.39210008043602373 -0.4277831476138222
000110 c9 e8 6c 51 7d 1e da 3f 87 6e 28 20 50 95 e9 bf
       0.408110932843226 -0.7994766834339807
000120 b3 ad 0c 02 e3 6f de 3f 9d 49 41 7a 12 6c da bf
       0.47557902526997536 -0.41284620226829266
000130 ca 85 45 16 cd 70 e7 3f 2c 38 e8 22 be 05 e5 3f
       0.7325196681014685 0.6569510156421123
000140 73 0d 76 89 da 95 f3 3f a2 1f 2b 0a 40 cc cb 3f
       1.224085366208638 0.21717072006708543
000150 9a 6a 65 69 a2 f0 ee 3f 89 a5 b0 08 09 c8 d1 bf
       0.9668743189352711 -0.2778341851104292
000160 4c 85 cb f4 f3 47 ef 3f c2 43 7a 9f 02 83 e9 3f
       0.9775333195831677 0.7972424616619878
000170 c3 f5 55 76 54 19 af bf 09 a0 57 d0 04 51 ad bf
       -0.06074012703445988 -0.05725874942055504
000180 e7 98 f9 52 e6 03 ef 3f f2 39 94 5d bc 32 fb bf
       0.9692260380368481 -1.6998866706304594
000190 3f a3 31 94 31 4c dc bf 1d b4 c2 0c e7 44 d2 bf
       -0.44215049240169785 -0.2854554772009708
0001a0 30 d2 bf 6f 56 96 f1 bf b0 1a 92 f6 c5 b1 e9 bf
       -1.0992035260397977 -0.802950841506421
0001b0 39 ea c4 f5 d7 5f fd bf 5b 99 e8 1a 13 77 c4 3f
       -1.8358993149146399 0.15988386930366513
0001c0 6c 31 95 b1 e0 df ca 3f a3 53 f5 63 53 ab d0 bf
       0.2099572054961628 -0.2604568935542437
0001d0 18 3a 2d 87 a4 b8 f4 bf 9d a7 9b 28 1d b8 e8 bf
       -1.2950787811602193 -0.7724748414159311
0001e0 35 81 ab 6b e2 6e d9 3f bb 5e 48 eb 06 0d ed bf
       0.39739285006182296 -0.9078402133336206
0001f0 2e 4a e2 00 1d 72 e2 bf a4 8c ad 5f c4 81 0a c0
       -0.5764298455490626 -3.3133628344381396
000200 70 89 50 14 8d 16 d9 bf f5 b2 24 a2 47 d4 d3 bf
       -0.3920014093765962 -0.30983153185188367
000210 62 fd ac 57 20 47 f5 3f 7b 09 33 58 3d 35 ce bf
       1.3298648285707135 -0.2359997444783167
000220 bf 7c 61 00 d4 b6 c8 bf 95 f5 d9 db ef a6 f6 bf
       -0.1930794717654631 -1.4157560909219218
000230 71 a5 6c d0 25 5e dd bf 91 35 0a 67 2c 04 cb 3f
       -0.45887132028527505 0.21106486350292333
000240 81 ab 0a ec ca d1 e6 bf 47 54 1f ba fe a6 c9 3f
       -0.7131094560803463 0.20040878379828284
000250 eb 5d 2f f4 0d 6a e4 bf 26 aa 0f b4 ba eb fc 3f
       -0.6379461068381124 1.8075511010780558
000260 e0 02 88 89 2a 5e e8 bf 9f 11 b8 a7 10 ab f5 bf
       -0.7614948927076419 -1.3542639304660964
000270 60 50 cc a5 69 2c 01 c0 25 82 7d 21 87 4d bc 3f
       -2.146685881898563 0.11055798118241762
000280 26 d2 3e 65 e9 a5 e2 3f 4c af 41 3e f4 37 d0 bf
       0.5827528932046036 -0.25341516570801015
000290 bd 2f c3 98 8d 69 d6 bf 55 f8 a6 4f c3 40 e6 3f
       -0.35019245069701893 0.6954056316096834
0002a0 48 e7 6c 69 81 8a 01 40 7b 01 52 61 85 7f f5 bf
       2.192629645954103 -1.3436330606055822
0002b0 c2 dd 50 cc ca 26 a5 3f 77 6e a8 1c bb c8 f2 bf
       0.041311585846809176 -1.1740065688562973
0002c0 f7 a7 e9 b1 90 c3 d2 bf 67 1e 5a de da e9 f0 bf
       -0.2931863534382723 -1.0570934949518234
0002d0 cf 57 29 b2 26 fa e0 bf 1a 2c 03 b3 10 04 df bf
       -0.5305360297886582 -0.48462312204054714
0002e0 96 eb 2f 19 ee 1d ed 3f bc e2 74 6a 94 0e b3 bf
       0.9099035732209468 -0.07444121932065689
0002f0 df 69 bb c2 10 3e fc 3f 68 a9 5d 68 db a0 cf bf
       1.7651527029726066 -0.24709646793355522
000300 42 c2 99 98 ed 9f e8 bf 59 c0 18 da 13 93 bb bf
       -0.7695224743347995 -0.10771297526002978
000310 67 45 55 9a fc 57 f1 3f b6 7f 77 6d 6b 21 ee bf
       1.0839811352382982 -0.9415795457862177
000320 c2 bf d7 42 1b 11 e1 bf be cb df 87 a7 13 ea 3f
       -0.5333381944201323 0.8148992208283443
000330 b8 fe 48 62 fa a9 f5 bf bf cc 3b da 37 f0 df bf
       -1.3539985503447678 -0.4990367537677222
000340 47 96 75 f3 e2 b8 e7 bf f5 b4 98 ea 5c 00 fc bf
       -0.7413191561760833 -1.7500886119772165
000350 a1 53 96 d8 c0 aa f2 bf c8 53 20 97 d9 c6 d0 bf
       -1.1666878185689955 -0.26213683851647973
000360 26 47 fd 21 87 e7 e1 3f 89 a7 76 9f 9e 02 d8 3f
       0.5595126785139868 0.3751598889599497
000370 40 fc 98 75 5f df d2 3f d5 42 6c 45 c2 00 dd bf
       0.29488359913006335 -0.4531713178594548
000380 04 c6 ba 92 3b ec e4 bf 1e ee 28 01 8f ad 0a 40
       -0.6538370004474818 3.334745415746297
000390 86 2e bb 7f dd c9 d9 bf ee cd 07 9c 7b a6 c0 3f
       -0.4029458758711616 0.1300806533687217
0003a0 40 24 f9 fe 44 2c c5 bf 1c 3e c8 d3 5f b2 bc bf
       -0.16541349840034236 -0.11209677620376407
0003b0 59 85 66 74 3e a0 fa bf 0d fe a4 da 3f 3d b1 bf
       -1.664122061433167 -0.06734084213257337
0003c0 2e 92 17 1b 18 03 99 3f 97 4e f2 60 c8 ba e4 bf
       0.0244258657966318 -0.6478006261335904
0003d0 6a 19 53 26 ba 47 c8 bf 90 2e 3e 5e a8 12 eb bf
       -0.18968893882101706 -0.8460275498086549
0003e0 fb 19 da 78 c6 5e ca bf e1 ab b1 4d 01 75 e1 3f
       -0.20601731205915982 0.5455328481160643
0003f0 04 9b cb 85 50 0c a7 3f f5 62 ca 5c de b4 f6 bf
       0.045015827495992894 -1.4191573738700616
000400 32 18 ff 52 6b fe db bf c5 40 db cb cb b6 f2 bf
       -0.4374035177719434 -1.1696279490607122
000410 86 0b 81 52 4b 9a f4 bf bf cb c3 52 00 b3 d1 bf
       -1.287669489175387 -0.2765503700495024
000420 c3 23 ba c8 be 2e 01 40 ac f4 9e dd c1 25 c5 bf
       2.147824829273732 -0.16521476098379162
000430 33 75 36 04 38 a3 cd 3f 2f fb 25 e1 ec 53 7a 3f
       0.23154354291629317 0.006427693663112063
000440 be 83 4c af 45 89 6a 3f 38 27 06 b1 40 d6 d8 bf
       0.0032392846136563838 -0.3880769470930434
000450 5f 60 35 ed 20 62 e9 3f 43 e4 81 16 40 20 ef bf
       0.7932285912493277 -0.9726868095014044
000460 9b 9a 79 a0 73 3f 97 3f f2 34 9f dd ae 69 93 bf
       0.022702986402146946 -0.018957836415030856
000470 e9 d8 33 e5 f2 0d c2 3f bd 5a b0 84 19 d2 ac bf
       0.14105068389444078 -0.05629043335664139
000480 e4 49 b9 ad 33 25 fd bf 94 d3 94 44 df ce c5 3f
       -1.8215824876866629 0.17037573670100115
000490 e9 4b a3 71 28 6a e5 bf d0 39 b6 4f c4 c9 c8 bf
       -0.6692087382783686 -0.1936574353425855
0004a0 42 fb 0c b8 3f 87 bb 3f 93 71 82 0c 46 f7 f3 bf
       0.10753248446870337 -1.247869538178837
0004b0 a3 d8 12 8d c6 54 b1 3f 9b 0f 33 02 c3 2f ef bf
       0.06769982284717684 -0.9745802920301573
0004c0 2e 21 43 fc 1e 9c b7 bf ac aa 56 ea e8 41 b6 3f
       -0.09222596796746949 0.0869432041278439
0004d0 9a 88 04 90 9e 35 dc bf 5c 4e 82 ec 13 16 f2 3f
       -0.44077266754369193 1.1303900946267254
0004e0 8e a8 ed 5e f1 db f2 bf 1f 75 66 91 81 c1 eb bf
       -1.178696986020927 -0.8673713531349313
0004f0 06 02 18 bd 71 25 f1 bf 8b 6c e4 88 ec 57 c2 bf
       -1.0716416727519813 -0.1433082264346449
000500 90 82 4d bc be 2a d4 bf 24 ab cd ed 10 42 03 c0
       -0.3151089514631531 -2.407258851851468
000510 8c 1f 0c 03 d9 8d e0 bf ab 4c 13 df fa 3b eb bf
       -0.5173153934019736 -0.8510717732373413
000520 33 6b 3f d8 5a 7c f0 3f bf 9e fa 79 81 d7 d8 3f
       1.0303600737740453 0.38815342819223625
000530 b2 9b d1 83 ca c3 dd 3f 61 5c ac 91 33 f0 b2 bf
       0.4650751387875359 -0.07397768312908816
000540 fd e7 24 a9 c5 5a cd bf 95 76 07 95 72 77 cb bf
       -0.22933264502518105 -0.2145827510529911
000550 1c 0a e8 9c e6 43 f5 bf 4d b9 a4 31 f7 53 af 3f
       -1.329077351489679 0.061187481698982006
000560 ef 6e d7 a6 cf c1 f1 bf e9 5b f6 2e 66 94 09 40
       -1.1098171727416533 3.1974605244572456
000570 c3 8b 9b 9f f5 d3 d8 bf f7 62 8f 38 14 f8 e9 3f
       -0.3879369791667921 0.8115330795945671
000580 6c 8c 5a 34 d2 ea c1 bf 95 27 fd fb 91 1e bf bf
       -0.1399786716111494 -0.12156021501610177
000590 4c 82 60 60 32 38 da bf 65 e6 1c b8 52 2e f4 3f
       -0.40967997943701984 1.2613093559179103
0005a0 f0 f0 62 63 2e 6a ea bf c4 5c a4 8f 26 6b e1 bf
       -0.8254615727560388 -0.5443299108036617
0005b0 d1 98 32 9e 53 71 e6 bf 43 02 ad 82 25 30 07 40
       -0.7013338174627056 2.8985090455101115
0005c0 36 65 79 96 5a 6d f3 bf 13 b7 1b 33 cd ab a0 3f
       -1.2141977193735563 0.032560741890718024
0005d0 d6 c5 64 a2 bd 5b 01 c0 05 f3 bc c9 63 b8 da 3f
       -2.1697952925685327 0.4175042600725621
0005e0 a3 13 0a 71 ed a8 e6 bf 9f df cd 89 59 11 dd bf
       -0.7081210334587137 -0.45418394524994626
0005f0 8b 02 0d 42 eb 82 04 c0 8d e0 ab 3f 26 4f ab 3f
       -2.5639252815456692 0.05333823706854544
000600 db 52 7d 2b 77 1e d9 bf be a1 fd 2e 3f 85 d1 bf
       -0.3924844670012086 -0.27375773991527896
000610 e5 7e 14 33 0a 8e d1 bf 4e eb 4e e2 86 69 d0 bf
       -0.2742944239453052 -0.2564408502618577
000620 08 b6 71 cd 4a ee fa 3f 1e c2 9b 43 e4 5c bf bf
       1.683176805988639 -0.12251116419407324
000630 bd 92 71 92 df 67 ca bf fe 17 0a d7 9d 2d 68 3f
       -0.2062949624115812 0.0029514391720253377
000640 48 da ee d7 f1 fb d3 bf a2 e7 bb d5 b1 57 e2 3f
       -0.31225248419960794 0.5732049154751062
000650 3e 05 b6 b9 9b 41 d6 bf 60 34 13 de d4 72 c1 bf
       -0.3477544129928737 -0.1363168796873735
000660 5e 30 9e 72 84 c5 dd bf 1a d3 63 6b 97 a0 f3 bf
       -0.4651805037799529 -1.2267069048804786
000670 84 54 a3 ee 3b 4d dc bf 33 8c 8b 10 a8 5e e1 bf
       -0.44221399597638134 -0.5428047488352433
000680 2e d8 f6 cd 44 af 00 c0 60 99 da 7a 6f 5e f7 bf
       -2.0855804530101727 -1.4605555342655734
000690 6d 8d cd 9a e6 3c f3 3f 79 c9 66 e4 41 31 ad 3f
       1.2023683592786611 0.057016429072421944
0006a0 28 a9 25 60 a6 44 e0 3f 4c 86 35 12 d2 7e db 3f
       0.5083801153062142 0.429615514547639
0006b0 63 84 7a 70 ad 12 fb bf a9 80 79 c5 58 7e f2 bf
       -1.6920599359221107 -1.1558463777401278
0006c0 70 48 b7 61 53 af fc 3f d6 4a 34 00 e3 a8 fd bf
       1.7928041283635388 -1.8537321098307777
0006d0 35 c7 a4 91 50 86 e8 bf b2 5c 5f 61 dd 63 e0 3f
       -0.7663958401301217 0.5121905233198929
0006e0 c5 1b 16 95 61 9c e0 bf 6e f3 c3 96 3a 52 e0 bf
       -0.5190894996493333 -0.5100377030026786
0006f0 94 bf 67 22 7a 0a e1 3f f9 dd 66 c0 6d 36 d0 bf
       0.5325289413431045 -0.25332206525078466
000700 5f 3d 75 a7 83 a4 f1 bf 95 99 99 a7 f5 16 f0 bf
       -1.1026646176649917 -1.0056053683161725
000710 f7 f9 59 17 c0 86 e8 bf de ae 34 9f c2 9e fd bf
       -0.7664490181048781 -1.85125982465518
000720 89 a6 9d 09 89 64 ef bf a0 c5 c9 01 00 44 db 3f
       -0.9810223758515387 0.42602539229036474
000730 08 8a 7b 12 e2 9f ed bf 9c 4e 1e e8 03 11 f5 bf
       -0.9257669793117325 -1.3166541163563243
000740 cd 3e bb bb 9f ec f1 bf af 06 3f 3b 75 6b fc bf
       -1.1202695210703724 -1.7762348474792977
000750 c5 a7 b1 8d 3a e0 e0 bf 23 c1 fb 96 eb c3 e7 bf
       -0.5273716704807546 -0.7426660488982048
000760 4f c3 f6 64 cd fb ac 3f 75 c2 3c 22 09 ea 8a 3f
       0.056608599257180196 0.0131417001317413
000770 80 6f 21 be f9 3a e5 3f 22 a0 ee 29 66 86 e3 3f
       0.6634491647232466 0.610156137369817
000780 83 e1 80 49 18 56 e0 3f ef 12 56 78 b4 53 cc bf
       0.5105096278776248 -0.22130447269241624
000790 4f 2d 77 0f 16 bd 09 c0 2d 7f 3c 49 2f 10 01 c0
       -3.2173272331471376 -2.132902691038814
0007a0 2b 63 4b 98 1a b0 d8 bf 9d 64 29 ec 4d a3 d5 3f
       -0.38574852821834565 0.33809230864205536
0007b0 97 9f b9 4f ca 14 bb bf e2 66 a8 a1 af 96 a1 bf
       -0.10578598448193897 -0.03435276840555247
0007c0 fc aa e7 54 85 38 e8 bf a2 31 b0 b1 9e de ab bf
       -0.7568995149898394 -0.05443283003851042
0007d0 d1 e0 9c 0f 53 5f e0 bf f2 92 0a 60 a9 d5 e2 bf
       -0.5116362862527472 -0.5885817409331067
0007e0 e0 c5 83 1b 1d ed d1 bf 89 4e 89 d4 0d 0e f3 bf
       -0.28009727179514066 -1.1909311582757331
0007f0 18 d7 cd a6 bc 5e d4 bf 47 53 36 d9 f9 45 d3 3f
       -0.3182822827287608 0.3011459943020793
